Android/application/app/src/main/assets/OCR/model.tflite (tflite, 653712 bytes, 72 tensors)

Dense2/bias f4 [38]
00000000: 118c d2be f72f b0bd 6db8 27bc 0c1c 85bc
00000010: 6c87 a5bd 4867 98bd c51e e7bd e374 0d3d
00000020: ab3a 9cbd c074 abbd 6ae5 71bd 5834 ecbb
00000030: 4834 babc cf9f 473b 143f 86bd d96b d9bd
00000040: d51a c73c 8929 ba3c 8d19 9fbc a5e8 9abd
00000050: 587a 243c 9a8a 223a b0bc d1bd e964 c2bc
00000060: bb63 3bbd ebe8 023d 2701 68bd f925 64bb
00000070: b3be a53b 9d50 c9bb 2909 b1bd 1001 79bd
00000080: dfb6 30bd c72c 1a3c eff7 98bc 2988 8fbd
00000090: 9e9b ebbc 82ba 593e
-0.41122487 -0.086028986 -0.010236842 -0.016248725 -0.0808247 -0.07441574 -0.11285166 0.0345353
-0.076283775 -0.08371878 -0.059056677 -0.0072083883 -0.022730008 0.0030460244 -0.06555 -0.106162734
0.024304787 0.022724884 -0.019421363 -0.07563905 0.010038935 0.0006200463 -0.102410674 -0.023729758
-0.045749407 0.03196041 -0.056641724 -0.0034812673 0.0050581335 -0.006143643 -0.08644325 -0.06079203
-0.04314315 0.00941009 -0.018672911 -0.07008392 -0.028760727 0.21262553

Dense1/bias f4 [64]
00000000: 174b 3cbd 4812 1b3d e0c8 a4bd 0555 22be
00000010: 9e4a 16bc f5de 94bd 2440 bdbc 74b4 793d
00000020: 60d3 af3b aad6 193d 776b 50bd e191 2dbd
00000030: 6672 0dbe 0834 21be 3468 0cbd 4e4a 93bd
00000040: acca 62bd f3c8 3ebe 9a74 fabd c9a9 82bd
00000050: 6042 41ba 5b1f 303d f5c5 aebd f534 c6bd
00000060: d07b 2f3c 0ef2 303d 875c 8a3d 6099 06be
00000070: 2813 503d edda 51bd c86e 8dbd e16e 06be
00000080: 4bde 75bc 1c13 ff3d b805 583d 7da6 7d3b
00000090: 8f20 9e3d a8a5 05bc 4a7d b7bd dbeb 65be
000000a0: 0f50 79be 4ee8 7dbc 3949 c5bd 3ac7 88bd
000000b0: 5896 b43d bbf5 593d a21e c13d f03a f0bb
000000c0: e993 293e f63d f7bc 87fb ebbd 3422 47bd
000000d0: cfe0 da3d 3f38 d3bb 670a c3bc 8a95 76be
000000e0: d76b 20bd 70db 933d 6696 463d 125c 48bc
000000f0: 4d8d 8fbd edcd 9ebd 6a72 0e3e 90dd 40bd
-0.04597005 0.03785923 -0.08046126 -0.15852745 -0.009173064 -0.07269088 -0.023101874 0.06096311
0.005365774 0.037558235 -0.050883736 -0.04237545 -0.13813171 -0.15742505 -0.034279063 -0.07191907
-0.055369064 -0.18631344 -0.12229271 -0.0638004 -0.00073722564 0.042998653 -0.08533851 -0.096780695
0.010710672 0.04319959 0.067559294 -0.13144445 0.05079952 -0.051234175 -0.069058955 -0.13128234
-0.015006612 0.12454817 0.05273983 0.003870397 0.07721054 -0.008157171 -0.08959444 -0.22453253
-0.24346946 -0.01549728 -0.09633107 -0.066786245 0.08817738 0.053212862 0.09429671 -0.0073312446
0.1656033 -0.030180912 -0.115225844 -0.048616603 0.1068741 -0.006445914 -0.023808671 -0.24080482
-0.039165344 0.07219589 0.048483275 -0.0122289825 -0.07009373 -0.07754121 0.13910833 -0.0470863

std.constant9 f4 [32]
00000000: 5ebf 633b f016 643d a557 2b3e 020e b141
00000010: b472 1d3b 1a89 1c3d 5af9 a83d e192 cb41
00000020: 4c01 c441 6720 023d 815a 693d db92 8e3e
00000030: fa54 a43d 729e 253b 9f51 573d f8d9 1c3d
00000040: d310 d93c 669e 3b3d 28bc 413d b144 5d3d
00000050: 110a 803e c26d 4c3d 8903 543d 0af0 d241
00000060: 58c7 763d dd61 1f3d d889 ae3d 6634 fa3c
00000070: a327 333b 87e3 0f3d c3e9 2f3d 7b0e 463d
0.0034751515 0.055685937 0.16732652 22.13184 0.0024024667 0.038216688 0.08250685 25.446718
24.500633 0.031769183 0.056971077 0.27846417 0.080240205 0.0025271443 0.052568074 0.03829381
0.02649728 0.045805357 0.04729858 0.054020587 0.2500768 0.04990936 0.051761184 26.367207
0.060248703 0.03891169 0.08522385 0.030542564 0.0027336858 0.035129096 0.042947542 0.048353653

std.constant10 f4 [32]
00000000: 38fb 67bd c49a d5be f024 46bc c3b0 003c
00000010: 58fc a6bc 29c6 73be 0003 9e3b 0abd 1f3c
00000020: 6490 95bb f839 473c 4189 0bbf 8ac1 903c
00000030: d09f 9f3d 50c6 4bbc 725b 5d3d 2f54 873d
00000040: 81de 02bf 5dc4 dfbe 97fc 92be 6c19 53be
00000050: 821a c8bc 80e8 6bbc f520 dabe 5d87 ecba
00000060: c6aa fbbe 8847 d5be 0243 a73e 1eff a13c
00000070: 0ecd 81bd 6264 e0bd d6c9 bfbe b882 f2be
-0.056636065 -0.4171964 -0.0120937675 0.007854643 -0.020383999 -0.23806061 0.004822135 0.00974966
-0.004564332 0.012159817 -0.5450631 0.017670412 0.07794154 -0.012437418 0.054042287 0.066078536
-0.51120764 -0.437045 -0.28708336 -0.20615166 -0.024426702 -0.014398694 -0.4260327 -0.0018045712
-0.49153727 -0.41656137 0.3266831 0.01977497 -0.06337939 -0.109566465 -0.37458676 -0.47365355

std.constant11 i1 [128, 128] scale=0.009469 zero_point=0
00000000: 2301 d801 0602 f6f8 ff08 25ea f3ec d90f
00000010: e2ef dbf1 e432 edef b9ee 040d 18f2 df11
00000020: 000d 07f8 0609 1103 0de9 fd3e f53e 16b6
00000030: edf5 fce3 fce4 edeb 1206 080a faf3 fd2c
00000040: 16fd 1dd2 1614 0df7 e607 faf9 fee5 ef12
00000050: 16f4 201d f3da f6f7 effc 0f01 18ce 0bfe
00000060: 15ea 0cf4 1dea 21eb f726 17f4 0efc 0920
00000070: e60a e0f3 12c8 0916 0627 055c ebc1 0b05
00000080: 08f3 04e5 fde3 0f1b fff6 3646 f109 10f6
00000090: 1103 04da 04ea ebdc 0dfe 190a e71d 08e8
000000a0: 0e0e fc04 ebf7 030e 210f 1518 1abc f02b
000000b0: f204 ef01 1204 01f1 f4fa e91c 020c 0d01
000000c0: 0e06 eb17 13f7 f823 ffe0 0f23 f607 f701
000000d0: f718 10eb 0602 07ff 0001 3cef 06c1 17f7
000000e0: f3f4 dc16 0919 fe0f e8e5 190c d9fd 0adf
000000f0: 0804 0b06 030b 08ef e1d0 1107 f720 f206
0.331415 0.009469 -0.37875998 0.009469 0.056814 0.018938 -0.094689995 -0.075752
-0.009469 0.075752 0.350353 -0.208318 -0.123096995 -0.18937999 -0.36929098 0.142035
-0.28407 -0.160973 -0.350353 -0.142035 -0.26513198 0.47344998 -0.17991099 -0.160973
-0.67229897 -0.170442 0.037876 0.123096995 0.227256 -0.13256599 -0.312477 0.160973
0.0 0.123096995 0.066282995 -0.075752 0.056814 0.085221 0.160973 0.028407
0.123096995 -0.217787 -0.028407 0.587078 -0.104159 0.587078 0.208318 -0.700706
-0.17991099 -0.104159 -0.037876 -0.27460098 -0.037876 -0.26513198 -0.17991099 -0.198849
0.170442 0.056814 0.075752 0.094689995 -0.056814 -0.123096995 -0.028407 0.416636
0.208318 -0.028407 0.27460098 -0.435574 0.208318 0.18937999 0.123096995 -0.085221
-0.24619399 0.066282995 -0.056814 -0.066282995 -0.018938 -0.25566298 -0.160973 0.170442
0.208318 -0.113628 0.303008 0.27460098 -0.123096995 -0.35982198 -0.094689995 -0.085221
-0.160973 -0.037876 0.142035 0.009469 0.227256 -0.47344998 0.104159 -0.018938
0.198849 -0.208318 0.113628 -0.113628 0.27460098 -0.208318 0.312477 -0.198849
-0.085221 0.35982198 0.217787 -0.113628 0.13256599 -0.037876 0.085221 0.303008
-0.24619399 0.094689995 -0.303008 -0.123096995 0.170442 -0.53026396 0.085221 0.208318
0.056814 0.36929098 0.047344998 0.871148 -0.198849 -0.596547 0.104159 0.047344998
0.075752 -0.123096995 0.037876 -0.25566298 -0.028407 -0.27460098 0.142035 0.25566298
-0.009469 -0.094689995 0.51132596 0.66283 -0.142035 0.085221 0.151504 -0.094689995
0.160973 0.028407 0.037876 -0.35982198 0.037876 -0.208318 -0.198849 -0.340884
0.123096995 -0.018938 0.23672499 0.094689995 -0.23672499 0.27460098 0.075752 -0.227256
0.13256599 0.13256599 -0.037876 0.037876 -0.198849 -0.085221 0.028407 0.13256599
0.312477 0.142035 0.198849 0.227256 0.24619399 -0.643892 -0.151504 0.407167
-0.13256599 0.037876 -0.160973 0.009469 0.170442 0.037876 0.009469 -0.142035
-0.113628 -0.056814 -0.217787 0.26513198 0.018938 0.113628 0.123096995 0.009469
0.13256599 0.056814 -0.198849 0.217787 0.17991099 -0.085221 -0.075752 0.331415
-0.009469 -0.303008 0.142035 0.331415 -0.094689995 0.066282995 -0.085221 0.009469
-0.085221 0.227256 0.151504 -0.198849 0.056814 0.018938 0.066282995 -0.009469
0.0 0.009469 0.56814 -0.160973 0.056814 -0.596547 0.217787 -0.085221
-0.123096995 -0.113628 -0.340884 0.208318 0.085221 0.23672499 -0.018938 0.142035
-0.227256 -0.25566298 0.23672499 0.113628 -0.36929098 -0.028407 0.094689995 -0.312477
0.075752 0.037876 0.104159 0.056814 0.028407 0.104159 0.075752 -0.160973
-0.293539 -0.454512 0.160973 0.066282995 -0.085221 0.303008 -0.13256599 0.056814

std.constant12 i1 [128, 128] scale=0.012759204 zero_point=0
00000000: 12ea ea0f f0f9 07fb 0914 1116 eefd eb0a
00000010: 0ff1 d0f6 081e 0907 feec f205 13ec f30b
00000020: 0c11 0c0e f6f5 e203 0b02 ff20 0218 05b7
00000030: 03fc 11ef d204 20f4 1804 08fa 17f5 1d0d
00000040: 16f4 0ee0 141f 13ed f6f7 02f3 1406 ffe4
00000050: 16e7 0c00 06dc 21e3 f00d 14fb 13cd 0906
00000060: 18ed f0de f7f0 14fe 032a 0be0 2813 1310
00000070: df0b f1e7 0616 f211 001d 0718 fcce f12e
00000080: 0901 0e06 e60a f4f8 1301 cef6 d706 e915
00000090: ffe9 fa18 f3f7 0af4 e718 fd0f 0601 00e4
000000a0: 0b08 0c01 0cfc 12fd 0710 0d13 0dfd 1516
000000b0: e6ee 0805 1607 09fb 0af1 0305 edf9 11fb
000000c0: fe00 fb12 0a0b 09fe dffe fbef 16fa e913
000000d0: 24f8 10f8 28d8 02e7 ef0f 1405 ed0f 111f
000000e0: 0afb f40d e704 112d 1808 09cd f924 1a09
000000f0: fdfb e0e7 0516 f3ee f5fe 0efc f7f6 02e5
0.22966567 -0.2807025 -0.2807025 0.19138806 -0.20414726 -0.08931443 0.08931443 -0.06379602
0.11483283 0.25518408 0.21690647 0.2807025 -0.22966567 -0.03827761 -0.2679433 0.12759204
0.19138806 -0.19138806 -0.6124418 -0.12759204 0.10207363 0.3827761 0.11483283 0.08931443
-0.025518408 -0.25518408 -0.17862886 0.06379602 0.24242488 -0.25518408 -0.16586965 0.14035125
0.15311044 0.21690647 0.15311044 0.17862886 -0.12759204 -0.14035125 -0.3827761 0.03827761
0.14035125 0.025518408 -0.012759204 0.40829453 0.025518408 0.3062209 0.06379602 -0.9314219
0.03827761 -0.051036816 0.21690647 -0.21690647 -0.58692336 0.051036816 0.40829453 -0.15311044
0.3062209 0.051036816 0.10207363 -0.07655522 0.29346168 -0.14035125 0.3700169 0.16586965
0.2807025 -0.15311044 0.17862886 -0.40829453 0.25518408 0.39553532 0.24242488 -0.24242488
-0.12759204 -0.11483283 0.025518408 -0.16586965 0.25518408 0.07655522 -0.012759204 -0.35725772
0.2807025 -0.3189801 0.15311044 0.0 0.07655522 -0.45933133 0.42105374 -0.3700169
-0.20414726 0.16586965 0.25518408 -0.06379602 0.24242488 -0.6507194 0.11483283 0.07655522
0.3062209 -0.24242488 -0.20414726 -0.43381295 -0.11483283 -0.20414726 0.25518408 -0.025518408
0.03827761 0.5358866 0.14035125 -0.40829453 0.51036817 0.24242488 0.24242488 0.20414726
-0.42105374 0.14035125 -0.19138806 -0.3189801 0.07655522 0.2807025 -0.17862886 0.21690647
0.0 0.3700169 0.08931443 0.3062209 -0.051036816 -0.6379602 -0.19138806 0.58692336
0.11483283 0.012759204 0.17862886 0.07655522 -0.3317393 0.12759204 -0.15311044 -0.10207363
0.24242488 0.012759204 -0.6379602 -0.12759204 -0.5231274 0.07655522 -0.29346168 0.2679433
-0.012759204 -0.29346168 -0.07655522 0.3062209 -0.16586965 -0.11483283 0.12759204 -0.15311044
-0.3189801 0.3062209 -0.03827761 0.19138806 0.07655522 0.012759204 0.0 -0.35725772
0.14035125 0.10207363 0.15311044 0.012759204 0.15311044 -0.051036816 0.22966567 -0.03827761
0.08931443 0.20414726 0.16586965 0.24242488 0.16586965 -0.03827761 0.2679433 0.2807025
-0.3317393 -0.22966567 0.10207363 0.06379602 0.2807025 0.08931443 0.11483283 -0.06379602
0.12759204 -0.19138806 0.03827761 0.06379602 -0.24242488 -0.08931443 0.21690647 -0.06379602
-0.025518408 0.0 -0.06379602 0.22966567 0.12759204 0.14035125 0.11483283 -0.025518408
-0.42105374 -0.025518408 -0.06379602 -0.21690647 0.2807025 -0.07655522 -0.29346168 0.24242488
0.45933133 -0.10207363 0.20414726 -0.10207363 0.51036817 -0.51036817 0.025518408 -0.3189801
-0.21690647 0.19138806 0.25518408 0.06379602 -0.24242488 0.19138806 0.21690647 0.39553532
0.12759204 -0.06379602 -0.15311044 0.16586965 -0.3189801 0.051036816 0.21690647 0.57416415
0.3062209 0.10207363 0.11483283 -0.6507194 -0.08931443 0.45933133 0.3317393 0.11483283
-0.03827761 -0.06379602 -0.40829453 -0.3189801 0.06379602 0.2807025 -0.16586965 -0.22966567
-0.14035125 -0.025518408 0.17862886 -0.051036816 -0.11483283 -0.12759204 0.025518408 -0.34449852

std.constant13 i1 [128, 128] scale=0.007362495 zero_point=0
00000000: e627 f61d e8fd 0720 1308 ebf3 f814 14f7
00000010: f413 0fef e3fb efe8 fe1d 17fd 04ec f4e1
00000020: 0b0f 130b 11f7 0601 f107 f70f ec02 07f9
00000030: e608 070c 0ddc e2ec 0006 f8f9 f1ef 02f0
00000040: 06fb f9fa 0bf4 e61c e514 e6e9 1af4 ff16
00000050: 08f4 2404 fcf7 f8fd 1a0a faf3 f515 df06
00000060: 12fe eff6 f5fd 0713 1001 fd08 e5e4 fff9
00000070: 07d2 1803 1b00 0efe e106 01f7 f419 0bd4
00000080: 1901 eff4 02cc f8e4 0bfb 2d0b 1630 e2eb
00000090: fc10 f8e3 4deb 0ae8 fcd8 de21 0e0a f11b
000000a0: 1514 4222 f418 e7f7 f20f f325 f4f2 15f6
000000b0: e40e e4d8 070d 27f2 ff0e 053c 0321 0907
000000c0: 200d 06ea f919 141f ebf6 110a 13f6 c235
000000d0: 38f0 fffa fc12 06f8 2915 39f9 00d7 11d5
000000e0: 0b00 d007 ec15 240a e916 0f09 f4f9 150a
000000f0: e035 08d2 0b08 cc09 f3df 1dec e4e3 e3ec
-0.19142488 0.2871373 -0.07362495 0.21351236 -0.17669988 -0.022087485 0.051537465 0.23559985
0.1398874 0.05889996 -0.15461239 -0.09571244 -0.05889996 0.1472499 0.1472499 -0.066262454
-0.08834994 0.1398874 0.11043743 -0.12516242 -0.21351236 -0.036812477 -0.12516242 -0.17669988
-0.01472499 0.21351236 0.16933739 -0.022087485 0.02944998 -0.1472499 -0.08834994 -0.22823735
0.080987446 0.11043743 0.1398874 0.080987446 0.12516242 -0.066262454 0.04417497 0.007362495
-0.11043743 0.051537465 -0.066262454 0.11043743 -0.1472499 0.01472499 0.051537465 -0.051537465
-0.19142488 0.05889996 0.051537465 0.08834994 0.09571244 -0.26504982 -0.22087486 -0.1472499
0.0 0.04417497 -0.05889996 -0.051537465 -0.11043743 -0.12516242 0.01472499 -0.11779992
0.04417497 -0.036812477 -0.051537465 -0.04417497 0.080987446 -0.08834994 -0.19142488 0.20614986
-0.19878738 0.1472499 -0.19142488 -0.16933739 0.19142488 -0.08834994 -0.007362495 0.16197489
0.05889996 -0.08834994 0.26504982 0.02944998 -0.02944998 -0.066262454 -0.05889996 -0.022087485
0.19142488 0.07362495 -0.04417497 -0.09571244 -0.080987446 0.15461239 -0.24296235 0.04417497
0.13252491 -0.01472499 -0.12516242 -0.07362495 -0.080987446 -0.022087485 0.051537465 0.1398874
0.11779992 0.007362495 -0.022087485 0.05889996 -0.19878738 -0.20614986 -0.007362495 -0.051537465
0.051537465 -0.33867478 0.17669988 0.022087485 0.19878738 0.0 0.10307493 -0.01472499
-0.22823735 0.04417497 0.007362495 -0.066262454 -0.08834994 0.18406238 0.080987446 -0.32394978
0.18406238 0.007362495 -0.12516242 -0.08834994 0.01472499 -0.38284975 -0.05889996 -0.20614986
0.080987446 -0.036812477 0.33131227 0.080987446 0.16197489 0.35339975 -0.22087486 -0.15461239
-0.02944998 0.11779992 -0.05889996 -0.21351236 0.5669121 -0.15461239 0.07362495 -0.17669988
-0.02944998 -0.2944998 -0.25032485 0.24296235 0.10307493 0.07362495 -0.11043743 0.19878738
0.15461239 0.1472499 0.4859247 0.25032485 -0.08834994 0.17669988 -0.18406238 -0.066262454
-0.10307493 0.11043743 -0.09571244 0.27241233 -0.08834994 -0.10307493 0.15461239 -0.07362495
-0.20614986 0.10307493 -0.20614986 -0.2944998 0.051537465 0.09571244 0.2871373 -0.10307493
-0.007362495 0.10307493 0.036812477 0.44174972 0.022087485 0.24296235 0.066262454 0.051537465
0.23559985 0.09571244 0.04417497 -0.16197489 -0.051537465 0.18406238 0.1472499 0.22823735
-0.15461239 -0.07362495 0.12516242 0.07362495 0.1398874 -0.07362495 -0.4564747 0.39021224
0.41229972 -0.11779992 -0.007362495 -0.04417497 -0.02944998 0.13252491 0.04417497 -0.05889996
0.3018623 0.15461239 0.41966224 -0.051537465 0.0 -0.3018623 0.12516242 -0.3165873
0.080987446 0.0 -0.35339975 0.051537465 -0.1472499 0.15461239 0.26504982 0.07362495
-0.16933739 0.16197489 0.11043743 0.066262454 -0.08834994 -0.051537465 0.15461239 0.07362495
-0.23559985 0.39021224 0.05889996 -0.33867478 0.080987446 0.05889996 -0.38284975 0.066262454
-0.09571244 -0.24296235 0.21351236 -0.1472499 -0.20614986 -0.21351236 -0.21351236 -0.1472499

std.constant14 i1 [128, 128] scale=0.013816469 zero_point=0
00000000: eeea 0800 dd05 f520 ff08 1ee3 f3f4 e608
00000010: 12d0 041a f800 fee5 ddf0 02fa 1127 eefd
00000020: f4fb 0307 0c15 d2e8 2dfd fa30 1318 e7d0
00000030: 00eb f5dd eff6 f6da 02ff 09fe fdfe 09f9
00000040: fdf6 1704 0608 09f0 fd08 0907 f6de ebe2
00000050: fce7 0ce6 0efa 1df8 0e00 1200 0110 030f
00000060: 07f8 f0fc 13ee fbff faff f9f3 fdfe 071d
00000070: 06e7 de0b 11fb fe03 13fd ec3a f2ea fce9
00000080: ff05 0402 fc0a fd07 0b00 11f9 f2f2 080f
00000090: 10e6 0005 fc01 f3fa f2f2 0900 02f9 0703
000000a0: 00ff 0109 fce9 f5cc 250a ea13 15e9 ea1b
000000b0: eefc eefa 0ae2 eee4 eff9 e025 e303 0adf
000000c0: f0fe 10fa ecfe 08f4 ff03 f723 0ef7 1502
000000d0: f7f4 fcf4 08f1 fe10 f3ed 2a14 0609 32ea
000000e0: 00fc 07e4 1400 051a faef f50a def7 f4f2
000000f0: 04f7 05fb f3e5 0efd f0ef 09f2 0403 e6eb
-0.24869645 -0.30396232 0.110531755 0.0 -0.48357642 0.06908235 -0.15198116 0.44212702
-0.013816469 0.110531755 0.41449407 -0.40067762 -0.1796141 -0.16579764 -0.3592282 0.110531755
0.24869645 -0.66319054 0.055265877 0.3592282 -0.110531755 0.0 -0.027632939 -0.37304467
-0.48357642 -0.22106351 0.027632939 -0.08289882 0.23487999 0.5388423 -0.24869645 -0.04144941
-0.16579764 -0.06908235 0.04144941 0.09671529 0.16579764 0.29014584 -0.6355576 -0.33159527
0.6217411 -0.04144941 -0.08289882 0.66319054 0.26251292 0.33159527 -0.34541175 -0.66319054
0.0 -0.29014584 -0.15198116 -0.48357642 -0.23487999 -0.1381647 -0.1381647 -0.52502584
0.027632939 -0.013816469 0.12434822 -0.027632939 -0.04144941 -0.027632939 0.12434822 -0.09671529
-0.04144941 -0.1381647 0.3177788 0.055265877 0.08289882 0.110531755 0.12434822 -0.22106351
-0.04144941 0.110531755 0.12434822 0.09671529 -0.1381647 -0.46975997 -0.29014584 -0.41449407
-0.055265877 -0.34541175 0.16579764 -0.3592282 0.19343057 -0.08289882 0.40067762 -0.110531755
0.19343057 0.0 0.24869645 0.0 0.013816469 0.22106351 0.04144941 0.20724703
0.09671529 -0.110531755 -0.22106351 -0.055265877 0.26251292 -0.24869645 -0.06908235 -0.013816469
-0.08289882 -0.013816469 -0.09671529 -0.1796141 -0.04144941 -0.027632939 0.09671529 0.40067762
0.08289882 -0.34541175 -0.46975997 0.15198116 0.23487999 -0.06908235 -0.027632939 0.04144941
0.26251292 -0.04144941 -0.2763294 0.80135524 -0.19343057 -0.30396232 -0.055265877 -0.3177788
-0.013816469 0.06908235 0.055265877 0.027632939 -0.055265877 0.1381647 -0.04144941 0.09671529
0.15198116 0.0 0.23487999 -0.09671529 -0.19343057 -0.19343057 0.110531755 0.20724703
0.22106351 -0.3592282 0.0 0.06908235 -0.055265877 0.013816469 -0.1796141 -0.08289882
-0.19343057 -0.19343057 0.12434822 0.0 0.027632939 -0.09671529 0.09671529 0.04144941
0.0 -0.013816469 0.013816469 0.12434822 -0.055265877 -0.3177788 -0.15198116 -0.7184564
0.51120937 0.1381647 -0.30396232 0.26251292 0.29014584 -0.3177788 -0.30396232 0.37304467
-0.24869645 -0.055265877 -0.24869645 -0.08289882 0.1381647 -0.41449407 -0.24869645 -0.38686115
-0.23487999 -0.09671529 -0.44212702 0.51120937 -0.40067762 0.04144941 0.1381647 -0.4559435
-0.22106351 -0.027632939 0.22106351 -0.08289882 -0.2763294 -0.027632939 0.110531755 -0.16579764
-0.013816469 0.04144941 -0.12434822 0.48357642 0.19343057 -0.12434822 0.29014584 0.027632939
-0.12434822 -0.16579764 -0.055265877 -0.16579764 0.110531755 -0.20724703 -0.027632939 0.22106351
-0.1796141 -0.26251292 0.5802917 0.2763294 0.08289882 0.12434822 0.6908235 -0.30396232
0.0 -0.055265877 0.09671529 -0.38686115 0.2763294 0.0 0.06908235 0.3592282
-0.08289882 -0.23487999 -0.15198116 0.1381647 -0.46975997 -0.12434822 -0.16579764 -0.19343057
0.055265877 -0.12434822 0.06908235 -0.06908235 -0.1796141 -0.37304467 0.19343057 -0.04144941
-0.22106351 -0.23487999 0.12434822 -0.19343057 0.055265877 0.04144941 -0.3592282 -0.29014584

std.constant15 f4 [128]
00000000: 3fbb b2bd 4e07 153e 3b33 163e 751d 643d
00000010: 7ded e4bd 6d12 f4bd eabf 78bd abed 16be
00000020: 7f91 633d 4de8 c1bc 050d 02bf 6a59 9dbd
00000030: 46c7 32be dbe1 10be aab0 06bf ec10 1c3c
00000040: 24c8 24bd c8ff 2cbe c1f2 8ebe ab43 67be
00000050: 8ad4 e2be f29d 07bb f416 f6bd db47 76bd
00000060: 6b5f 43bd 74ee 82bc 5df5 87bd 6885 a0bd
00000070: cfc2 0bbd 59b0 eabd e7fa bf3d 04eb d9bd
00000080: 6371 49be 0e8d 88be 96be b73c 6702 20bd
00000090: 5f02 dfbd dca2 d33d 33ca 89bc 854a 40be
000000a0: ae7a e6bc d588 1f3e d862 51be 271d a9be
000000b0: 7ffa 45be cabe 97be 301e d0bd 8205 68be
000000c0: 0b92 a5bb 94d6 3bbd f6ae 3dbe 741d a1bd
000000d0: e6db 63be b5c1 43be 4437 8abe 867f 3cbe
000000e0: 604f d4bc 0844 b83d de72 3cbe eb82 81be
000000f0: e7cc 3a3e 7ab3 a1bd 3bc7 b83d 194f 2abe
00000100: e9da 3bbd 659c 69be eb08 e4b9 237f 7bbe
00000110: 5f80 00be ec46 5a3d 66c8 62bd cd18 46bd
00000120: f70e 333e 3b80 17be 5c85 29be dbec c9be
00000130: 7deb d83c b808 69bc 7b83 f7ba d0ad 65be
00000140: 5e8e 05bd b419 e73d 076d 63be f3d4 69be
00000150: ec2b 2cbe 2481 1dbe b9d1 3bbe c554 99bd
00000160: e3c4 b5bd 84a3 453d d55e 86be 7ecf 16be
00000170: 7aa7 02be ef45 29bf 3e82 3fbe bc5c 42be
00000180: 126e 1e3e 6c69 b7bd 8b14 14be 36bf 40be
00000190: ff8f b8bd 8a41 acbc a1a6 22bd 9b3d 4cbe
000001a0: 0c5a 2cbf 2237 84be bed4 1ebd c76b 94be
000001b0: d1a3 8bbe 6584 063a d25c 0cbe 7dd8 e63b
000001c0: 2d36 063d db72 993c 9205 1ebd 020f 92bc
000001d0: b4ef 2abe 865b 80be b800 cdbd 24ae 363d
000001e0: 8a49 ecbd 6883 19be 1f87 c43c e7ff 93be
000001f0: 8397 80bd 9443 bbbd 3bf7 32be a2f3 43be
-0.087271206 0.14553568 0.1466798 0.055692155 -0.1117811 -0.11917577 -0.0607299 -0.147391
0.055558678 -0.02367034 -0.50801116 -0.0768307 -0.1745883 -0.14148657 -0.5261332 0.009525519
-0.04022993 -0.16894448 -0.27919582 -0.22584407 -0.4430278 -0.0020693508 -0.12016097 -0.06012712
-0.04769842 -0.015982844 -0.06638596 -0.07837945 -0.03412133 -0.11459417 0.09374028 -0.10640529
-0.1967216 -0.26670116 0.022429746 -0.03906479 -0.10889124 0.10333797 -0.016820049 -0.18778427
-0.02813467 0.15579541 -0.20447862 -0.33030054 -0.19333838 -0.29637748 -0.10162008 -0.22658351
-0.00505281 -0.045858935 -0.18523774 -0.07866946 -0.22251853 -0.19116862 -0.2699529 -0.18408021
-0.025916755 0.08997351 -0.18403193 -0.25295195 0.18242227 -0.078955606 0.09022375 -0.16631736
-0.045863066 -0.22813566 -0.00043494193 -0.24560218 -0.1254897 0.053290293 -0.055366896 -0.048363496
0.17486177 -0.1479501 -0.16554779 -0.3943852 0.026479477 -0.01422327 -0.0018883789 -0.22429585
-0.032606475 0.11284199 -0.2220956 -0.2283514 -0.1681363 -0.15381294 -0.18341722 -0.07486872
-0.08875444 0.048251644 -0.26244226 -0.1472759 -0.127592 -0.66122335 -0.18702027 -0.18980688
0.15471676 -0.089556545 -0.14460962 -0.18822941 -0.0901184 -0.021027345 -0.03970969 -0.19945376
-0.673249 -0.25823313 -0.038777106 -0.28988478 -0.2727342 0.00051314227 -0.13707283 0.0070448504
0.03276651 0.018731525 -0.03857953 -0.017829422 -0.16693002 -0.25069827 -0.10009903 0.044599667
-0.11537464 -0.14991534 0.023990212 -0.28906175 -0.062788986 -0.09143749 -0.17477123 -0.19135907

std.constant16 f4 [128]
00000000: c19c 6e3f 058c 7b3f a4a6 883f 3869 703f
00000010: 2408 633f 9816 633f 121e 823f 5d59 573f
00000020: b375 833f d4d8 633f 65ee 8b3f cb0d 603f
00000030: ccf0 8c3f 72e5 513f c27a 813f f091 853f
00000040: efa9 553f bc19 6e3f be98 613f f9dd 803f
00000050: 7764 313f dadb 8f3f be62 533f 3736 5a3f
00000060: c6f6 553f 9c85 543f b588 7e3f eb26 863f
00000070: 6aa5 6d3f 131e 7c3f 6369 763f 3456 673f
00000080: a5b8 7e3f 5313 943f 78f9 593f 7d60 923f
00000090: 17f5 763f eb5b 7f3f 702f 613f 9acd 5f3f
000000a0: 8571 713f aa88 6a3f 2cc3 5d3f f319 533f
000000b0: 2650 753f 05f7 423f 95b6 733f 4bcb 513f
000000c0: ed63 7f3f 1ed7 573f cc47 733f a57c 723f
000000d0: 7e50 5f3f bb56 6d3f 65dc 623f 3a46 693f
000000e0: 419f 8b3f 73d4 8c3f 55ce 623f d8dc 4c3f
000000f0: 0c33 823f e48f 643f 634f 6d3f 736b 753f
00000100: 8032 4c3f 47e6 643f 4573 773f 0ee9 803f
00000110: 40df 723f f2c6 843f f78d 573f b86e 853f
00000120: 9963 643f 01ed 683f aa77 423f 42e6 963f
00000130: 410c 883f e16e 823f 57b5 643f aa45 723f
00000140: 9cd5 603f f82e 803f b664 8c3f ac8d 613f
00000150: 9ae1 393f 5417 443f d007 8b3f c1fb 703f
00000160: efb8 623f 3f6d 5b3f 22f3 673f 9a69 8a3f
00000170: cc6b 663f 8ad2 913f 80fa 5a3f e24f 883f
00000180: b701 673f 4303 6c3f c621 8f3f 669b 653f
00000190: 817c 663f 2146 843f d675 5c3f 6ae8 823f
000001a0: 08e7 883f ed07 483f ddad 443f 0e3a 733f
000001b0: 5347 773f 1e7d 813f b1a8 6d3f d11b 793f
000001c0: c0ca 633f 1bbc 863f 3498 583f 828d 483f
000001d0: 997a 783f df5a 5f3f 4479 4e3f aa02 833f
000001e0: 1ac6 883f ad72 7b3f 2b78 6d3f 23a2 833f
000001f0: 02cd 6f3f 33f9 4d3f edda 663f cd95 813f
0.9320794 0.9826053 1.0675855 0.9391055 0.88684297 0.8870635 1.0165427 0.8412073
1.0270294 0.8900273 1.0932127 0.87521046 1.1010985 0.8199073 1.0115588 1.0435162
0.83462423 0.9300802 0.8812369 1.0067741 0.6929392 1.1238968 0.82572544 0.85238975
0.8357967 0.8301637 0.9942735 1.0480627 0.92830527 0.9848339 0.9625456 0.9036591
0.99500495 1.1568397 0.85146284 1.1435696 0.9646773 0.9974963 0.8796301 0.874231
0.9431384 0.9161478 0.86625934 0.8246147 0.9582542 0.7615817 0.95200473 0.81950825
0.9976185 0.8431262 0.9503143 0.9472144 0.87232196 0.92710465 0.88617545 0.9112278
1.0907975 1.1002334 0.8859609 0.8002448 1.0171828 0.8928206 0.9269926 0.9586708
0.79764557 0.89413875 0.9666026 1.0071123 0.948719 1.0373213 0.84200996 1.0424414
0.89214474 0.9098664 0.7596384 1.1789019 1.062874 1.0190088 0.893392 0.9463755
0.8782594 1.0014334 1.0968235 0.881068 0.72609866 0.76598096 1.0861759 0.94134146
0.88563436 0.8571357 0.90605366 1.0813477 0.90008235 1.1392376 0.8553848 1.0649378
0.9023699 0.92192477 1.1182182 0.89690244 0.9003373 1.0333902 0.86117303 1.0227177
1.0695505 0.78137094 0.76827794 0.9501046 0.9659321 1.0116308 0.9283553 0.9730807
0.88981247 1.0526155 0.84607244 0.78340924 0.9706207 0.87248033 0.80653787 1.0235188
1.0685456 0.98221856 0.92761487 1.0283855 0.9367219 0.8045837 0.90177804 1.012384

std.constant17 f4 [128]
00000000: ba12 85bd 0b98 11be abf5 463e 17f0 5cbd
00000010: 8b04 3a3c ecae ce3c b900 1a3d b6fb 563d
00000020: cfa3 f4bc 5ba5 9fbb ea6f 3a3d bb4b 183d
00000030: 8b84 263c c7ed e7bd 7206 bcbd 626d 213d
00000040: c81e 943c d3d6 2fbd f7eb c63d 367b 4bbc
00000050: 5e79 213c 3991 bc3d 1777 dc3d dea7 793d
00000060: 0ddc 94bc 70e0 3a3e 954a b23d a897 6cbd
00000070: e259 26be e35b ab3d b160 a63b 33e4 56bc
00000080: d071 9dbc 086a 3e3d 26a2 443d 2285 ddbd
00000090: c85a 383c 5c4d e9bd a465 823c 1997 293d
000000a0: 05b3 f13d 71e7 9b3d 3513 073d 5527 023d
000000b0: 7f4c 0fbd fec4 29bd 580f 2b3d c5ae 733d
000000c0: d01a 72bd 9a2f 71bd 08fe 903d 3be4 e33c
000000d0: 317a 45bd eadc ccbb d11c a03d 7399 673d
000000e0: dd32 da3c 9298 e23c 7dd9 333d 6456 a3bd
000000f0: 29da afbc 0a5b dbba cb41 dabd 52e5 ce3b
00000100: 2457 043d 5d84 21be 4643 6fbd 7cdd 533d
00000110: 2895 b63d ce0c 90bd 4489 bfbd 48ab babd
00000120: 5489 193d 16b6 b6bd 60e9 e9bd 133c 11be
00000130: 4467 94be 54fa 02bd cbd6 a23d 2967 3fbd
00000140: 9994 3cbe 0b53 893d 7379 ac3c c61c 30bd
00000150: 0232 513e 790c 1bbd d733 93bd 87ca 13be
00000160: 3f67 573d e9b9 bfbc 6835 16bd da09 1ebe
00000170: 0550 4f3d 627e c4bb c82c b4bd b36a 413d
00000180: 19cc c4bd 8f8e 5bbc b2a6 9539 cd71 03be
00000190: d747 243c 7933 4e3d b92c ecbd 0df5 4e3d
000001a0: b14d 483e ba71 20bd bc52 f33d 8c34 b1bd
000001b0: 1b4a 773d f02c 033e 2bfc 1b3d 80f2 61be
000001c0: f392 d13c c4af a0bb d229 5ebd abf8 c43c
000001d0: f91b 7e3d 60b8 7f3d 401a ac3b d573 813c
000001e0: 405b c9bc ac98 f63b 1b82 b1ba 38df d9bc
000001f0: 37fa 893d 8c42 733d 560d 3d3e 4c6c b4bd
-0.064977124 -0.14218156 0.19429652 -0.053939905 0.011353622 0.025229894 0.037598345 0.052486144
-0.029863266 -0.004872007 0.045516886 0.037181597 0.010163437 -0.11324649 -0.09180917 0.039410956
0.018081084 -0.04292948 0.097129755 -0.0124195125 0.009855596 0.092073865 0.10764902 0.060951106
-0.018171335 0.18249679 0.08705632 -0.05776182 -0.16245225 0.083671354 0.0050774445 -0.01311593
-0.01921931 0.046487838 0.0480062 -0.10816409 0.011252113 -0.11391708 0.015917607 0.041403864
0.118017234 0.07612503 0.0329773 0.03177579 -0.03498506 -0.041447632 0.04176268 0.059492845
-0.0591076 -0.058883287 0.070797026 0.02781879 -0.048212234 -0.006251921 0.07817996 0.056542825
0.026635582 0.027660642 0.043908585 -0.07975462 -0.021466332 -0.0016735506 -0.1065708 0.006313958
0.032309666 -0.15773149 -0.058413766 0.051724896 0.08915168 -0.07033692 -0.09352353 -0.091147006
0.037484482 -0.08921449 -0.11421466 -0.14183073 -0.28985035 -0.031977013 0.07951125 -0.04672924
-0.1841606 0.06705292 0.021054005 -0.04299619 0.20429233 -0.03785369 -0.07187622 -0.14432727
0.052588698 -0.023404079 -0.036672026 -0.15433446 0.050613422 -0.0059965113 -0.08797604 0.047220897
-0.09609241 -0.013400688 0.00028543692 -0.1283638 0.010026894 0.050342057 -0.11531968 0.050526667
0.19560887 -0.039170958 0.11881015 -0.08652601 0.060373407 0.12810111 0.038082283 -0.22065163
0.025582766 -0.0049037654 -0.0542391 0.024044355 0.062038396 0.062431693 0.0052521527 0.015802303
-0.024579644 0.007525524 -0.0013542803 -0.026595697 0.06737178 0.059389636 0.18462119 -0.088097185

std.constant18 f4 [128]
00000000: 48a2 01be 15f2 9b3d cc39 30bd 0b6a 5bbe
00000010: 9ba2 e03d 2ea7 04bd 8227 bfbd 3a19 06be
00000020: 48b5 90bc cde6 4ebe 1279 5cbe 9308 9fbd
00000030: b25d 8bbd 3b7a 69be 9219 3ebe 14b7 5cbd
00000040: 5ccf 50bd ab29 9abe 1cee 843c bbc8 3abe
00000050: 52b2 27be f89b 16be 15f6 0ebb 52a2 89be
00000060: e321 6cbd 3f86 b83d a552 823d d4e6 a73d
00000070: 916a e03d 6138 79be 6c9f 623d cd04 23bc
00000080: 7215 4ebc 8f05 7cbc 9b56 d6bd e503 8ebd
00000090: 77bc 5cbd 7226 3b3d af0b 9a3d e48a 8dbd
000000a0: 33b1 cabc 703a 0a3e 0927 63bd ce83 21be
000000b0: 8dda 5f3a b0a9 44be 952e 74bd f79f 4fbe
000000c0: 53f9 7dbe 232a 0d3d 8ac0 7ebe 3f61 afbd
000000d0: ed25 a5bc 917a abbe 685b 4bbe 91b6 b1bd
000000e0: 318f 8abd 48e6 00be f7ad 0dbe 7a12 14be
000000f0: 3f1b 7ebe 0194 463d d719 80be b638 6abe
00000100: b00c 7ebc 81ab 1bbe ea28 7ebd faea bbbe
00000110: cc61 49be 8ec9 a0bc b7aa babd 03ee 7abd
00000120: 460a e4bd f76c 4d3d e05e 22be 15aa 8d3d
00000130: aff1 63be cc39 3fbe 5c29 5bbe e3ed 9ebd
00000140: 8a6c 20be bf94 8abe c1aa ef3c e928 e53d
00000150: 66d4 8abe 16d3 9bbe 0845 c5bd 6f2a 183c
00000160: 9edd 14be f473 3fbe 8306 1ebd db3a b2be
00000170: ed94 55bd 0f60 3abe 3a8b 17be 77f5 afbe
00000180: 801a 88be 0b0d aa3c ad7a 73be 990b 05bd
00000190: 5b0b 04bd 9d07 49bd e9a7 dabd d496 90be
000001a0: 8da5 3bbe a5fb 34be fb8e 303b f227 a2bd
000001b0: 73af 0abe 1f56 243d 4882 42be 8ddf a3bb
000001c0: d702 b63d 35c3 11be 646a 693d 10cd d9bd
000001d0: 02b0 95be d7cb 3a3d d824 2fbd 304b 2dbe
000001e0: 7e69 823d 426b a6be bf31 ce3d e47a 20bd
000001f0: b075 a2be fe53 f53d 9619 fdbd 71f2 07be
-0.12659562 0.07614533 -0.04302387 -0.21427171 0.109685145 -0.032385997 -0.093337074 -0.1309556
-0.017664567 -0.20205231 -0.2153056 -0.07765307 -0.0680498 -0.22800533 -0.18564442 -0.053885534
-0.050979003 -0.30109915 0.01622682 -0.18240635 -0.16376618 -0.14707935 -0.0021814157 -0.26881653
-0.057649504 0.090099804 0.063634194 0.08198324 0.10957826 -0.24337913 0.055327818 -0.009949875
-0.012578355 -0.015382185 -0.104657374 -0.069343366 -0.05389067 0.04569096 0.0752176 -0.06911257
-0.024742698 0.13498855 -0.05545715 -0.15772936 0.00085393415 -0.19205356 -0.059614737 -0.20275865
-0.24802141 0.034464013 -0.24878135 -0.0856347 -0.020159686 -0.33491948 -0.19859087 -0.086774
-0.06765593 -0.12587845 -0.13835894 -0.14460173 -0.24815081 0.04848099 -0.25019714 -0.22873196
-0.015505955 -0.15202142 -0.062050737 -0.3670271 -0.19666213 -0.019627359 -0.091145925 -0.061262142
-0.11134772 0.050152745 -0.15856504 0.06917206 -0.22260164 -0.18674392 -0.21402496 -0.07760217
-0.15666404 -0.2706661 0.029256226 0.111894436 -0.27115172 -0.30434483 -0.09632307 0.009287461
-0.14537665 -0.18696576 -0.03858043 -0.34810528 -0.05214398 -0.18200706 -0.14799204 -0.34366962
-0.26582718 0.020758172 -0.23777266 -0.032481764 -0.032237392 -0.049079526 -0.106765576 -0.28240073
-0.18324871 -0.1767412 0.0026940692 -0.07917775 -0.13543491 0.040121194 -0.18995011 -0.0050010146
0.088872604 -0.14234622 0.056986228 -0.10634816 -0.29235846 0.045604553 -0.042759746 -0.16923213
0.06367777 -0.32503706 0.10068082 -0.039179698 -0.31730413 0.11978911 -0.12358396 -0.13276078

std.constant19 i1 [128, 64] scale=0.006840319 zero_point=0
00000000: e90a 16f7 50f7 f0f6 d111 e5df 1a07 02d1
00000010: 00f4 fadc f406 450b 1005 0afd e4f0 08ea
00000020: ffe0 eeea dcf8 f4f6 dc5a 15e8 f1f1 eefd
00000030: f710 0c07 ef0f 0602 fc10 e843 1cff d32d
00000040: f6c8 ee03 0011 fd0f 0307 4606 e8ed e9fa
00000050: ecf3 ef17 e1e7 f9ed 090c fdf1 e80c e6e7
00000060: 09f9 fdfe e923 28ef 0c38 4206 2612 0df5
00000070: 231a f825 e71f fffa e822 f2ff 0014 1d2b
00000080: e4f2 0cfd e714 09ed eacc 02f2 def1 f808
00000090: cfdd f4e2 14ec 101a 0aeb fcf7 f2ee f701
000000a0: 27e6 f818 0ec4 fce9 e707 ef1e e6e0 ddfc
000000b0: 000a cc21 e3f9 f2f2 15fe dfe1 dce8 d704
000000c0: e1e4 10ee f805 0b1e 1af3 00fa d609 e008
000000d0: 07f3 fad8 1400 11f2 3ae8 f7fa 0ecf 1a10
000000e0: 27cf 01e3 eb09 05fe 2b0e f712 0723 fbfb
000000f0: e3e5 0d08 0e05 0800 07fa 13f7 f004 f301
-0.15732734 0.06840319 0.15048702 -0.06156287 0.54722553 -0.06156287 -0.1094451 -0.06840319
-0.321495 0.11628542 -0.18468861 -0.22573052 0.1778483 0.047882233 0.013680638 -0.321495
0.0 -0.08208383 -0.041041914 -0.24625148 -0.08208383 0.041041914 0.471982 0.07524351
0.1094451 0.034201596 0.06840319 -0.020520957 -0.19152893 -0.1094451 0.05472255 -0.15048702
-0.006840319 -0.2188902 -0.12312574 -0.15048702 -0.24625148 -0.05472255 -0.08208383 -0.06840319
-0.24625148 0.6156287 0.1436467 -0.16416766 -0.102604784 -0.102604784 -0.12312574 -0.020520957
-0.06156287 0.1094451 0.08208383 0.047882233 -0.11628542 0.102604784 0.041041914 0.013680638
-0.027361276 0.1094451 -0.16416766 0.45830137 0.19152893 -0.006840319 -0.30781436 0.30781436
-0.06840319 -0.38305786 -0.12312574 0.020520957 0.0 0.11628542 -0.020520957 0.102604784
0.020520957 0.047882233 0.47882232 0.041041914 -0.16416766 -0.12996607 -0.15732734 -0.041041914
-0.13680638 -0.08892415 -0.11628542 0.15732734 -0.21204989 -0.17100798 -0.047882233 -0.12996607
0.06156287 0.08208383 -0.020520957 -0.102604784 -0.16416766 0.08208383 -0.1778483 -0.17100798
0.06156287 -0.047882233 -0.020520957 -0.013680638 -0.15732734 0.23941116 0.27361277 -0.11628542
0.08208383 0.38305786 0.45146105 0.041041914 0.25993213 0.12312574 0.08892415 -0.07524351
0.23941116 0.1778483 -0.05472255 0.2530918 -0.17100798 0.21204989 -0.006840319 -0.041041914
-0.16416766 0.23257084 -0.095764466 -0.006840319 0.0 0.13680638 0.19836925 0.29413372
-0.19152893 -0.095764466 0.08208383 -0.020520957 -0.17100798 0.13680638 0.06156287 -0.12996607
-0.15048702 -0.3556966 0.013680638 -0.095764466 -0.23257084 -0.102604784 -0.05472255 0.05472255
-0.33517563 -0.23941116 -0.08208383 -0.20520957 0.13680638 -0.13680638 0.1094451 0.1778483
0.06840319 -0.1436467 -0.027361276 -0.06156287 -0.095764466 -0.12312574 -0.06156287 0.006840319
0.26677245 -0.1778483 -0.05472255 0.16416766 0.095764466 -0.41041914 -0.027361276 -0.15732734
-0.17100798 0.047882233 -0.11628542 0.20520957 -0.1778483 -0.2188902 -0.23941116 -0.027361276
0.0 0.06840319 -0.3556966 0.22573052 -0.19836925 -0.047882233 -0.095764466 -0.095764466
0.1436467 -0.013680638 -0.22573052 -0.21204989 -0.24625148 -0.16416766 -0.2804531 0.027361276
-0.21204989 -0.19152893 0.1094451 -0.12312574 -0.05472255 0.034201596 0.07524351 0.20520957
0.1778483 -0.08892415 0.0 -0.041041914 -0.2872934 0.06156287 -0.2188902 0.05472255
0.047882233 -0.08892415 -0.041041914 -0.27361277 0.13680638 0.0 0.11628542 -0.095764466
0.3967385 -0.16416766 -0.06156287 -0.041041914 0.095764466 -0.33517563 0.1778483 0.1094451
0.26677245 -0.33517563 0.006840319 -0.19836925 -0.1436467 0.06156287 0.034201596 -0.013680638
0.29413372 0.095764466 -0.06156287 0.12312574 0.047882233 0.23941116 -0.034201596 -0.034201596
-0.19836925 -0.18468861 0.08892415 0.05472255 0.095764466 0.034201596 0.05472255 0.0
0.047882233 -0.041041914 0.12996607 -0.06156287 -0.1094451 0.027361276 -0.08892415 0.006840319

std.constant20 i1 [128, 64] scale=0.00951378 zero_point=0
00000000: 0a02 fcfc 06f2 0506 0afe 14d5 1b10 fc13
00000010: f5fc edf1 f5ff 1012 fe12 f708 fa00 0b0c
00000020: fff9 eef6 0deb 0dea fa13 10f0 e709 f40d
00000030: 04f7 10f6 080e f8ed 0410 1d12 0efa fa1a
00000040: f5fe f808 00f9 0f05 01ff fbd8 03fc fff9
00000050: f505 05fa effe 130f 080a fafe f208 f6f0
00000060: f4fb 08f9 0e01 efed 1016 05f5 f1f5 ff14
00000070: 0708 0af5 f906 ed0b faf2 0efd 03eb 09f2
00000080: eaef 02e4 f1e9 0f09 e0fe fe07 e3fb e210
00000090: f5da 0600 0200 290b f3f1 0fec fff7 e001
000000a0: 01f9 010c 0ad0 fcfc 0c07 0c01 0e17 f900
000000b0: fc08 e807 01f8 f2ee dff4 ff01 ede7 fe06
000000c0: edf1 f403 eff9 e827 e1ef 0404 f405 e8ed
000000d0: 0df7 00f2 13f6 04d8 110b dbf6 e1da e81f
000000e0: 01e4 e60b fb03 dfea 0b01 ff13 1217 f009
000000f0: eff8 13f9 040a f7e9 070a 0dfd f9fa 09e8
0.0951378 0.01902756 -0.03805512 -0.03805512 0.057082675 -0.13319291 0.0475689 0.057082675
0.0951378 -0.01902756 0.1902756 -0.40909252 0.25687206 0.15222047 -0.03805512 0.18076181
-0.10465158 -0.03805512 -0.18076181 -0.14270669 -0.10465158 -0.00951378 0.15222047 0.17124803
-0.01902756 0.17124803 -0.08562402 0.07611024 -0.057082675 0.0 0.10465158 0.11416535
-0.00951378 -0.066596456 -0.17124803 -0.0951378 0.12367913 -0.19978938 0.12367913 -0.20930316
-0.057082675 0.18076181 0.15222047 -0.15222047 -0.23784448 0.08562402 -0.11416535 0.12367913
0.03805512 -0.08562402 0.15222047 -0.0951378 0.07611024 0.13319291 -0.07611024 -0.18076181
0.03805512 0.15222047 0.27589962 0.17124803 0.13319291 -0.057082675 -0.057082675 0.24735826
-0.10465158 -0.01902756 -0.07611024 0.07611024 0.0 -0.066596456 0.14270669 0.0475689
0.00951378 -0.00951378 -0.0475689 -0.3805512 0.028541338 -0.03805512 -0.00951378 -0.066596456
-0.10465158 0.0475689 0.0475689 -0.057082675 -0.16173425 -0.01902756 0.18076181 0.14270669
0.07611024 0.0951378 -0.057082675 -0.01902756 -0.13319291 0.07611024 -0.0951378 -0.15222047
-0.11416535 -0.0475689 0.07611024 -0.066596456 0.13319291 0.00951378 -0.16173425 -0.18076181
0.15222047 0.20930316 0.0475689 -0.10465158 -0.14270669 -0.10465158 -0.00951378 0.1902756
0.066596456 0.07611024 0.0951378 -0.10465158 -0.066596456 0.057082675 -0.18076181 0.10465158
-0.057082675 -0.13319291 0.13319291 -0.028541338 0.028541338 -0.19978938 0.08562402 -0.13319291
-0.20930316 -0.16173425 0.01902756 -0.26638582 -0.14270669 -0.21881694 0.14270669 0.08562402
-0.30444095 -0.01902756 -0.01902756 0.066596456 -0.27589962 -0.0475689 -0.28541338 0.15222047
-0.10465158 -0.36152363 0.057082675 0.0 0.01902756 0.0 0.39006495 0.10465158
-0.12367913 -0.14270669 0.14270669 -0.1902756 -0.00951378 -0.08562402 -0.30444095 0.00951378
0.00951378 -0.066596456 0.00951378 0.11416535 0.0951378 -0.4566614 -0.03805512 -0.03805512
0.11416535 0.066596456 0.11416535 0.00951378 0.13319291 0.21881694 -0.066596456 0.0
-0.03805512 0.07611024 -0.2283307 0.066596456 0.00951378 -0.07611024 -0.13319291 -0.17124803
-0.3139547 -0.11416535 -0.00951378 0.00951378 -0.18076181 -0.23784448 -0.01902756 0.057082675
-0.18076181 -0.14270669 -0.11416535 0.028541338 -0.16173425 -0.066596456 -0.2283307 0.3710374
-0.29492718 -0.16173425 0.03805512 0.03805512 -0.11416535 0.0475689 -0.2283307 -0.18076181
0.12367913 -0.08562402 0.0 -0.13319291 0.18076181 -0.0951378 0.03805512 -0.3805512
0.16173425 0.10465158 -0.35200983 -0.0951378 -0.29492718 -0.36152363 -0.2283307 0.29492718
0.00951378 -0.26638582 -0.24735826 0.10465158 -0.0475689 0.028541338 -0.3139547 -0.20930316
0.10465158 0.00951378 -0.00951378 0.18076181 0.17124803 0.21881694 -0.15222047 0.08562402
-0.16173425 -0.07611024 0.18076181 -0.066596456 0.03805512 0.0951378 -0.08562402 -0.21881694
0.066596456 0.0951378 0.12367913 -0.028541338 -0.066596456 -0.057082675 0.08562402 -0.2283307

std.constant21 i1 [128, 64] scale=0.0071464363 zero_point=0
00000000: f4c5 f5f6 bb09 fb11 fa01 c8ff c30b 0be3
00000010: e9e5 fa26 fbdd 0de1 0ffa f8d9 fa0b d51a
00000020: ecf6 d7f9 f9eb 1029 0dff fc25 efe1 f0dd
00000030: 0a16 dfce dfde f7f5 13fe eac9 edf0 e3ff
00000040: f007 06fd f9fb f6fa 00f2 0902 feee d401
00000050: fef8 0efb e412 fefa fc0c 0105 f515 0fda
00000060: 2709 fbea 02f5 b7b4 1df1 03c9 0713 0710
00000070: 1c07 0408 f6f4 0613 0f0b fe01 0821 0d01
00000080: cd03 f0f3 e200 11f1 2af6 2026 de27 f21f
00000090: f2f8 2a09 1106 fe0f ee1c 10ff f8fa f61d
000000a0: 08f9 eef6 051a 03fb 0b1b 1217 1714 0e01
000000b0: 031b 1bf4 f111 d50b 1d08 0903 f719 ee21
000000c0: 14fe ea0a d5ef ed0d 35e6 0d00 00e5 f308
000000d0: 0ded fb12 13e6 eff1 f003 d4ca e2fb dc00
000000e0: fa13 07e4 ffdb f6ef 0fd5 f307 e2e6 e4f5
000000f0: daf1 f3f1 d6f6 0be8 10f0 e0e1 0407 f502
-0.08575723 -0.42163974 -0.0786108 -0.07146436 -0.4931041 0.06431793 -0.03573218 0.12148941
-0.042878617 0.0071464363 -0.40020043 -0.0071464363 -0.4359326 0.0786108 0.0786108 -0.20724665
-0.16436803 -0.19295378 -0.042878617 0.27156457 -0.03573218 -0.25012526 0.09290367 -0.22153953
0.10719655 -0.042878617 -0.05717149 -0.27871102 -0.042878617 0.0786108 -0.30729675 0.18580735
-0.14292872 -0.07146436 -0.2930039 -0.050025053 -0.050025053 -0.15007517 0.11434298 0.2930039
0.09290367 -0.0071464363 -0.028585745 0.26441815 -0.12148941 -0.22153953 -0.11434298 -0.25012526
0.07146436 0.1572216 -0.2358324 -0.3573218 -0.2358324 -0.24297883 -0.06431793 -0.0786108
0.13578229 -0.0142928725 -0.1572216 -0.393054 -0.13578229 -0.11434298 -0.20724665 -0.0071464363
-0.11434298 0.050025053 0.042878617 -0.021439308 -0.050025053 -0.03573218 -0.07146436 -0.042878617
0.0 -0.10005011 0.06431793 0.0142928725 -0.0142928725 -0.12863585 -0.3144432 0.0071464363
-0.0142928725 -0.05717149 0.10005011 -0.03573218 -0.20010021 0.12863585 -0.0142928725 -0.042878617
-0.028585745 0.08575723 0.0071464363 0.03573218 -0.0786108 0.15007517 0.10719655 -0.27156457
0.27871102 0.06431793 -0.03573218 -0.1572216 0.0142928725 -0.0786108 -0.52168983 -0.54312915
0.20724665 -0.10719655 0.021439308 -0.393054 0.050025053 0.13578229 0.050025053 0.11434298
0.20010021 0.050025053 0.028585745 0.05717149 -0.07146436 -0.08575723 0.042878617 0.13578229
0.10719655 0.0786108 -0.0142928725 0.0071464363 0.05717149 0.2358324 0.09290367 0.0071464363
-0.36446825 0.021439308 -0.11434298 -0.09290367 -0.2143931 0.0 0.12148941 -0.10719655
0.30015033 -0.07146436 0.22868596 0.27156457 -0.24297883 0.27871102 -0.10005011 0.22153953
-0.10005011 -0.05717149 0.30015033 0.06431793 0.12148941 0.042878617 -0.0142928725 0.10719655
-0.12863585 0.20010021 0.11434298 -0.0071464363 -0.05717149 -0.042878617 -0.07146436 0.20724665
0.05717149 -0.050025053 -0.12863585 -0.07146436 0.03573218 0.18580735 0.021439308 -0.03573218
0.0786108 0.19295378 0.12863585 0.16436803 0.16436803 0.14292872 0.10005011 0.0071464363
0.021439308 0.19295378 0.19295378 -0.08575723 -0.10719655 0.12148941 -0.30729675 0.0786108
0.20724665 0.05717149 0.06431793 0.021439308 -0.06431793 0.1786609 -0.12863585 0.2358324
0.14292872 -0.0142928725 -0.1572216 0.07146436 -0.30729675 -0.12148941 -0.13578229 0.09290367
0.3787611 -0.18580735 0.09290367 0.0 0.0 -0.19295378 -0.09290367 0.05717149
0.09290367 -0.13578229 -0.03573218 0.12863585 0.13578229 -0.18580735 -0.12148941 -0.10719655
-0.11434298 0.021439308 -0.3144432 -0.38590756 -0.2143931 -0.03573218 -0.2572717 0.0
-0.042878617 0.13578229 0.050025053 -0.20010021 -0.0071464363 -0.26441815 -0.07146436 -0.12148941
0.10719655 -0.30729675 -0.09290367 0.050025053 -0.2143931 -0.18580735 -0.20010021 -0.0786108
-0.27156457 -0.10719655 -0.09290367 -0.10719655 -0.30015033 -0.07146436 0.0786108 -0.17151447
0.11434298 -0.11434298 -0.22868596 -0.22153953 0.028585745 0.050025053 -0.0786108 0.0142928725

std.constant22 i1 [128, 64] scale=0.012754621 zero_point=0
00000000: 0612 0d0f ff1e 0606 f201 0bcf f0fd 0ff8
00000010: 00f6 fcf9 fd0c 01f5 fbf7 360e f805 f007
00000020: f900 000d 03f9 0313 f408 03fc f1e1 e504
00000030: fa07 0e09 0501 f723 0bfa eef8 fefe fb05
00000040: 1401 f727 0512 2508 0901 0bfb 021c 0eff
00000050: 0800 0200 fe06 0626 f803 0af6 f706 00f9
00000060: fbf8 2409 fde9 0214 f908 03f1 ff07 0304
00000070: 01ee 13fa 0306 03fe f9f6 1719 e2ed 021f
00000080: da0a 01f1 e5ff fe05 fd09 f615 ebe7 0ced
00000090: 06f9 fafe e600 fef7 030e 0b13 f326 fc0c
000000a0: f602 dafe 03d6 07f9 0421 f3fe 0cfa 0c28
000000b0: 12f8 edfa 0bf5 08fa f910 05f0 faf2 fd06
000000c0: e9e7 f3e3 0ae6 0f12 c701 02fc 0aec f0bf
000000d0: 04fc 03d7 02f8 03f1 0bff ea01 08ea 1600
000000e0: fa00 dcbc f90a f103 0212 01fe 05fa 0ef8
000000f0: 05fb 0e03 0601 09ef 071c fd05 f9f3 0c0a
0.07652773 0.22958317 0.16581008 0.19131932 -0.012754621 0.38263863 0.07652773 0.07652773
-0.1785647 0.012754621 0.14030083 -0.62497646 -0.20407394 -0.038263865 0.19131932 -0.10203697
0.0 -0.1275462 -0.051018484 -0.08928235 -0.038263865 0.15305546 0.012754621 -0.14030083
-0.0637731 -0.11479159 0.68874955 0.1785647 -0.10203697 0.0637731 -0.20407394 0.08928235
-0.08928235 0.0 0.0 0.16581008 0.038263865 -0.08928235 0.038263865 0.2423378
-0.15305546 0.10203697 0.038263865 -0.051018484 -0.19131932 -0.39539325 -0.34437478 0.051018484
-0.07652773 0.08928235 0.1785647 0.11479159 0.0637731 0.012754621 -0.11479159 0.44641173
0.14030083 -0.07652773 -0.22958317 -0.10203697 -0.025509242 -0.025509242 -0.0637731 0.0637731
0.2550924 0.012754621 -0.11479159 0.4974302 0.0637731 0.22958317 0.47192097 0.10203697
0.11479159 0.012754621 0.14030083 -0.0637731 0.025509242 0.3571294 0.1785647 -0.012754621
0.10203697 0.0 0.025509242 0.0 -0.025509242 0.07652773 0.07652773 0.4846756
-0.10203697 0.038263865 0.1275462 -0.1275462 -0.11479159 0.07652773 0.0 -0.08928235
-0.0637731 -0.10203697 0.45916635 0.11479159 -0.038263865 -0.29335627 0.025509242 0.2550924
-0.08928235 0.10203697 0.038263865 -0.19131932 -0.012754621 0.08928235 0.038263865 0.051018484
0.012754621 -0.22958317 0.2423378 -0.07652773 0.038263865 0.07652773 0.038263865 -0.025509242
-0.08928235 -0.1275462 0.29335627 0.31886554 -0.38263863 -0.2423378 0.025509242 0.39539325
-0.4846756 0.1275462 0.012754621 -0.19131932 -0.34437478 -0.012754621 -0.025509242 0.0637731
-0.038263865 0.11479159 -0.1275462 0.26784703 -0.26784703 -0.31886554 0.15305546 -0.2423378
0.07652773 -0.08928235 -0.07652773 -0.025509242 -0.33162016 0.0 -0.025509242 -0.11479159
0.038263865 0.1785647 0.14030083 0.2423378 -0.16581008 0.4846756 -0.051018484 0.15305546
-0.1275462 0.025509242 -0.4846756 -0.025509242 0.038263865 -0.53569406 0.08928235 -0.08928235
0.051018484 0.4209025 -0.16581008 -0.025509242 0.15305546 -0.07652773 0.15305546 0.5101848
0.22958317 -0.10203697 -0.2423378 -0.07652773 0.14030083 -0.14030083 0.10203697 -0.07652773
-0.08928235 0.20407394 0.0637731 -0.20407394 -0.07652773 -0.1785647 -0.038263865 0.07652773
-0.29335627 -0.31886554 -0.16581008 -0.369884 0.1275462 -0.33162016 0.19131932 0.22958317
-0.7270134 0.012754621 0.025509242 -0.051018484 0.1275462 -0.2550924 -0.20407394 -0.82905036
0.051018484 -0.051018484 0.038263865 -0.52293944 0.025509242 -0.10203697 0.038263865 -0.19131932
0.14030083 -0.012754621 -0.28060165 0.012754621 0.10203697 -0.28060165 0.28060165 0.0
-0.07652773 0.0 -0.45916635 -0.8673142 -0.08928235 0.1275462 -0.19131932 0.038263865
0.025509242 0.22958317 0.012754621 -0.025509242 0.0637731 -0.07652773 0.1785647 -0.10203697
0.0637731 -0.0637731 0.1785647 0.038263865 0.07652773 0.012754621 0.11479159 -0.21682855
0.08928235 0.3571294 -0.038263865 0.0637731 -0.08928235 -0.16581008 0.15305546 0.1275462

std.constant23 i1 [128, 128] scale=0.009326167 zero_point=0
00000000: fbea f810 ff32 de16 06f0 2c11 eaf4 32fa
00000010: fbef 1ae2 dd0d 0e23 2ae5 0411 1813 18f6
00000020: 0818 e2f6 16fb f002 1510 0721 cdf2 ecf6
00000030: e93a 1311 12ee f209 2126 fa07 1d00 f435
00000040: e321 f8e0 ece0 ef0b ebbc f73b 2bfc ff06
00000050: f8fa f114 14f6 1a38 fde7 0e01 11df f027
00000060: fd13 0c27 e9f8 f2e6 e6e4 e1f8 d8f6 12ea
00000070: e1f8 2cd6 f4ff e5ef 01f2 f5dd f92d faea
00000080: eb09 01f6 04e9 1207 e703 f302 0717 04f6
00000090: 040c 0fe3 1afc e100 dc25 f8ea 01ea f3f2
000000a0: 0ef1 1af2 0a15 0aeb f118 ef39 ea09 fc05
000000b0: d20a 0601 0b09 16e7 160b eb0c f6fe 0ce9
000000c0: 001a e5e0 0f06 2c0b 0eec ecf7 1a18 0806
000000d0: 0d26 0519 16f0 0e09 1bf8 f503 23d7 f923
000000e0: eafa fe25 d3f0 17ee 0406 130a f5f7 f502
000000f0: 1b02 0cba 000c eaf3 ce0f 0d1b c51d 16ea
-0.046630837 -0.20517568 -0.07460934 0.14921868 -0.009326167 0.46630836 -0.31708968 0.20517568
0.055957004 -0.14921868 0.41035137 0.15854484 -0.20517568 -0.11191401 0.46630836 -0.055957004
-0.046630837 -0.15854484 0.24248035 -0.27978504 -0.32641587 0.121240176 0.13056634 0.32641587
0.39169902 -0.25180653 0.03730467 0.15854484 0.22382802 0.17719719 0.22382802 -0.093261674
0.07460934 0.22382802 -0.27978504 -0.093261674 0.20517568 -0.046630837 -0.14921868 0.018652335
0.19584951 0.14921868 0.06528317 0.30776352 -0.47563455 -0.13056634 -0.18652335 -0.093261674
-0.21450186 0.5409177 0.17719719 0.15854484 0.16787101 -0.16787101 -0.13056634 0.08393551
0.30776352 0.35439438 -0.055957004 0.06528317 0.27045885 0.0 -0.11191401 0.49428686
-0.27045885 0.30776352 -0.07460934 -0.29843736 -0.18652335 -0.29843736 -0.15854484 0.10258784
-0.19584951 -0.63417935 -0.08393551 0.55024385 0.4010252 -0.03730467 -0.009326167 0.055957004
-0.07460934 -0.055957004 -0.13989252 0.18652335 0.18652335 -0.093261674 0.24248035 0.5222654
-0.027978502 -0.23315418 0.13056634 0.009326167 0.15854484 -0.30776352 -0.14921868 0.36372054
-0.027978502 0.17719719 0.11191401 0.36372054 -0.21450186 -0.07460934 -0.13056634 -0.24248035
-0.24248035 -0.2611327 -0.2891112 -0.07460934 -0.3730467 -0.093261674 0.16787101 -0.20517568
-0.2891112 -0.07460934 0.41035137 -0.39169902 -0.11191401 -0.009326167 -0.25180653 -0.15854484
0.009326167 -0.13056634 -0.10258784 -0.32641587 -0.06528317 0.41967753 -0.055957004 -0.20517568
-0.19584951 0.08393551 0.009326167 -0.093261674 0.03730467 -0.21450186 0.16787101 0.06528317
-0.23315418 0.027978502 -0.121240176 0.018652335 0.06528317 0.21450186 0.03730467 -0.093261674
0.03730467 0.11191401 0.13989252 -0.27045885 0.24248035 -0.03730467 -0.2891112 0.0
-0.33574203 0.3450682 -0.07460934 -0.20517568 0.009326167 -0.20517568 -0.121240176 -0.13056634
0.13056634 -0.13989252 0.24248035 -0.13056634 0.093261674 0.19584951 0.093261674 -0.19584951
-0.13989252 0.22382802 -0.15854484 0.53159153 -0.20517568 0.08393551 -0.03730467 0.046630837
-0.42900372 0.093261674 0.055957004 0.009326167 0.10258784 0.08393551 0.20517568 -0.23315418
0.20517568 0.10258784 -0.19584951 0.11191401 -0.093261674 -0.018652335 0.11191401 -0.21450186
0.0 0.24248035 -0.25180653 -0.29843736 0.13989252 0.055957004 0.41035137 0.10258784
0.13056634 -0.18652335 -0.18652335 -0.08393551 0.24248035 0.22382802 0.07460934 0.055957004
0.121240176 0.35439438 0.046630837 0.23315418 0.20517568 -0.14921868 0.13056634 0.08393551
0.25180653 -0.07460934 -0.10258784 0.027978502 0.32641587 -0.38237286 -0.06528317 0.32641587
-0.20517568 -0.055957004 -0.018652335 0.3450682 -0.41967753 -0.14921868 0.21450186 -0.16787101
0.03730467 0.055957004 0.17719719 0.093261674 -0.10258784 -0.08393551 -0.10258784 0.018652335
0.25180653 0.018652335 0.11191401 -0.65283173 0.0 0.11191401 -0.20517568 -0.121240176
-0.46630836 0.13989252 0.121240176 0.25180653 -0.55024385 0.27045885 0.20517568 -0.20517568
