Android/application/app/src/main/assets/OCR/model.tflite (tflite, 653712 bytes, 72 tensors)

Dense2/bias f4 [38]
00000000: 021b 64bd 3cc5 a7bc 17d3 9fba 9f9d 8dbb
00000010: 28e7 a7bc f5b1 37bc 510f 25bb 3592 38b9
00000020: 0a7e 4bbc b2f8 2cbc 2c30 8abc 16d0 f4bb
00000030: c551 09bc efcc 8bbb c2bd 8b3b 963c 93bc
00000040: 7779 4abc a4ae 96bc 6a4c 4bbc c8f7 56bc
00000050: 6a98 43bc 8e8b cd3a 4aeb b7bc 4dce a7bc
00000060: 2d6f bfbc df9b 11bd 4e56 3fbb 7a9f 46bb
00000070: 256f 28bc 1ff8 a1bc 77dc 8abc 41e0 11bd
00000080: 3637 06bc 3450 e5bc fbfd 88bc 3f80 b1bb
00000090: 3d35 a8bc 71c5 8e3c
-0.05568982 -0.02047979 -0.0012193647 -0.0043217684 -0.020495966 -0.011211862 -0.0025186131 -0.00017602074
-0.012420187 -0.01055734 -0.016868673 -0.007471095 -0.008381312 -0.0042663733 0.0042645643 -0.017973226
-0.012358061 -0.018393822 -0.012408355 -0.013120599 -0.011938194 0.0015681849 -0.022451062 -0.020484114
-0.023368442 -0.03554904 -0.0029195729 -0.0030307458 -0.010280405 -0.019771634 -0.016950829 -0.035614256
-0.008191874 -0.027992345 -0.01672267 -0.0054168995 -0.020533198 0.017428132

Dense1/bias f4 [64]
00000000: 6e49 753a 999b 9c3b cb9a 8eba 04ed 903b
00000010: 0757 2e3c 99fe 023c 54e8 283c 0ba0 383c
00000020: 419d adb9 681b 2d3c 4319 26bc 6693 93bc
00000030: bb7c c0bc 9496 1cbc d6a3 aebc d311 863b
00000040: 14bd 22bc b229 cabb 4df5 3e3b 4308 8bbc
00000050: 42d9 8fbc ae9c 37bc 7678 9c3b 5580 f8bb
00000060: 37c0 51bc 86c9 0dbc d5c2 1a3b 12dc 033c
00000070: d3e1 fcbc c21c f53b 1548 333c 53b1 90bc
00000080: 42e6 563c a139 f9bb 8157 08bc e097 1d3c
00000090: 9278 0b3b 5875 663c 280b 483c a541 adbc
000000a0: 88e0 473c e063 cdbc b2a0 62bc b528 9cbc
000000b0: 40b8 023c 9025 503b 4720 84bc aecb 7a3c
000000c0: f642 d0bc 4c35 113c 5b6e f13b 241f 263c
000000d0: 4316 33bc 0493 f93b a449 8a3b 159f 6b3c
000000e0: 6acd 603b 4839 1d3c d1d9 95bb 048c 1c3c
000000f0: 0546 ac3b 6a84 fd3b 5738 8cbc d20a febb
0.000935695 0.004779291 -0.0010879872 0.0044227857 0.010640866 0.007995271 0.010309298 0.011268626
-0.00033114295 0.010565616 -0.010137859 -0.018014621 -0.023496976 -0.009557385 -0.021318357 0.0040914803
-0.009932775 -0.0061695212 0.002913791 -0.016971713 -0.017559651 -0.011206789 0.0047751023 -0.0075836577
-0.012802175 -0.008654004 0.0023614664 0.008048074 -0.0308694 0.007480235 0.010942479 -0.01766268
0.013116421 -0.007605747 -0.008321644 0.009618729 0.0021281582 0.014066063 0.012209691 -0.021149466
0.0121995285 -0.025072038 -0.013832258 -0.01906238 0.007978499 0.003176067 -0.016128672 0.01530735
-0.025422554 0.008862805 0.0073678917 0.01013926 -0.010930601 0.0076164026 0.0042202044 0.01438119
0.0034302124 0.009596176 -0.004573085 0.009554867 0.0052573704 0.0077367323 -0.017116709 -0.0077527547

std.constant9 f4 [32]
00000000: 4b69 533f c3a4 5940 aced a83c a196 2e3d
00000010: 960e 073f f391 363f 56bb 0c3f 89bc 983c
00000020: fc4c 2a40 7fbc c93d 8b52 5b3e 27ae a43c
00000030: 3afe 2c3d 5b08 8c3c 3a59 b63c 806a 313d
00000040: edee ba3c 66c6 f941 b55f e83c b1a6 a03c
00000050: 78c7 df3c d88d f93c db7f 7a3d 2e3c 0a3d
00000060: b98e 9f3c ed8c 003e cc2a a43f 5097 8f3e
00000070: 2db4 d43c 1773 6a3d 18e2 733e becc d53c
0.8258254 3.4006813 0.020621143 0.04262412 0.5275663 0.7131645 0.5497335 0.018644588
2.6609488 0.09850406 0.21418206 0.020102574 0.042234637 0.017093828 0.022259343 0.043314457
0.022819007 31.221874 0.02836595 0.019610735 0.027316794 0.030463144 0.06115709 0.033748798
0.019477235 0.12553759 1.282556 0.2804513 0.02596482 0.057238664 0.23816717 0.026098605

std.constant10 f4 [32]
00000000: b163 2cbd 4a61 613d e979 96bf be65 d6be
00000010: b912 0dbd 56ca 59be a301 89bd b4e3 aebf
00000020: 0a4b 033c 2ec2 09bf 07dc a7bf 9213 84bf
00000030: e23b 6dbf 3f8e b1bf fca3 9dbf 61b0 76bf
00000040: 2c65 bfbf d005 563e 0236 51bf 55b6 8bbf
00000050: 6a9f a9bf 32a4 8bbf 23e1 93bf d35e 84bf
00000060: 3740 aebf c540 9cbf ce95 c3bd 3a71 4abe
00000070: e193 b9bf 164d 77bf f92f d0be 585a aebf
-0.04208726 0.055024423 -1.1755954 -0.41874498 -0.034441683 -0.21268591 -0.06689765 -1.366324
0.008013496 -0.5381192 -1.3114022 -1.0318472 -0.926695 -1.3871535 -1.2315669 -0.9636288
-1.495275 0.20900655 -0.81723034 -1.0915018 -1.3251774 -1.0909483 -1.1553081 -1.0341438
-1.3613347 -1.2207266 -0.09550057 -0.19769755 -1.4498254 -0.96602 -0.406616 -1.3621321

std.constant11 i1 [128, 128] scale=0.0027040497 zero_point=0
00000000: 1501 eb14 100c 10f8 e4ff cefc edce c1be
00000010: f8eb d61d 05dd 0116 101a ec08 1aa3 e9fd
00000020: 10fe 19ee ffde 0c06 08d6 ff03 0714 c0fa
00000030: 460b 0ce7 00fc 0c0c fa43 fd21 e2e2 16e9
00000040: 13f1 f9a8 ed28 8cd5 fb38 20ef 2cd7 1a00
00000050: 0916 f4c5 da29 d100 030c 1215 0923 370d
00000060: fc23 04f3 03f5 1ef9 53eb 3d22 2207 ba1d
00000070: 01fb 12f0 f519 e0fd 06fb 020f f014 2ed4
00000080: f7fe ec1b 0308 ec18 1ff6 08fb 0a18 10ee
00000090: e6f1 fbff faee f309 1303 ea09 2e14 f301
000000a0: eefc 1be5 12eb 16ef 15f7 f506 1f15 f8f5
000000b0: 1cf8 d608 ec1f 00ed 02ea f704 f923 0114
000000c0: f1fc 100e e4ea 080a e7f0 2af9 f10a 02f6
000000d0: f907 11d5 f6f4 f4e7 e5f4 f40f 0aea f0ef
000000e0: f2fa fa14 2409 030a f8f7 0dcb e90f f5ff
000000f0: 0400 0e1d 1111 0ee2 fc0e 0fe7 fef7 0ff4
0.056785043 0.0027040497 -0.056785043 0.054080993 0.043264795 0.032448597 0.043264795 -0.021632398
-0.07571339 -0.0027040497 -0.13520248 -0.010816199 -0.051376943 -0.13520248 -0.17035513 -0.17846727
-0.021632398 -0.056785043 -0.11357009 0.07841744 0.013520248 -0.09464174 0.0027040497 0.059489094
0.043264795 0.070305295 -0.054080993 0.021632398 0.070305295 -0.25147662 -0.062193144 -0.008112149
0.043264795 -0.0054080994 0.06760124 -0.048672896 -0.0027040497 -0.09193769 0.032448597 0.016224299
0.021632398 -0.11357009 -0.0027040497 0.008112149 0.018928347 0.054080993 -0.17305918 -0.016224299
0.18928348 0.029744547 0.032448597 -0.06760124 0.0 -0.010816199 0.032448597 0.032448597
-0.016224299 0.18117133 -0.008112149 0.08923364 -0.08112149 -0.08112149 0.059489094 -0.062193144
0.051376943 -0.040560745 -0.018928347 -0.23795637 -0.051376943 0.108161986 -0.31366977 -0.11627413
-0.013520248 0.15142678 0.08652959 -0.045968845 0.11897819 -0.11086604 0.070305295 0.0
0.024336448 0.059489094 -0.032448597 -0.15953892 -0.102753885 0.11086604 -0.12709033 0.0
0.008112149 0.032448597 0.048672896 0.056785043 0.024336448 0.09464174 0.14872274 0.035152648
-0.010816199 0.09464174 0.010816199 -0.035152648 0.008112149 -0.029744547 0.08112149 -0.018928347
0.22443612 -0.056785043 0.16494703 0.09193769 0.09193769 0.018928347 -0.18928348 0.07841744
0.0027040497 -0.013520248 0.048672896 -0.043264795 -0.029744547 0.06760124 -0.08652959 -0.008112149
0.016224299 -0.013520248 0.0054080994 0.040560745 -0.043264795 0.054080993 0.12438629 -0.11897819
-0.024336448 -0.0054080994 -0.054080993 0.07300934 0.008112149 0.021632398 -0.054080993 0.064897195
0.08382554 -0.027040496 0.021632398 -0.013520248 0.027040496 0.064897195 0.043264795 -0.048672896
-0.070305295 -0.040560745 -0.013520248 -0.0027040497 -0.016224299 -0.048672896 -0.035152648 0.024336448
0.051376943 0.008112149 -0.059489094 0.024336448 0.12438629 0.054080993 -0.035152648 0.0027040497
-0.048672896 -0.010816199 0.07300934 -0.07300934 0.048672896 -0.056785043 0.059489094 -0.045968845
0.056785043 -0.024336448 -0.029744547 0.016224299 0.08382554 0.056785043 -0.021632398 -0.029744547
0.07571339 -0.021632398 -0.11357009 0.021632398 -0.054080993 0.08382554 0.0 -0.051376943
0.0054080994 -0.059489094 -0.024336448 0.010816199 -0.018928347 0.09464174 0.0027040497 0.054080993
-0.040560745 -0.010816199 0.043264795 0.037856694 -0.07571339 -0.059489094 0.021632398 0.027040496
-0.06760124 -0.043264795 0.11357009 -0.018928347 -0.040560745 0.027040496 0.0054080994 -0.027040496
-0.018928347 0.018928347 0.045968845 -0.11627413 -0.027040496 -0.032448597 -0.032448597 -0.06760124
-0.07300934 -0.032448597 -0.032448597 0.040560745 0.027040496 -0.059489094 -0.043264795 -0.045968845
-0.037856694 -0.016224299 -0.016224299 0.054080993 0.09734579 0.024336448 0.008112149 0.027040496
-0.021632398 -0.024336448 0.035152648 -0.14331463 -0.062193144 0.040560745 -0.029744547 -0.0027040497
0.010816199 0.0 0.037856694 0.07841744 0.045968845 0.045968845 0.037856694 -0.08112149
-0.010816199 0.037856694 0.040560745 -0.06760124 -0.0054080994 -0.024336448 0.040560745 -0.032448597

std.constant12 i1 [128, 128] scale=0.0026743365 zero_point=0
00000000: e8ee faf2 db05 15e8 f614 fdf3 fece 2329
00000010: 0706 17e6 0014 f4e9 f009 2212 db38 e701
00000020: 0cfe cc08 fbfa f315 fd34 1cf7 0fd4 1cfa
00000030: c6f4 0826 d3e8 17fb 01f5 04e9 2514 fa29
00000040: f70e 0a1f f100 2145 0bee fc07 fb04 d119
00000050: 06fc f534 13f8 f517 1826 c0c6 eedc eedd
00000060: 0ef1 e70c 0f23 261c de01 1205 fd02 1fef
00000070: fffa f9f7 2103 06e8 2419 10f8 d62f e100
00000080: fff2 03e7 0e02 ef0f 0513 020f f0f5 01f1
00000090: fcf3 f008 0715 0914 090a f7ed f3f7 eef7
000000a0: 2810 f212 f011 fd0e ecef f700 f110 16ed
000000b0: 2c13 f2f8 f9e5 0019 04f3 010b e2f4 fdf4
000000c0: 13f2 0dea 00f3 e2ee 1f2b dffc d610 07f9
000000d0: f9f7 e0ef 0e06 eeeb dd11 2d03 fafb e90e
000000e0: 011b e1f3 fcf2 1b06 0ef1 27f5 d80c 001e
000000f0: 19f7 f711 e10e f4f6 f5dc f813 f20a ffff
-0.06418408 -0.04813806 -0.01604602 -0.03744071 -0.09895045 0.013371683 0.05616107 -0.06418408
-0.026743365 0.05348673 -0.00802301 -0.034766376 -0.005348673 -0.13371682 0.09360178 0.109647796
0.018720355 0.01604602 0.06150974 -0.06953275 0.0 0.05348673 -0.03209204 -0.06150974
-0.042789385 0.02406903 0.090927444 0.04813806 -0.09895045 0.14976284 -0.06685841 0.0026743365
0.03209204 -0.005348673 -0.1390655 0.021394692 -0.013371683 -0.01604602 -0.034766376 0.05616107
-0.00802301 0.1390655 0.07488142 -0.02406903 0.040115047 -0.117670804 0.07488142 -0.01604602
-0.15511152 -0.03209204 0.021394692 0.10162479 -0.120345145 -0.06418408 0.06150974 -0.013371683
0.0026743365 -0.029417701 0.010697346 -0.06150974 0.09895045 0.05348673 -0.01604602 0.109647796
-0.02406903 0.03744071 0.026743365 0.082904436 -0.040115047 0.0 0.0882531 0.18452922
0.029417701 -0.04813806 -0.010697346 0.018720355 -0.013371683 0.010697346 -0.12569381 0.06685841
0.01604602 -0.010697346 -0.029417701 0.1390655 0.050812393 -0.021394692 -0.029417701 0.06150974
0.06418408 0.10162479 -0.17115754 -0.15511152 -0.04813806 -0.09627612 -0.04813806 -0.09360178
0.03744071 -0.040115047 -0.06685841 0.03209204 0.040115047 0.09360178 0.10162479 0.07488142
-0.090927444 0.0026743365 0.04813806 0.013371683 -0.00802301 0.005348673 0.082904436 -0.045463722
-0.0026743365 -0.01604602 -0.018720355 -0.02406903 0.0882531 0.00802301 0.01604602 -0.06418408
0.09627612 0.06685841 0.042789385 -0.021394692 -0.11232214 0.12569381 -0.082904436 0.0
-0.0026743365 -0.03744071 0.00802301 -0.06685841 0.03744071 0.005348673 -0.045463722 0.040115047
0.013371683 0.050812393 0.005348673 0.040115047 -0.042789385 -0.029417701 0.0026743365 -0.040115047
-0.010697346 -0.034766376 -0.042789385 0.021394692 0.018720355 0.05616107 0.02406903 0.05348673
0.02406903 0.026743365 -0.02406903 -0.050812393 -0.034766376 -0.02406903 -0.04813806 -0.02406903
0.10697346 0.042789385 -0.03744071 0.04813806 -0.042789385 0.045463722 -0.00802301 0.03744071
-0.05348673 -0.045463722 -0.02406903 0.0 -0.040115047 0.042789385 0.058835402 -0.050812393
0.117670804 0.050812393 -0.03744071 -0.021394692 -0.018720355 -0.072207086 0.0 0.06685841
0.010697346 -0.034766376 0.0026743365 0.029417701 -0.080230094 -0.03209204 -0.00802301 -0.03209204
0.050812393 -0.03744071 0.034766376 -0.058835402 0.0 -0.034766376 -0.080230094 -0.04813806
0.082904436 0.11499647 -0.0882531 -0.010697346 -0.11232214 0.042789385 0.018720355 -0.018720355
-0.018720355 -0.02406903 -0.08557877 -0.045463722 0.03744071 0.01604602 -0.04813806 -0.05616107
-0.09360178 0.045463722 0.120345145 0.00802301 -0.01604602 -0.013371683 -0.06150974 0.03744071
0.0026743365 0.072207086 -0.082904436 -0.034766376 -0.010697346 -0.03744071 0.072207086 0.01604602
0.03744071 -0.040115047 0.10429913 -0.029417701 -0.10697346 0.03209204 0.0 0.080230094
0.06685841 -0.02406903 -0.02406903 0.045463722 -0.082904436 0.03744071 -0.03209204 -0.026743365
-0.029417701 -0.09627612 -0.021394692 0.050812393 -0.03744071 0.026743365 -0.0026743365 -0.0026743365

std.constant13 i1 [128, 128] scale=0.0022420958 zero_point=0
00000000: e6ef cfeb 08ef 0420 18ef f9b9 22ab 0a0f
00000010: fa03 2505 1710 0af0 02e7 f805 f225 01f2
00000020: 100b f709 f9f6 fef1 e8f0 1bfa 0847 eb0b
00000030: c0ea 14e1 fe05 f850 0c01 f017 f8d9 0e17
00000040: de04 22f4 0ff3 3f0c 1116 e32a e105 ce21
00000050: c913 0226 1120 cd0a 1d2b fadf c1fc 01a9
00000060: f408 02ec f708 1ef0 fe1b eaf8 fe02 07fa
00000070: ebfd d8f9 1f09 14f7 f2f9 0e0e f434 e819
00000080: f3db e31f ea06 1acb 03e4 0001 0efb 37e5
00000090: 0710 fc05 fb28 ed06 09ec 0efd f303 e208
000000a0: 05d2 0e1b 14eb e808 0bd2 0bdf 1721 1400
000000b0: fa16 fe12 f5fe ecdc f914 1e11 f508 10dd
000000c0: 00f4 3503 fe1a 23f9 01e3 0ad6 1c10 17fd
000000d0: fef7 0cee 011f 1cef d8f0 eb21 dc0c fc27
000000e0: 1b0e faeb 02e2 0af5 fffb 17e1 f5fc d7e6
000000f0: 01f0 d008 f8e9 ed1a e9f0 ff08 04e6 1500
-0.05829449 -0.038115628 -0.10986269 -0.04708401 0.017936766 -0.038115628 0.008968383 0.071747065
0.0538103 -0.038115628 -0.01569467 -0.1591888 0.076231256 -0.19057813 0.022420958 0.033631437
-0.013452575 0.0067262873 0.08295754 0.011210479 0.051568203 0.035873532 0.022420958 -0.035873532
0.0044841915 -0.056052394 -0.017936766 0.011210479 -0.03138934 0.08295754 0.0022420958 -0.03138934
0.035873532 0.024663053 -0.020178862 0.020178862 -0.01569467 -0.022420958 -0.0044841915 -0.033631437
-0.0538103 -0.035873532 0.060536586 -0.013452575 0.017936766 0.1591888 -0.04708401 0.024663053
-0.14349413 -0.049326107 0.044841915 -0.06950497 -0.0044841915 0.011210479 -0.017936766 0.17936766
0.02690515 0.0022420958 -0.035873532 0.051568203 -0.017936766 -0.087441735 0.03138934 0.051568203
-0.076231256 0.008968383 0.076231256 -0.02690515 0.033631437 -0.029147245 0.14125204 0.02690515
0.038115628 0.049326107 -0.06502078 0.09416802 -0.06950497 0.011210479 -0.11210479 0.07398916
-0.12331527 0.04259982 0.0044841915 0.08519964 0.038115628 0.071747065 -0.114346884 0.022420958
0.06502078 0.09641012 -0.013452575 -0.07398916 -0.14125204 -0.008968383 0.0022420958 -0.19506234
-0.02690515 0.017936766 0.0044841915 -0.044841915 -0.020178862 0.017936766 0.06726287 -0.035873532
-0.0044841915 0.060536586 -0.049326107 -0.017936766 -0.0044841915 0.0044841915 0.01569467 -0.013452575
-0.04708401 -0.0067262873 -0.08968383 -0.01569467 0.06950497 0.020178862 0.044841915 -0.020178862
-0.03138934 -0.01569467 0.03138934 0.03138934 -0.02690515 0.11658898 -0.0538103 0.056052394
-0.029147245 -0.08295754 -0.06502078 0.06950497 -0.049326107 0.013452575 0.05829449 -0.118831076
0.0067262873 -0.06277868 0.0 0.0022420958 0.03138934 -0.011210479 0.12331527 -0.060536586
0.01569467 0.035873532 -0.008968383 0.011210479 -0.011210479 0.08968383 -0.04259982 0.013452575
0.020178862 -0.044841915 0.03138934 -0.0067262873 -0.029147245 0.0067262873 -0.06726287 0.017936766
0.011210479 -0.103136405 0.03138934 0.060536586 0.044841915 -0.04708401 -0.0538103 0.017936766
0.024663053 -0.103136405 0.024663053 -0.07398916 0.051568203 0.07398916 0.044841915 0.0
-0.013452575 0.049326107 -0.0044841915 0.040357724 -0.024663053 -0.0044841915 -0.044841915 -0.08071545
-0.01569467 0.044841915 0.06726287 0.038115628 -0.024663053 0.017936766 0.035873532 -0.07847335
0.0 -0.02690515 0.118831076 0.0067262873 -0.0044841915 0.05829449 0.07847335 -0.01569467
0.0022420958 -0.06502078 0.022420958 -0.09416802 0.06277868 0.035873532 0.051568203 -0.0067262873
-0.0044841915 -0.020178862 0.02690515 -0.040357724 0.0022420958 0.06950497 0.06277868 -0.038115628
-0.08968383 -0.035873532 -0.04708401 0.07398916 -0.08071545 0.02690515 -0.008968383 0.087441735
0.060536586 0.03138934 -0.013452575 -0.04708401 0.0044841915 -0.06726287 0.022420958 -0.024663053
-0.0022420958 -0.011210479 0.051568203 -0.06950497 -0.024663053 -0.008968383 -0.09192593 -0.05829449
0.0022420958 -0.035873532 -0.1076206 0.017936766 -0.017936766 -0.051568203 -0.04259982 0.05829449
-0.051568203 -0.035873532 -0.0022420958 0.017936766 0.008968383 -0.05829449 0.04708401 0.0

std.constant14 i1 [128, 128] scale=0.0024509788 zero_point=0
00000000: 1efc 1d09 f2dd e9db 1004 0111 fc27 e317
00000010: 2705 f3e7 04f8 e214 f821 35ff eb1a d4e3
00000020: e5e0 eff8 e505 fefc 05de e602 0400 3ce5
00000030: 3903 03d4 16f7 07ed f1fc 10f6 faff c11f
00000040: f22a f52e 0ce8 4506 fee5 f8e1 0709 2102
00000050: ed1f 0efb d9ed 1f16 0716 d1fe 1eeb ef48
00000060: f6de f30c ebf7 eff6 ebf2 0a0b dff1 1df8
00000070: 13ee f806 0404 19f4 fe08 f6f2 27e9 03fe
00000080: e60a 03e7 e311 0bed f814 1b1c f203 080c
00000090: eff0 f109 1cd8 fe40 effb fcea e3f3 fe14
000000a0: 04ee f8ec fe19 02fc 08fb f608 f70e 0cf0
000000b0: 16fd f8ed 03fe 0ff3 fbf6 fdf7 eb1f ec03
000000c0: 1deb f8e9 1125 f60b 25f3 fde2 3b04 19f3
000000d0: ed03 fbfc eee9 0504 f8e5 f627 0e10 f6e1
000000e0: f2fd 14cd 1804 0113 09ee dbf0 fc0a 1e06
000000f0: 0601 03ef 180f 182b e9fe ea05 f5f9 1dfc
0.07352936 -0.009803915 0.07107839 0.02205881 -0.034313705 -0.08578426 -0.056372512 -0.09068622
0.03921566 0.009803915 0.0024509788 0.04166664 -0.009803915 0.09558818 -0.07107839 0.056372512
0.09558818 0.012254894 -0.031862725 -0.061274473 0.009803915 -0.01960783 -0.07352936 0.049019575
-0.01960783 0.0808823 0.12990189 -0.0024509788 -0.051470555 0.06372545 -0.10784307 -0.07107839
-0.06617643 -0.07843132 -0.04166664 -0.01960783 -0.06617643 0.012254894 -0.0049019577 -0.009803915
0.012254894 -0.08333328 -0.06372545 0.0049019577 0.009803915 0.0 0.14705873 -0.06617643
0.13970579 0.0073529365 0.0073529365 -0.10784307 0.053921536 -0.02205881 0.017156852 -0.0465686
-0.03676468 -0.009803915 0.03921566 -0.024509788 -0.014705873 -0.0024509788 -0.15441167 0.07598034
-0.034313705 0.10294111 -0.026960768 0.112745024 0.029411746 -0.058823492 0.16911754 0.014705873
-0.0049019577 -0.06617643 -0.01960783 -0.07598034 0.017156852 0.02205881 0.0808823 0.0049019577
-0.0465686 0.07598034 0.034313705 -0.012254894 -0.09558818 -0.0465686 0.07598034 0.053921536
0.017156852 0.053921536 -0.115196005 -0.0049019577 0.07352936 -0.051470555 -0.04166664 0.17647047
-0.024509788 -0.08333328 -0.031862725 0.029411746 -0.051470555 -0.02205881 -0.04166664 -0.024509788
-0.051470555 -0.034313705 0.024509788 0.026960768 -0.0808823 -0.03676468 0.07107839 -0.01960783
0.0465686 -0.04411762 -0.01960783 0.014705873 0.009803915 0.009803915 0.061274473 -0.029411746
-0.0049019577 0.01960783 -0.024509788 -0.034313705 0.09558818 -0.056372512 0.0073529365 -0.0049019577
-0.06372545 0.024509788 0.0073529365 -0.061274473 -0.07107839 0.04166664 0.026960768 -0.0465686
-0.01960783 0.049019575 0.06617643 0.06862741 -0.034313705 0.0073529365 0.01960783 0.029411746
-0.04166664 -0.03921566 -0.03676468 0.02205881 0.06862741 -0.09803915 -0.0049019577 0.15686265
-0.04166664 -0.012254894 -0.009803915 -0.053921536 -0.07107839 -0.031862725 -0.0049019577 0.049019575
0.009803915 -0.04411762 -0.01960783 -0.049019575 -0.0049019577 0.061274473 0.0049019577 -0.009803915
0.01960783 -0.012254894 -0.024509788 0.01960783 -0.02205881 0.034313705 0.029411746 -0.03921566
0.053921536 -0.0073529365 -0.01960783 -0.0465686 0.0073529365 -0.0049019577 0.03676468 -0.031862725
-0.012254894 -0.024509788 -0.0073529365 -0.02205881 -0.051470555 0.07598034 -0.049019575 0.0073529365
0.07107839 -0.051470555 -0.01960783 -0.056372512 0.04166664 0.09068622 -0.024509788 0.026960768
0.09068622 -0.031862725 -0.0073529365 -0.07352936 0.14460775 0.009803915 0.061274473 -0.031862725
-0.0465686 0.0073529365 -0.012254894 -0.009803915 -0.04411762 -0.056372512 0.012254894 0.009803915
-0.01960783 -0.06617643 -0.024509788 0.09558818 0.034313705 0.03921566 -0.024509788 -0.07598034
-0.034313705 -0.0073529365 0.049019575 -0.12499992 0.058823492 0.009803915 0.0024509788 0.0465686
0.02205881 -0.04411762 -0.09068622 -0.03921566 -0.009803915 0.024509788 0.07352936 0.014705873
0.014705873 0.0024509788 0.0073529365 -0.04166664 0.058823492 0.03676468 0.058823492 0.10539209
-0.056372512 -0.0049019577 -0.053921536 0.012254894 -0.026960768 -0.017156852 0.07107839 -0.009803915

std.constant15 f4 [128]
00000000: f465 0ebc ada3 db3a 40f8 0abc 6040 f93b
00000010: 8a41 983c e650 db3b b22b 3f3c 9f11 2cbc
00000020: 02b0 3b3c a9d5 873a 016b 833c 60cd 033c
00000030: 70d8 643c d0e0 343c 1129 153c e767 183d
00000040: 7e59 4b3c 7b84 513c b2e1 823c ec43 edbc
00000050: c998 96bb b8e5 dc3b 36f8 adbb 79ae 663c
00000060: 32ee 763c 8f74 9a3b 0307 343c 36ce 473c
00000070: 843a 423c a356 f6bb 14c1 5a3c 8d8f 24bc
00000080: f717 573c a6fa 5c3c b325 db3b 99db 74bc
00000090: 0171 ab3c e891 5b3c 650c 7f3c ee65 8a3a
000000a0: 47b8 c03b fe38 83bb 27d6 253c b794 b83b
000000b0: 2182 2e3c 6a36 4f3b 0527 16bc 67e4 8f3c
000000c0: cb5f f33c 168c 643c 8ed3 763c a862 6b3c
000000d0: 1790 f339 71f0 303c a515 37bb 460a 50bc
000000e0: b355 3e3c 050e 7b3c 4f31 543c 90f2 4f3c
000000f0: af9e 6a3c 261d f5bc 7ba6 b43c 92c5 ffba
00000100: 9b0a 033d b553 853c ced8 51bb daaa ecbb
00000110: 5903 6c3c 409a 823b 8fa3 6c3d add3 c73c
00000120: 7e1d 683c 22ba 2c3c 8b67 753c d5b2 743c
00000130: 2239 cd3c e122 4d3c b2d8 0e3d 05e9 8b3c
00000140: e4de 51bb 1105 97bc 14a2 143c e7ce 493c
00000150: 0dd5 8e3c 95b1 b8bb e013 fdbb 3482 643c
00000160: 3f1f 1b3c c799 a23c c290 0cbc 9e3d 5d3c
00000170: 6122 6c3c 7afd 473c 9029 40bb d477 fa3c
00000180: 97bf 553c 4f68 693c 9bde 173c 1482 533c
00000190: b594 0c3c 86c1 5cbb 5a34 153c da92 38bc
000001a0: 538f 193d 0735 323c df54 8d3c aeea 893c
000001b0: b56a f23b a8c2 5d3c d902 d13c 27ff 61bb
000001c0: ff5d 3f3c 24a7 f23b 2835 e03c b3d6 713c
000001d0: 3b01 ca3c 36be 183c 79f7 8a3c e9c4 623c
000001e0: 9f9e 8ebb 89df 9a3c 6d06 ed3b ac8e d0bb
000001f0: 6d19 91bb 84cc 993c f762 a93c 4b96 b83c
-0.0086913 0.0016757153 -0.008482039 0.007606551 0.018585939 0.0066929935 0.011668133 -0.010502248
0.011455538 0.0010363358 0.016042234 0.008044571 0.013967618 0.011039928 0.009104029 0.037208464
0.012411473 0.012787933 0.01597676 -0.028963052 -0.00459585 0.006741252 -0.00530913 0.014079683
0.015071439 0.004713602 0.010988 0.012195161 0.0118547715 -0.007517652 0.0133516975 -0.010043991
0.013128272 0.013487494 0.0066878437 -0.014944934 0.020927908 0.013401486 0.01556692 0.0010558942
0.0058813426 -0.0040045967 0.010121859 0.0056329626 0.010651142 0.0031618127 -0.009164576 0.017564965
0.029708764 0.013949415 0.015065087 0.014366783 0.00046455927 0.010799513 -0.0027936485 -0.012697762
0.011617112 0.015323167 0.012951209 0.012692109 0.01432006 -0.029921126 0.02205204 -0.0019513837
0.031992536 0.016275266 -0.0032020095 -0.0072225155 0.014405095 0.003985673 0.05777317 0.024392927
0.014167188 0.010542424 0.0149783 0.014935215 0.025051657 0.012520523 0.034874626 0.017078886
-0.0032023722 -0.018435033 0.009071846 0.012317396 0.017435575 -0.005636404 -0.0077233166 0.0139470585
0.009467899 0.019848717 -0.008579435 0.01350346 0.014412493 0.01220643 -0.0029321648 0.030574717
0.013046167 0.0142460605 0.009269382 0.012909431 0.008580376 -0.0033684685 0.00910672 -0.011265481
0.0374902 0.0108769005 0.017252384 0.016835537 0.0073979744 0.013535179 0.025514053 -0.0034484358
0.011680125 0.0074051786 0.027369097 0.014760661 0.02465879 0.009322694 0.016963707 0.013840892
-0.004352405 0.018905418 0.007233432 -0.006364664 -0.00442808 0.018774278 0.020677073 0.022532603

std.constant16 f4 [128]
00000000: ba9c 823f 74bd 7c3f fa76 803f 2dfb 813f
00000010: 2c64 803f c6c7 7c3f e4d9 803f 0cab 7c3f
00000020: d6f4 803f 6b2a 7d3f 9286 803f fec7 7a3f
00000030: 4d2f 813f b958 7b3f f2d1 7b3f 26e3 7c3f
00000040: 1076 813f e81b 813f 8f5d 803f dbd7 843f
00000050: aba5 7c3f 6247 813f 3751 7d3f 8e8e 823f
00000060: 4d6b 813f e1c0 813f 3597 7e3f 3dd5 803f
00000070: 92d8 7d3f 3277 823f 3c5d 813f 9785 7e3f
00000080: fe9c 813f 6a79 813f 6f6c 823f 3ccf 7c3f
00000090: 27f4 7e3f d371 813f 2e46 7d3f 68ed 7e3f
000000a0: d984 803f be89 7c3f ad61 7e3f d69a 803f
000000b0: 0d0c 813f bb7f 7d3f d650 7d3f f241 803f
000000c0: 61eb 7b3f b6b6 803f 27c0 813f 0b1c 813f
000000d0: 1519 803f 5fe6 803f a9ff 7b3f 89c2 7e3f
000000e0: f442 803f 79cd 803f 5796 813f ffd9 813f
000000f0: 7a1e 813f 520f 843f 175a 7b3f 61b3 7d3f
00000100: b3a0 7e3f 6ab3 813f f006 7f3f 064a 7d3f
00000110: 54a3 813f e169 813f c469 793f 65fd 823f
00000120: 78f0 813f ef1e 7d3f cd2f 813f 9271 7c3f
00000130: 6436 803f 614b 813f fb71 7f3f 43be 803f
00000140: 5a59 803f d203 7d3f 4a20 813f 38a5 7d3f
00000150: cdf2 7f3f 3c82 7b3f a855 843f 6673 813f
00000160: f607 7b3f 1d64 813f baa9 7d3f 3f89 7c3f
00000170: d529 843f 8e1a 813f 911d 7c3f 5106 7c3f
00000180: 29b6 7f3f 3ba4 813f dfd5 803f d885 813f
00000190: abb4 7d3f dc9c 7d3f 5cda 7b3f 7b83 7d3f
000001a0: be52 7a3f d881 803f 4259 813f 7cf4 7e3f
000001b0: 849a 763f e593 813f 7e31 803f fcab 7d3f
000001c0: cd6e 813f d847 7f3f c88e 7d3f 09f2 803f
000001d0: 7afd 763f 00e7 7f3f 43ed 7b3f 18a1 813f
000001e0: 310c 7d3f c4aa 813f d4c8 7d3f de8e 7d3f
000001f0: 0785 813f 209d 7f3f 46a8 813f c5ce 803f
1.0204079 0.9872658 1.0036309 1.0154778 1.003057 0.9874233 1.0066495 0.98698497
1.0074718 0.9889285 1.0041068 0.97961414 1.009256 0.98182255 0.98367226 0.987841
1.0114155 1.0086641 1.0028552 1.0378374 0.9869029 1.0099909 0.9895205 1.0199754
1.0110871 1.0136987 0.99449474 1.0065075 0.99158585 1.0192626 1.0106578 0.9942259
1.0126035 1.0115178 1.0189341 0.98753715 0.99591297 1.0112861 0.9893521 0.99581003
1.0040542 0.9864768 0.9936779 1.0047252 1.0081803 0.99023026 0.9895147 1.0020125
0.98406035 1.0055759 1.0136765 1.0086683 1.0007654 1.0070304 0.9843698 0.9951559
1.0020432 1.0062705 1.0124005 1.0144652 1.0087426 1.0317175 0.9818434 0.99101835
0.9946396 1.0132878 0.9961996 0.98941076 1.0127969 1.0110437 0.9742701 1.023358
1.015151 0.98875326 1.0092713 0.98610795 1.0016599 1.0101129 0.99783295 1.0058063
1.0027268 0.98833954 1.0087979 0.9908023 0.9997986 0.98245597 1.033864 1.0113342
0.9805902 1.0108677 0.9908711 0.9864692 1.0325266 1.0086229 0.98482615 0.9844714
0.9988733 1.0128244 1.0065268 1.0118971 0.991038 0.99067473 0.98380065 0.9902875
0.97782505 1.0039625 1.0105364 0.99591804 0.9632952 1.0123259 1.0015104 0.9909055
1.0111939 0.99719 0.9904599 1.0073863 0.96480525 0.99961853 0.9840891 1.0127287
0.9884673 1.0130239 0.99134564 0.99046123 1.0118722 0.9984913 1.0129478 1.0063101

std.constant17 f4 [128]
00000000: f327 a6bb 79d5 12bc 396a 943b 6ce0 2e3c
00000010: 6b23 0c3c 74dd 33bc 53f2 6ebc d5b4 30bc
00000020: 91e3 803c 4223 3c3c 3dcd 33bc 2ff0 a7ba
00000030: 77e7 4fbc dc5d 163c e167 5abc 4643 c7ba
00000040: 2d79 4f3c 3296 023c cf4d 9fbb a688 d03a
00000050: a4b1 243c ea10 27bc 60bf 16bc aa7c 083c
00000060: 85cc 653c 5362 383c 92ce 1e3c f7be 4c3c
00000070: 904f 9d3a 7262 60bc 7909 44bc 57ef c03b
00000080: 8f96 43bc 9bc2 393c 3e03 d9ba ce54 363c
00000090: fcf2 40bc d370 483c 7c2d 74ba 9e9e abbb
000000a0: e18a 553c 9b83 253c 4043 14bc b0f1 393c
000000b0: 7def 2c3c f6ca 24bc 7836 443c 9ccd 373c
000000c0: e40f 323a a4b3 613c 9ea6 60bc 9b3a 393c
000000d0: 9cbe 34bb e638 31bc 913f 59bc de81 1ebc
000000e0: 97ae 4abc 5a06 f63b 5fab 423c 1d98 62bc
000000f0: 44d7 583c e119 3f3c f95a 87bb 5f3b 2ebc
00000100: c6b7 10ba a662 473c afdb 40bc 9121 273c
00000110: b523 53bc 7a74 32bc 6809 16bc 0b01 2abb
00000120: 42a5 50bc 893b 0abc 3425 3c3c 582e 0dbc
00000130: da4d 553c b4dc 35bc 5c9e 553c ccff 11bc
00000140: 3092 a63b 3d44 23bc 634b 32bc 1f15 37bc
00000150: ef29 51bc 74e8 7c3b 0df3 1e3c cb05 54bc
00000160: c305 fabb e66a 16bc b915 4cbc 437e 2c3c
00000170: d75b 623c 60a3 22bc bfec f93b 816c 0d3c
00000180: 12e8 53bc 899a 4fbc fbbe f43b ba23 383c
00000190: 29af 243c e4da 3fbc 9d3c b2bb b3a8 003c
000001a0: 07d4 ee3a 07fc 31bc 713a 1b3c 7643 313c
000001b0: bc46 013c 36b4 4ebc 26bf 42bc d541 59bc
000001c0: 7cca 413c 7c52 25bc f183 1a3c 98a9 3abc
000001d0: ddf6 8f3b 1c31 303c f7b3 e93b 1848 42bc
000001e0: 8f24 f93b 5156 663c 7732 d5bb 7634 2abc
000001f0: 28da df3b 5735 39bc 5077 4e3c 604e 6cbc
-0.0050706803 -0.008962029 0.0045292643 0.0106736235 0.008553366 -0.0109780915 -0.014584142 -0.010785301
0.015733512 0.0114830155 -0.010974226 -0.0012812669 -0.012689463 0.009177651 -0.013330431 -0.0015202544
0.012663168 0.00797038 -0.0048615704 0.0015909865 0.010052118 -0.010196904 -0.009200901 0.0083305035
0.014025812 0.011253911 0.009692805 0.012496701 0.0012001861 -0.013695346 -0.011965149 0.0058879065
-0.011937751 0.011337901 -0.0016556752 0.011128617 -0.011776682 0.012233931 -0.0009314639 -0.0052374145
0.0130336 0.010102178 -0.009049237 0.011349127 0.010555145 -0.010058155 0.011975877 0.011218455
0.0006792529 0.01377574 -0.0137116 0.011305477 -0.0027579432 -0.010816788 -0.013259784 -0.009674517
-0.012370727 0.0075080814 0.011881678 -0.013830212 0.013234917 0.011663885 -0.004130718 -0.010634272
-0.00055205484 0.012169516 -0.011771127 0.010200874 -0.012886931 -0.010892028 -0.009157516 -0.0025940563
-0.012734713 -0.008437046 0.011483479 -0.008617006 0.01301905 -0.011099983 0.013038244 -0.008911084
0.005083345 -0.009965 -0.010882231 -0.011174469 -0.012766345 0.0038590701 0.0097015025 -0.012940834
-0.0076300814 -0.00918076 -0.012456351 0.01052815 0.013815842 -0.009926647 0.0076270993 0.008631826
-0.012933748 -0.012671121 0.0074690557 0.011238987 0.010051527 -0.011709902 -0.0054393546 0.007852721
0.0018221148 -0.010863311 0.009474383 0.010819307 0.0078904 -0.012616208 -0.011886394 -0.0132603245
0.011828061 -0.010090467 0.009430871 -0.011392973 0.004393442 0.010753896 0.007132049 -0.011858009
0.007603235 0.014058665 -0.00650626 -0.010388484 0.006831426 -0.011304221 0.0126016885 -0.014422983

std.constant18 f4 [128]
00000000: 85ee e03c b04e b9bb 2b76 363c b067 de3b
00000010: e3a5 d23c cb60 963b c0d3 8f3b 16a4 d6ba
00000020: 8487 8c3c ccf2 8cba 23bf 763c 356e ec3c
00000030: 98b7 b93c ad26 823b d930 453c dabd 223d
00000040: 25c4 333c 7831 f83b 55c6 a53c 5ea3 213d
00000050: 57f3 44bb cfe3 ea3b ff7e a9bb 8e63 433b
00000060: bee3 133c ff5d 913c e19b 9f3c dfa3 c83b
00000070: 85a0 b73c f783 163d 06e3 b93c d460 b2bb
00000080: 54cd 553c 8d22 153c b406 f93c 0607 84bc
00000090: 8af9 9d3c 7847 163c 9cd3 a53c 63cf 1b3b
000000a0: b940 8c3c a1ad dd3c 8d3f 953c d55a b43b
000000b0: d906 2b3c a850 803a b045 3ebc f806 a43c
000000c0: 8d79 293d 86f1 333c 6d3e 0c3c a36a 033c
000000d0: dd94 3ebb add7 273c 3855 e23b ae35 d5bb
000000e0: b029 4d3c 7cd5 823c 8f52 483c 5e2c 553c
000000f0: ef87 6f3b 62b6 9e3c 357b 9d3c bae6 d0ba
00000100: 017f f43c 0cfe f43b c3db e1bb b32b f0bb
00000110: 1022 8b3c 6344 7e3c 4cf1 223d a64c 603d
00000120: 4e3b 143c ad3e 933c 8ee3 693c 44db ba3c
00000130: bab6 cf3c 452c 643c c5bf da3c 0829 893c
00000140: 6edc 15bc 1d83 90bc 8269 663c 2608 803c
00000150: e65d 003c 28c2 99bb a481 9f3b b2fb 493c
00000160: 9021 1b3a 55a6 c2bb 172d b7ba 2e75 563c
00000170: 3c76 c63c 635f af3b 5547 cebb d900 8cbb
00000180: 2c06 efba bad2 c33b 3b8b 963c a9b8 613c
00000190: 753a 533c c620 70bb d56d 3e3d b64c b0bb
000001a0: cabf 523d 9992 cb3c eff5 843c 6104 853c
000001b0: a880 c23c 00bf 453c cf6d d23c 102e 29bb
000001c0: efc8 6a3c 85f6 433c fe35 c33c f53a 693c
000001d0: c480 5d3c 08a8 a33a a230 613c 58f8 ee3b
000001e0: 081c 16bb 8065 9a3c b910 243c a8d3 a1bb
000001f0: d3cc bf3c c1ec 1abc b576 c43c 03eb 7a3c
0.027457485 -0.0056551322 0.011136572 0.006787263 0.025713867 0.0045891753 0.0043892562 -0.0016375806
0.017154463 -0.0010753511 0.015060219 0.028861145 0.022670552 0.0039718957 0.012035572 0.039731838
0.0109720575 0.0075742565 0.020236174 0.03946244 -0.0030052268 0.00716827 -0.00517261 0.0029813978
0.009026466 0.017745016 0.019483509 0.0061230506 0.022415409 0.036746945 0.022691261 -0.0054436717
0.013049442 0.009102476 0.030398704 -0.01611663 0.019284029 0.009172313 0.020242505 0.0023774735
0.017120706 0.027060332 0.01821878 0.005503992 0.010438644 0.0009789662 -0.0116132945 0.020022854
0.041375685 0.010982877 0.008559805 0.00802103 -0.0029080429 0.010244292 0.0069071315 -0.0065066433
0.012522146 0.015970938 0.012226715 0.013011066 0.0036549529 0.019374076 0.019223789 -0.0015937902
0.029845716 0.007476574 -0.0068926527 -0.007329428 0.016984016 0.015519234 0.0397809 0.054760598
0.009047342 0.017974222 0.014275445 0.022809632 0.025355686 0.01392657 0.026702771 0.016743198
-0.009146793 -0.017640645 0.014063241 0.015628885 0.007834887 -0.0046923347 0.0048677493 0.012328075
0.0005917782 -0.0059402385 -0.001397523 0.013089461 0.0242263 0.005351947 -0.0062951245 -0.004272562
-0.0018236092 0.0059760483 0.018376937 0.013776937 0.012892355 -0.0036640628 0.046491463 -0.0053802384
0.051452436 0.024850177 0.016230552 0.01623744 0.023742989 0.012069464 0.025687126 -0.002581481
0.014330133 0.01196063 0.023829456 0.014235248 0.01351947 0.001248599 0.013744505 0.0072927885
-0.0022904892 0.018847227 0.010013753 -0.0049385615 0.023413097 -0.009455861 0.023982385 0.01531482

std.constant19 i1 [128, 64] scale=0.0024425841 zero_point=0
00000000: ec01 fcda ebda 0c04 f816 cfd9 071c 01dc
00000010: 12dd d630 dbd5 d4f8 2fe3 08d4 c8fe 0bce
00000020: 07e6 fb3b f0f9 1cc7 f9dc 1ccf 140f 0320
00000030: e50d e711 f804 1318 d209 ced9 322b 1727
00000040: 1913 06d7 f7e9 12fd 12d4 daf1 e4ef 08eb
00000050: e810 0f30 11fa 1906 1208 f8e5 df02 f114
00000060: f9dc 2d0f 0de9 d522 0630 0220 1b0e ebe5
00000070: ff08 dafd fde8 f126 f013 fd11 e1d1 04e0
00000080: 2dd9 d90f 1641 fbed f213 dfe9 fcf9 f8fa
00000090: 0a12 0ce6 f7ea 082a dbf7 061c f8da cfd9
000000a0: f4fc d7e2 fbf7 1437 be17 0737 e0f3 03f5
000000b0: 2af6 1330 f70a 1319 01fb dfef d916 0fe9
000000c0: 0622 0bf9 f913 f9df efdb 1828 0c1e cde9
000000d0: f2d6 23d7 2611 f5f0 2dcf 0524 e517 08f2
000000e0: fde9 0612 f30b f216 1c02 0d20 e5f2 e6d0
000000f0: 0af3 e0e4 f408 f602 0714 fff2 14e3 1408
-0.048851684 0.0024425841 -0.009770337 -0.0928182 -0.051294267 -0.0928182 0.029311009 0.009770337
-0.019540673 0.05373685 -0.119686626 -0.095260784 0.01709809 0.06839236 0.0024425841 -0.087933026
0.043966513 -0.08549044 -0.102588534 0.117244035 -0.09037561 -0.10503112 -0.1074737 -0.019540673
0.11480145 -0.07083494 0.019540673 -0.1074737 -0.13678472 -0.0048851683 0.026868425 -0.12212921
0.01709809 -0.063507184 -0.012212921 0.14411247 -0.039081346 -0.01709809 0.06839236 -0.1392273
-0.01709809 -0.087933026 0.06839236 -0.119686626 0.048851684 0.036638763 0.007327752 0.07816269
-0.065949775 0.031753592 -0.061064605 0.04152393 -0.019540673 0.009770337 0.0464091 0.058622018
-0.11235887 0.021983257 -0.12212921 -0.095260784 0.12212921 0.10503112 0.056179434 0.095260784
0.061064605 0.0464091 0.014655504 -0.10014595 -0.021983257 -0.056179434 0.043966513 -0.007327752
0.043966513 -0.1074737 -0.0928182 -0.036638763 -0.06839236 -0.04152393 0.019540673 -0.051294267
-0.058622018 0.039081346 0.036638763 0.117244035 0.04152393 -0.014655504 0.061064605 0.014655504
0.043966513 0.019540673 -0.019540673 -0.065949775 -0.080605276 0.0048851683 -0.036638763 0.048851684
-0.01709809 -0.087933026 0.109916285 0.036638763 0.031753592 -0.056179434 -0.10503112 0.08304786
0.014655504 0.117244035 0.0048851683 0.07816269 0.065949775 0.03419618 -0.051294267 -0.065949775
-0.0024425841 0.019540673 -0.0928182 -0.007327752 -0.007327752 -0.058622018 -0.036638763 0.0928182
-0.039081346 0.0464091 -0.007327752 0.04152393 -0.07572011 -0.11480145 0.009770337 -0.07816269
0.109916285 -0.095260784 -0.095260784 0.036638763 0.05373685 0.15876797 -0.012212921 -0.0464091
-0.03419618 0.0464091 -0.080605276 -0.056179434 -0.009770337 -0.01709809 -0.019540673 -0.014655504
0.024425842 0.043966513 0.029311009 -0.063507184 -0.021983257 -0.05373685 0.019540673 0.102588534
-0.09037561 -0.021983257 0.014655504 0.06839236 -0.019540673 -0.0928182 -0.119686626 -0.095260784
-0.029311009 -0.009770337 -0.10014595 -0.073277526 -0.012212921 -0.021983257 0.048851684 0.13434213
-0.16121055 0.056179434 0.01709809 0.13434213 -0.07816269 -0.031753592 0.007327752 -0.026868425
0.102588534 -0.024425842 0.0464091 0.117244035 -0.021983257 0.024425842 0.0464091 0.061064605
0.0024425841 -0.012212921 -0.080605276 -0.04152393 -0.095260784 0.05373685 0.036638763 -0.056179434
0.014655504 0.08304786 0.026868425 -0.01709809 -0.01709809 0.0464091 -0.01709809 -0.080605276
-0.04152393 -0.09037561 0.058622018 0.09770337 0.029311009 0.073277526 -0.12457179 -0.056179434
-0.03419618 -0.102588534 0.08549044 -0.10014595 0.0928182 0.04152393 -0.026868425 -0.039081346
0.109916285 -0.119686626 0.012212921 0.087933026 -0.065949775 0.056179434 0.019540673 -0.03419618
-0.007327752 -0.056179434 0.014655504 0.043966513 -0.031753592 0.026868425 -0.03419618 0.05373685
0.06839236 0.0048851683 0.031753592 0.07816269 -0.065949775 -0.03419618 -0.063507184 -0.117244035
0.024425842 -0.031753592 -0.07816269 -0.06839236 -0.029311009 0.019540673 -0.024425842 0.0048851683
0.01709809 0.048851684 -0.0024425841 -0.03419618 0.048851684 -0.07083494 0.048851684 0.019540673

std.constant20 i1 [128, 64] scale=0.0017458716 zero_point=0
00000000: 3826 1aea 4327 0a2c 581f 2b47 2339 1303
00000010: dc44 29ae 49ee ebfc f82b 201f fd3a f2fe
00000020: e230 11c3 f9ce d12f f81e 4158 1cea 330b
00000030: 2512 110f 11da 1c1e 391b f3f2 e91e 06bb
00000040: ff0a f5e5 31d5 f80d 2629 2d08 0bec e02c
00000050: 38ff 2b28 b336 cae4 e4ff d402 20fa 27f3
00000060: d2e1 ea2f 061e f8d2 2817 25c9 31e2 c20d
00000070: fbf3 e1cd 0427 2314 0ed1 1331 c01f e10c
00000080: f241 3515 c9da c439 efe8 f03f e616 e4cb
00000090: 1ed3 dd1d 0bbe f7de 083a ea10 db03 c702
000000a0: 13e0 31f5 ebd5 1ce3 e148 1cc4 f9e6 f407
000000b0: 25ff 1af2 c439 0529 1330 f909 ddd1 1519
000000c0: 33e6 f731 1f2c 1b38 2ee1 db32 1c30 d1e1
000000d0: 24d4 e0f9 12f2 1640 19eb 2def f60d d20e
000000e0: 1022 1f20 2feb 150e 1031 232e 3b1e 1542
000000f0: 0626 d0d3 3ef4 39fc f7e6 1407 10d7 140a
0.09776881 0.06634312 0.045392662 -0.038409177 0.1169734 0.06808899 0.017458716 0.076818354
0.15363671 0.05412202 0.07507248 0.12395688 0.06110551 0.099514686 0.03317156 0.0052376147
-0.06285138 0.11871927 0.07158074 -0.14316148 0.12744863 -0.03142569 -0.036663305 -0.0069834865
-0.013966973 0.07507248 0.05586789 0.05412202 -0.0052376147 0.10126055 -0.024442203 -0.0034917432
-0.052376147 0.083801836 0.029679818 -0.10649817 -0.012221102 -0.08729358 -0.08205596 0.08205596
-0.013966973 0.052376147 0.113481656 0.15363671 0.048884407 -0.038409177 0.08903945 0.019204589
0.06459725 0.03142569 0.029679818 0.026188074 0.029679818 -0.06634312 0.048884407 0.052376147
0.099514686 0.047138534 -0.022696331 -0.024442203 -0.040155046 0.052376147 0.0104752295 -0.120465145
-0.0017458716 0.017458716 -0.019204589 -0.047138534 0.08554771 -0.07507248 -0.013966973 0.022696331
0.06634312 0.07158074 0.07856422 0.013966973 0.019204589 -0.034917433 -0.05586789 0.076818354
0.09776881 -0.0017458716 0.07507248 0.069834866 -0.1344321 0.09427707 -0.09427707 -0.048884407
-0.048884407 -0.0017458716 -0.076818354 0.0034917432 0.05586789 -0.0104752295 0.06808899 -0.022696331
-0.08031009 -0.05412202 -0.038409177 0.08205596 0.0104752295 0.052376147 -0.013966973 -0.08031009
0.069834866 0.040155046 0.06459725 -0.09602294 0.08554771 -0.052376147 -0.10824404 0.022696331
-0.008729358 -0.022696331 -0.05412202 -0.08903945 0.0069834865 0.06808899 0.06110551 0.034917433
0.024442203 -0.08205596 0.03317156 0.08554771 -0.11173578 0.05412202 -0.05412202 0.020950459
-0.024442203 0.113481656 0.0925312 0.036663305 -0.09602294 -0.06634312 -0.104752295 0.099514686
-0.029679818 -0.041900918 -0.027933946 0.10998991 -0.045392662 0.038409177 -0.048884407 -0.0925312
0.052376147 -0.07856422 -0.06110551 0.050630275 0.019204589 -0.11522753 -0.015712844 -0.059359636
0.013966973 0.10126055 -0.038409177 0.027933946 -0.06459725 0.0052376147 -0.099514686 0.0034917432
0.03317156 -0.05586789 0.08554771 -0.019204589 -0.036663305 -0.07507248 0.048884407 -0.050630275
-0.05412202 0.12570275 0.048884407 -0.104752295 -0.012221102 -0.045392662 -0.020950459 0.012221102
0.06459725 -0.0017458716 0.045392662 -0.024442203 -0.104752295 0.099514686 0.008729358 0.07158074
0.03317156 0.083801836 -0.012221102 0.015712844 -0.06110551 -0.08205596 0.036663305 0.04364679
0.08903945 -0.045392662 -0.015712844 0.08554771 0.05412202 0.076818354 0.047138534 0.09776881
0.08031009 -0.05412202 -0.06459725 0.08729358 0.048884407 0.083801836 -0.08205596 -0.05412202
0.06285138 -0.076818354 -0.05586789 -0.012221102 0.03142569 -0.024442203 0.038409177 0.11173578
0.04364679 -0.036663305 0.07856422 -0.029679818 -0.017458716 0.022696331 -0.08031009 0.024442203
0.027933946 0.059359636 0.05412202 0.05586789 0.08205596 -0.036663305 0.036663305 0.024442203
0.027933946 0.08554771 0.06110551 0.08031009 0.10300642 0.052376147 0.036663305 0.11522753
0.0104752295 0.06634312 -0.083801836 -0.07856422 0.10824404 -0.020950459 0.099514686 -0.0069834865
-0.015712844 -0.045392662 0.034917433 0.012221102 0.027933946 -0.07158074 0.034917433 0.017458716

std.constant21 i1 [128, 64] scale=0.0017039021 zero_point=0
00000000: 32e8 e103 2ce9 f904 02ec c6c2 0c2c bf15
00000010: f72d 2319 270e 3328 bbdf 2dd2 eac6 e50c
00000020: 15e4 13f8 0cda 1bc3 dfd5 cde8 4927 1e01
00000030: fa22 e015 35f2 1bfc cfe5 34e4 1744 f629
00000040: 29f5 f315 18df 2506 b82b f9dd 1806 22bb
00000050: 2c2d 3100 24e8 e631 f518 042e fd25 c50c
00000060: bd1a 2326 34c1 e5ba c624 e2e5 20f2 18d2
00000070: 3fbf f6cd d7fe f300 be07 3018 0fee 11ce
00000080: 35dd 1fc9 c32e e1d1 d70a d4aa f525 2af5
00000090: d8e8 4f04 05e8 e4fe e30f e9fe 39b3 15cb
000000a0: faf8 1a28 e4e9 c5f0 340a bde8 0414 2bcf
000000b0: fcc8 0cc9 23d5 1727 e2c4 eb2e e4e1 d411
000000c0: e13b 001a 0a1e 22cd 2414 f52e e318 eecd
000000d0: 340a 40df 16f5 f912 43f3 dd15 de11 e232
000000e0: 2adb f214 e936 faf4 3a04 fe30 1eed 2ff8
000000f0: 4120 2139 0fe9 de2f 3422 07e6 cb31 dfed
0.08519511 -0.04089365 -0.052820966 0.0051117064 0.07497169 -0.03918975 -0.011927315 0.0068156086
0.0034078043 -0.034078043 -0.09882633 -0.10564193 0.020446826 0.07497169 -0.11075364 0.035781946
-0.015335119 0.076675594 0.059636574 0.042597555 0.06645218 0.02385463 0.08689901 0.068156086
-0.117569245 -0.05622877 0.076675594 -0.0783795 -0.037485845 -0.09882633 -0.046005357 0.020446826
0.035781946 -0.04770926 0.03237414 -0.013631217 0.020446826 -0.06474828 0.046005357 -0.10393803
-0.05622877 -0.073267795 -0.08689901 -0.04089365 0.12438486 0.06645218 0.051117063 0.0017039021
-0.010223413 0.057932675 -0.05452487 0.035781946 0.09030681 -0.02385463 0.046005357 -0.0068156086
-0.083491206 -0.046005357 0.088602915 -0.04770926 0.03918975 0.11586535 -0.017039021 0.06985999
0.06985999 -0.018742923 -0.022150729 0.035781946 0.04089365 -0.05622877 0.06304438 0.010223413
-0.122680955 0.073267795 -0.011927315 -0.059636574 0.04089365 0.010223413 0.057932675 -0.117569245
0.07497169 0.076675594 0.083491206 0.0 0.061340477 -0.04089365 -0.044301458 0.083491206
-0.018742923 0.04089365 0.0068156086 0.0783795 -0.0051117064 0.06304438 -0.10053023 0.020446826
-0.11416145 0.044301458 0.059636574 0.06474828 0.088602915 -0.107345834 -0.046005357 -0.11927315
-0.09882633 0.061340477 -0.051117063 -0.046005357 0.05452487 -0.02385463 0.04089365 -0.0783795
0.107345834 -0.11075364 -0.017039021 -0.08689901 -0.06985999 -0.0034078043 -0.022150729 0.0
-0.11245754 0.011927315 0.0817873 0.04089365 0.025558531 -0.030670239 0.028966337 -0.08519511
0.09030681 -0.059636574 0.052820966 -0.09371462 -0.10393803 0.0783795 -0.052820966 -0.0800834
-0.06985999 0.017039021 -0.07497169 -0.14653559 -0.018742923 0.06304438 0.07156389 -0.018742923
-0.068156086 -0.04089365 0.13460827 0.0068156086 0.008519511 -0.04089365 -0.04770926 -0.0034078043
-0.049413163 0.025558531 -0.03918975 -0.0034078043 0.09712242 -0.13120046 0.035781946 -0.09030681
-0.010223413 -0.013631217 0.044301458 0.068156086 -0.04770926 -0.03918975 -0.10053023 -0.027262434
0.088602915 0.017039021 -0.11416145 -0.04089365 0.0068156086 0.034078043 0.073267795 -0.083491206
-0.0068156086 -0.09541852 0.020446826 -0.09371462 0.059636574 -0.073267795 0.03918975 0.06645218
-0.051117063 -0.102234125 -0.035781946 0.0783795 -0.04770926 -0.052820966 -0.07497169 0.028966337
-0.052820966 0.10053023 0.0 0.044301458 0.017039021 0.051117063 0.057932675 -0.08689901
0.061340477 0.034078043 -0.018742923 0.0783795 -0.049413163 0.04089365 -0.030670239 -0.08689901
0.088602915 0.017039021 0.10904974 -0.05622877 0.037485845 -0.018742923 -0.011927315 0.030670239
0.11416145 -0.022150729 -0.059636574 0.035781946 -0.057932675 0.028966337 -0.051117063 0.08519511
0.07156389 -0.06304438 -0.02385463 0.034078043 -0.03918975 0.092010714 -0.010223413 -0.020446826
0.09882633 0.0068156086 -0.0034078043 0.0817873 0.051117063 -0.03237414 0.0800834 -0.013631217
0.11075364 0.05452487 0.05622877 0.09712242 0.025558531 -0.03918975 -0.057932675 0.0800834
0.088602915 0.057932675 0.011927315 -0.044301458 -0.09030681 0.083491206 -0.05622877 -0.03237414

std.constant22 i1 [128, 64] scale=0.0019278126 zero_point=0
00000000: 30fb ef12 e321 1f0a 3106 de3f 2911 16d7
00000010: e119 15ef f41c cacf 2d21 011f 2821 0304
00000020: fa05 15df 1502 d318 c674 4c1d ccd1 d2fd
00000030: 1cd8 3316 fefd dff7 07cd ede9 32c3 fd15
00000040: 280d 28d8 d417 f9da 1316 cf25 ce22 0a02
00000050: 0eec f233 f230 d7de 11d0 e0f5 d0fc fdfc
00000060: ec10 542d e50b 0a17 ce23 3814 d61a cb34
00000070: 212a e7d0 cf19 e809 3208 2301 e500 1f26
00000080: 2566 1717 defd 31f5 e225 e8df 2a1f 0cfc
00000090: 04ff 08f9 2117 f4ef e3dc 28f8 e8ce d5dd
000000a0: 0ed0 efd1 1cd5 d432 0105 2729 c9cf eded
000000b0: f125 fa36 4ad8 eb3f fbfb ed31 f0d7 ef0e
000000c0: d4ce 1024 da2b edd4 f3d3 2ca8 1122 14c6
000000d0: 05e2 02e8 01c9 e703 1c1b 0f22 4137 dec9
000000e0: dcd0 ea3d 351e e4f9 e3ce c7cf 03f4 2fe5
000000f0: ade3 0cde 38ec 17db d119 02df cdd5 1adf
0.092535004 -0.009639063 -0.032772813 0.034700625 -0.055906564 0.06361782 0.05976219 0.019278126
0.09446282 0.0115668755 -0.065545626 0.12145219 0.07904032 0.032772813 0.04241188 -0.07904032
-0.05976219 0.048195314 0.040484063 -0.032772813 -0.023133751 0.053978752 -0.10410188 -0.09446282
0.086751565 0.06361782 0.0019278126 0.05976219 0.0771125 0.06361782 0.0057834378 0.0077112503
-0.0115668755 0.009639063 0.040484063 -0.06361782 0.040484063 0.0038556252 -0.086751565 0.046267502
-0.11181313 0.22362626 0.14651376 0.055906564 -0.10024625 -0.09060719 -0.08867938 -0.0057834378
0.053978752 -0.0771125 0.09831844 0.04241188 -0.0038556252 -0.0057834378 -0.06361782 -0.017350312
0.013494688 -0.09831844 -0.03662844 -0.04433969 0.09639063 -0.11759657 -0.0057834378 0.040484063
0.0771125 0.025061563 0.0771125 -0.0771125 -0.08482376 0.04433969 -0.013494688 -0.07325688
0.03662844 0.04241188 -0.09446282 0.071329065 -0.09639063 0.065545626 0.019278126 0.0038556252
0.026989376 -0.03855625 -0.026989376 0.09831844 -0.026989376 0.092535004 -0.07904032 -0.065545626
0.032772813 -0.092535004 -0.061690003 -0.02120594 -0.092535004 -0.0077112503 -0.0057834378 -0.0077112503
-0.03855625 0.030845001 0.16193625 0.086751565 -0.05205094 0.02120594 0.019278126 0.04433969
-0.09639063 0.06747344 0.107957505 0.03855625 -0.08096813 0.050123125 -0.102174066 0.10024625
0.06361782 0.08096813 -0.048195314 -0.092535004 -0.09446282 0.048195314 -0.046267502 0.017350312
0.09639063 0.015422501 0.06747344 0.0019278126 -0.05205094 0.0 0.05976219 0.07325688
0.071329065 0.19663689 0.04433969 0.04433969 -0.065545626 -0.0057834378 0.09446282 -0.02120594
-0.05783438 0.071329065 -0.046267502 -0.06361782 0.08096813 0.05976219 0.023133751 -0.0077112503
0.0077112503 -0.0019278126 0.015422501 -0.013494688 0.06361782 0.04433969 -0.023133751 -0.032772813
-0.055906564 -0.06940125 0.0771125 -0.015422501 -0.046267502 -0.09639063 -0.08289594 -0.06747344
0.026989376 -0.092535004 -0.032772813 -0.09060719 0.053978752 -0.08289594 -0.08482376 0.09639063
0.0019278126 0.009639063 0.07518469 0.07904032 -0.10602969 -0.09446282 -0.03662844 -0.03662844
-0.02891719 0.071329065 -0.0115668755 0.10410188 0.14265813 -0.0771125 -0.040484063 0.12145219
-0.009639063 -0.009639063 -0.03662844 0.09446282 -0.030845001 -0.07904032 -0.032772813 0.026989376
-0.08482376 -0.09639063 0.030845001 0.06940125 -0.07325688 0.08289594 -0.03662844 -0.08482376
-0.025061563 -0.086751565 0.08482376 -0.16964751 0.032772813 0.065545626 0.03855625 -0.11181313
0.009639063 -0.05783438 0.0038556252 -0.046267502 0.0019278126 -0.10602969 -0.048195314 0.0057834378
0.053978752 0.05205094 0.02891719 0.065545626 0.12530781 0.10602969 -0.065545626 -0.10602969
-0.06940125 -0.092535004 -0.04241188 0.11759657 0.102174066 0.05783438 -0.053978752 -0.013494688
-0.055906564 -0.09639063 -0.10988532 -0.09446282 0.0057834378 -0.023133751 0.09060719 -0.05205094
-0.16000845 -0.055906564 0.023133751 -0.065545626 0.107957505 -0.03855625 0.04433969 -0.071329065
-0.09060719 0.048195314 0.0038556252 -0.06361782 -0.09831844 -0.08289594 0.050123125 -0.06361782
