Android/application/app/src/main/assets/OCR/OCR_model.tflite (tflite, 493872 bytes, 24 tensors)

LSTM2/forward_lstm_1/lstm_cell_4/bias f4 [256]
000000 5e e5 6d 3c df 09 70 3d f7 2f 5b 3c 57 ca 55 3c
       0.014520017 0.058603164 0.013378135 0.01304873
000010 5a 6b 6f 3c 54 3e 23 3b e0 1e 9b 3c 46 a1 14 3c
       0.014612997 0.0024908977 0.01893562 0.009071654
000020 9b 25 80 3c e9 99 0c 3d 77 9d 98 3c 21 89 90 3c
       0.015642932 0.034326468 0.018629773 0.017643513
000030 d0 a8 79 3c a5 1d 9b 3c d8 84 50 3c 99 7b 63 3c
       0.015238002 0.018935034 0.012726985 0.013884448
000040 c9 f2 ce 3c bd a6 4c 3c e8 6b c5 3c af 82 b5 3c
       0.025262253 0.012490925 0.024099305 0.022157041
000050 21 55 8f 3c ff 12 98 3c b8 b9 99 3c 9c 37 61 3c
       0.017496647 0.018563746 0.018765315 0.013746168
000060 87 18 97 3d 2e 7e 9a 3c 95 47 0c 3d df a3 af 3c
       0.07377725 0.018858995 0.034247953 0.021440445
000070 02 f7 bd 3c 86 4a e8 3c 6f d7 c4 3c 7e a5 86 3c
       0.023189072 0.028355848 0.024028508 0.016436335
000080 e4 3e a8 3c df 0f 6b 3c 23 cd 57 3c fd dd de 3c
       0.020537801 0.014347046 0.013171467 0.027205462
000090 c1 89 90 3c 87 8a 54 3c 39 e5 21 3d 67 d9 15 3c
       0.017643811 0.012972481 0.039525244 0.009146071
0000a0 bd f9 6e 3c 28 c3 6c 3c 61 f6 9d 3c a8 c7 87 3c
       0.014585909 0.014450826 0.019282522 0.016574696
0000b0 55 28 bb 3c 8e d7 25 3c c4 bd e4 3c 5b cc 25 3d
       0.02284638 0.010122193 0.027922519 0.04047809
0000c0 af 87 58 3c 32 13 e1 3c c2 bb fb bb c7 7f 1e 3d
       0.013215943 0.027474973 -0.0076822946 0.038696077
0000d0 e1 1e 1c 3d 23 7a df ba ba d2 76 3c bb 44 a2 3c
       0.038115386 -0.0017049949 0.01506489 0.019808164
0000e0 f0 e5 9a 3c 10 c9 d1 3c f8 57 ed 3c 7d 56 86 3c
       0.01890847 0.02560857 0.02897261 0.016398663
0000f0 e7 7f 83 3c 76 7e 02 3c 5c 7d ac 3c c9 46 60 3c
       0.0160522 0.007964721 0.02105587 0.0136887515
000100 a5 e8 7d 3f 71 1b 83 3f d2 3f 81 3f ae 74 81 3f
       0.9918311 1.024275 1.0097601 1.0113733
000110 fd 0f 80 3f 8a c7 7d 3f 22 e1 81 3f d1 19 81 3f
       1.0004879 0.991326 1.014683 1.0086004
000120 e1 ea 7f 3f 73 99 81 3f 8b e8 7d 3f 63 66 80 3f
       0.9996777 1.0124954 0.9918296 1.0031246
000130 57 5f 82 3f 3a d8 81 3f 16 40 81 3f 4d 9a 81 3f
       1.0185345 1.0144112 1.0097682 1.0125214
000140 19 ed 81 3f 9f 83 81 3f ef 28 82 3f 93 d3 81 3f
       1.0150481 1.0118293 1.0168742 1.0142692
000150 73 f9 81 3f eb b6 81 3f 09 9f 81 3f 0d d9 7d 3f
       1.0154251 1.0133947 1.0126659 0.9915932
000160 1a 90 7b 3f 90 ba 81 3f 83 0e 7a 3f b7 ed 7f 3f
       0.98266757 1.0135059 0.97678393 0.999721
000170 82 98 81 3f f5 23 81 3f 91 69 82 3f ca d7 81 3f
       1.0124667 1.0089098 1.0188466 1.0143979
000180 1d e2 81 3f 9b 84 81 3f 6a c9 80 3f 09 d7 7a 3f
       1.0147129 1.0118593 1.0061467 0.9798437
000190 c9 46 81 3f 88 2b 81 3f 96 9b 80 3f 2f d8 80 3f
       1.0099727 1.009141 1.0047481 1.0065974
0001a0 b7 da 81 3f 52 ad 81 3f 01 dc 81 3f fe 93 81 3f
       1.0144871 1.0131018 1.0145265 1.0123289
0001b0 1d 77 81 3f fb 31 81 3f 66 42 80 3f 29 75 7d 3f
       1.0114475 1.0093378 1.0020263 0.990069
0001c0 ba e4 80 3f 57 e9 81 3f 53 44 7e 3f 82 a1 80 3f
       1.0069802 1.0149335 0.99323004 1.0049288
0001d0 cb 3a 81 3f 84 c9 7b 3f 25 73 81 3f 6d 02 82 3f
       1.0096067 0.98354363 1.0113264 1.015699
0001e0 17 57 80 3f 07 5b 7c 3f 93 c4 7c 3f d4 e7 81 3f
       1.0026578 0.98576397 0.9873745 1.0148873
0001f0 54 14 7d 3f a5 40 7f 3f 1f ee 81 3f a9 c4 80 3f
       0.98859143 0.99708015 1.0150794 1.0060016
000200 d9 65 94 3b 7f da e4 3c 0a be fd 3b 23 90 2c 3c
       0.0045287427 0.027936218 0.0077436017 0.010532412
000210 1f 25 88 bc cc 1b 76 3c 92 c4 84 3c 4c a6 77 3c
       -0.016619263 0.015021276 0.016207013 0.015115332
000220 1a 6f a1 3c d3 54 9d 3c c8 fb 4b 3c 9d f9 e5 3b
       0.019706298 0.019205486 0.012450166 0.0070182816
000230 8a 41 68 bc 1b 2b 6e 3c fe 1a 6f bc 1c f7 67 bc
       -0.014175782 0.014536644 -0.014593838 -0.014158037
000240 b9 2e 87 bc b3 f5 86 bc ad 4d 96 3c e4 71 3b 3c
       -0.016501771 -0.01647458 0.018347586 0.011440728
000250 7e 3c 75 3c 57 4f 52 3c d7 f5 6f bc 1e fe 8e bc
       0.014968036 0.012836299 -0.014646015 -0.017455157
000260 d0 4b a3 39 05 34 8e bc f5 de d3 bb 17 a6 51 3c
       0.00031146267 -0.01735879 -0.0064657875 0.012795947
000270 57 82 65 bc cf cb 12 bc cf 37 af 3c 07 f6 92 bc
       -0.014008126 -0.008959725 0.021388916 -0.01793958
000280 21 a0 8a bc 8a fc 80 bc 9a 5c 95 3c 48 82 bb bc
       -0.016922059 -0.01574542 0.018232632 -0.022889271
000290 7c 42 77 3c 36 a0 6f bc f4 f6 88 3c db 32 92 3c
       0.015091535 -0.0146256 0.016719319 0.017846515
0002a0 ea be 02 3c b8 6d 79 bc 64 fb 85 bc 6e 1e 63 3c
       0.007980088 -0.015223913 -0.016355224 0.0138622355
0002b0 79 87 90 bc 7f 04 23 bc 87 9d 50 3c 02 40 f4 3b
       -0.017642723 -0.009949802 0.01273287 0.0074539194
0002c0 ff 98 8a bc 8c 9d 9e bc 84 c8 88 3c 9b d7 ab 3c
       -0.016918657 -0.019362234 0.016697176 0.020976832
0002d0 c1 e5 db 3c 9a f7 84 bb 57 b8 23 3c 69 c7 7e 3c
       0.026842954 -0.0040578367 0.0099926805 0.015550473
0002e0 9d 6a 88 3c 67 d8 bc bc 63 01 1b bc 71 67 8a bc
       0.0166524 -0.023052407 -0.00946078 -0.016895028
0002f0 2e 8e 53 bc c3 11 98 bc fa 7d 78 3c 34 9b 95 3c
       -0.012912316 -0.018563157 0.015166754 0.018262483
000300 25 b8 b4 3c 59 1c a4 3d da 0d 46 3c 09 ae 67 3c
       0.022060463 0.080132194 0.012088263 0.014140614
000310 c5 68 d0 3c 46 b5 2c 3c 88 24 a0 3c b9 9f 9b 3c
       0.025440583 0.010541266 0.01954867 0.01899706
000320 c6 54 16 bc c6 cd 03 3d 81 c6 8b 3c e9 18 ea 3c
       -0.009175485 0.032178663 0.017062427 0.028576331
000330 3c 23 8f 3c 78 05 e7 3c 0b 14 3e 3c eb de 5c 3c
       0.017472856 0.02820085 0.011601458 0.013480882
000340 59 bb f4 3c 41 de 68 3c 40 8c be 3c d8 f8 a7 3c
       0.02987449 0.014213146 0.023260236 0.0205044
000350 55 b6 95 3c b2 c4 a5 3c 29 33 87 3c 1e d2 8b 3c
       0.01827542 0.020235393 0.016503887 0.017067965
000360 8f d9 be 3d 82 e3 ca 3c 9e 7b 8a 3d 09 b9 2f 3d
       0.0931884 0.024766687 0.06761859 0.042901073
000370 da 8c cc 3c ec 64 86 3d e4 cb fb 3c df 2d e4 3c
       0.024969507 0.06562218 0.030736871 0.027853904
000380 71 c8 9f 3c 27 e8 1a 3c 72 e8 92 3c 29 12 c5 3c
       0.019504758 0.0094547635 0.017933104 0.024056511
000390 2c 15 9c 3c 4c 42 81 3c 47 e9 51 3d 8d de 69 3c
       0.019053064 0.015778683 0.05124786 0.014274252
0003a0 cb 71 47 3c 40 86 b0 3c 5c 32 e2 3c 60 0f ac 3c
       0.012173126 0.02154839 0.027611904 0.021003425
0003b0 54 63 ed 3c 68 d6 82 3c e2 04 6a 3d 41 f9 2d 3d
       0.028978027 0.015971377 0.057133563 0.042474035
0003c0 8d 14 29 3c 9d 7e 31 3c a6 dd 08 bc be 1c 22 3d
       0.010319841 0.01083341 -0.008353626 0.039578192
0003d0 2c d7 7e 3d e2 99 dd 3c 03 67 b5 3c 10 cf 8e 3c
       0.062216923 0.027050916 0.022143846 0.01743272
0003e0 32 bc 00 3d 84 d4 1b 3d 5d 2b c2 bb b0 ce b7 3c
       0.031429477 0.038044468 -0.0059255795 0.022437423
0003f0 2f d8 e4 3c f7 5e d0 3c 73 a0 97 3c 07 06 8a 3c
       0.027935116 0.025435908 0.018509125 0.016848577

LSTM2/backward_lstm_1/lstm_cell_5/bias f4 [256]
000000 e9 9d 33 3c b5 af 4a 3d 2f 89 1e 3d b1 02 93 3c
       0.010962942 0.049483974 0.038705047 0.01794562
000010 64 37 35 3c b9 8f 37 3c e0 22 9c 3c 2c 51 c1 3c
       0.011060569 0.0112037 0.019059598 0.023598276
000020 00 7f 88 3c e4 51 16 3c fe 98 8c 3c 8a ec 8d 3c
       0.01666212 0.009174798 0.017162796 0.017324705
000030 4a d6 02 bc 52 e3 62 3c be 16 1c 3d b9 b9 50 3d
       -0.007985661 0.013848143 0.038107626 0.05095837
000040 0e df 3a 3d d3 bb 10 3d 02 ac 78 3c a2 93 79 3c
       0.045622878 0.035335373 0.015177729 0.015232952
000050 33 37 90 3c 1e 54 84 3c 1e 7d 05 3c d0 72 e8 39
       0.017604446 0.016153391 0.008147506 0.0004433603
000060 74 21 81 3c 24 07 95 3c e0 16 15 3b c0 10 a0 3c
       0.015763022 0.018191881 0.002274923 0.019539237
000070 fe fe 36 3d 45 0c 28 3c c5 c3 ae 3c 3e b3 34 3b
       0.044676773 0.0102568315 0.021333585 0.0027572657
000080 ce e3 66 3c 0b ce 6d 3c 50 95 7c 3c 8c 88 75 3c
       0.014092399 0.0145144565 0.015416458 0.014986169
000090 6d 67 c0 3b 0b 7c c3 3c 4c df 1a 3c 0d b6 94 3c
       0.0058717043 0.02386286 0.009452652 0.018153215
0000a0 4d a5 58 3c 1a 29 7a 3c 03 14 ce 3c 7e cd 69 3c
       0.0132230045 0.015268588 0.025156027 0.014270185
0000b0 ea 86 84 3c be 1e 8c 3c 3b c3 a3 3c 84 4e 59 3c
       0.016177613 0.017104503 0.019990554 0.0132633485
0000c0 53 5a 5d 3c 10 fc 8e 3c 75 2c 05 3d c7 17 bf 3c
       0.0135103045 0.017454177 0.0325131 0.023326768
0000d0 ac b7 c9 3c f8 9f 72 3c da b9 d8 3c 4c 9d 53 3c
       0.024623714 0.014808647 0.026455808 0.0129159205
0000e0 29 c8 49 3c 25 c8 96 3c 4b b3 88 b9 d8 53 97 3c
       0.012315788 0.018405983 -0.00026073525 0.018472597
0000f0 f1 f6 0c 3c c1 2b 47 3c 7a f3 02 3c 9d 2e 97 39
       0.008603797 0.012156428 0.00799262 0.00028835694
000100 10 b0 81 3f ff 44 7f 3f d6 17 7d 3f 15 9b 80 3f
       1.0131855 0.99714655 0.98864496 1.0047327
000110 5c a6 81 3f 36 65 7e 3f c3 5b 82 3f d0 9e 80 3f
       1.0128894 0.99373186 1.0184253 1.0048466
000120 db e2 81 3f 51 91 81 3f 01 85 81 3f b1 f2 81 3f
       1.0147356 1.0122472 1.0118715 1.0152189
000130 6c ae 7e 3f c7 a2 81 3f 40 7b 7b 3f 01 a0 83 3f
       0.99484897 1.0127801 0.9823494 1.0283204
000140 e4 68 80 3f 49 7b 7d 3f c1 23 83 3f 8e 0a 82 3f
       1.003201 0.99016243 1.0245286 1.0159471
000150 bc 16 82 3f b3 b5 81 3f 7e 19 81 3f 15 2e 7f 3f
       1.0163188 1.0133575 1.0085905 0.9967969
000160 6d 9e 81 3f e3 f2 81 3f 3d e8 81 3f 29 68 82 3f
       1.0126473 1.0152248 1.0148998 1.0188037
000170 ab 25 80 3f 45 30 82 3f a2 c7 82 3f cd 8f 80 3f
       1.0011495 1.0170981 1.0217173 1.0043885
000180 08 ca 80 3f 72 e9 7e 3f 17 d8 81 3f 40 66 81 3f
       1.0061655 0.9957496 1.014407 1.0109329
000190 5b c0 80 3f 58 04 83 3f fb 6c 81 3f 8a 1c 82 3f
       1.0058702 1.0235701 1.0111383 1.016496
0001a0 62 35 82 3f db e8 81 3f a7 b3 81 3f 49 df 81 3f
       1.0172541 1.0149187 1.013295 1.0146266
0001b0 2b 6a 81 3f 0e e6 81 3f f0 77 82 3f 79 ab 82 3f
       1.0110525 1.0148332 1.0192852 1.0208579
0001c0 0f 2e 82 3f 0b 45 82 3f ac 0a 7e 3f 8a 1b 83 3f
       1.0170306 1.017732 0.99235034 1.0242779
0001d0 ff ec 7f 3f ff 9f 81 3f e2 57 7e 3f 45 97 81 3f
       0.99971 1.0126952 0.9935285 1.0124289
0001e0 61 4c 7b 3f ee ff 81 3f 65 a4 7e 3f 9b 09 82 3f
       0.9816342 1.0156229 0.99469596 1.0159181
0001f0 78 25 7e 3f 6d 36 81 3f f8 aa 80 3f f6 5f 80 3f
       0.9927592 1.0094734 1.0052176 1.0029285
000200 b0 05 25 3c 3a 37 69 ba 3f 3b 76 3c 77 18 09 bc
       0.010072157 -0.0008896474 0.015028774 -0.008367649
000210 b4 d5 85 bc 8b 6b 01 3c 7c 2e 7a bc 6d ad bf 3a
       -0.016337253 0.007899175 -0.015269872 0.0014623828
000220 2c c0 7b bc 74 32 5e bc 58 6d 4e bc b0 df 6a bc
       -0.015365642 -0.013561834 -0.012599312 -0.014335558
000230 08 02 79 3b 74 e1 27 3c 3c db b5 bb 67 e8 5d 3c
       0.0037995595 0.010246623 -0.0055498164 0.013544179
000240 3e c3 8d 3c d5 c3 27 bc 4e 3f 23 3c 69 75 73 3c
       0.017305013 -0.010239561 0.0099638235 0.014859536
000250 1b 5d 6d bc b9 3e 7e bc 63 2b 2b 3c 7f 1f 5b bc
       -0.01448753 -0.015517884 0.010447356 -0.0133742085
000260 a3 1e 74 bc 04 c3 61 3c b7 9e f9 bb 3d d4 48 3c
       -0.0148998825 0.0137794055 -0.0076177972 0.012257633
000270 38 dd 99 3c 3f 58 6a bc 0c 82 2d 3c dd b1 43 bc
       0.018782243 -0.014303266 0.010590088 -0.011944261
000280 33 59 12 bc ca a1 3a 3c 65 5c 71 bc a1 95 39 3c
       -0.0089324 0.011391113 -0.014731501 0.011327178
000290 cf a2 66 3c 8c e6 2c bc 2b 23 75 bc 26 5a 6d 3c
       0.0140769025 -0.0105530135 -0.014961998 0.014486825
0002a0 5c df 96 bc 86 7f 34 bc 5e d5 4c 3c 4f 7d 6f bc
       -0.018417053 -0.011016732 0.012502043 -0.014617278
0002b0 86 f3 32 bc 8d 9b 6b bc 80 4c 5b bc 1a 33 66 3c
       -0.010922318 -0.014380348 -0.013384938 0.0140502695
0002c0 c4 b9 66 3c 5c b3 71 3c e0 d2 b6 bc 1d f2 a0 3c
       0.014082376 0.014752235 -0.02231735 0.019646699
0002d0 0d d5 98 bc c5 53 64 bc fd 70 51 3c d7 c8 2d bb
       -0.018656278 -0.013935988 0.012783286 -0.0026517415
0002e0 91 da 60 3c d1 9e 70 bc fb 2d 80 3c cf 71 85 bc
       0.013723985 -0.014686302 0.015646925 -0.01628962
0002f0 fb 55 a1 bc 3e f7 80 3c 01 8f ef 3a e7 8c 1e 3c
       -0.019694319 0.015742894 0.0018276871 0.009677148
000300 fb 20 88 3c af cf 93 3d 09 4e 59 3d 58 0e ff bb
       0.016617289 0.07217347 0.053052936 -0.0077836923
000310 f5 9a 2a 3c dd c5 3d 3c 53 1a c1 3c 50 b5 8a 3c
       0.010412921 0.011582819 0.023572123 0.01693216
000320 27 34 b5 3c 74 3c 79 3c d5 33 a6 3c fc 44 a6 3c
       0.022119595 0.015212167 0.020288387 0.020296566
000330 29 da 1a 3d a2 c9 54 3c ed 5d 16 3d 4d 33 86 3d
       0.03780571 0.012987526 0.03671067 0.065527536
000340 e3 27 7b 3d 19 b7 13 3d f0 7d 99 3b e5 9e 87 3c
       0.061317336 0.036063287 0.0046842024 0.016555259
000350 37 96 91 3c e5 dc b6 3c 26 85 18 3c 36 c7 0b 3c
       0.017771823 0.022322128 0.009309089 0.008531382
000360 f7 02 bf 3c 25 96 66 3c 01 bd 08 3c 4c c0 e2 3c
       0.023316843 0.014073883 0.008345843 0.027679585
000370 f3 cc bc 3c 2a a6 eb 3c 61 15 af 3c 9b 0a c1 3b
       0.023046946 0.028765757 0.021372499 0.005891157
000380 bc 56 c1 3c 6e a6 4e 3c 3a df be 3c 8e 82 e0 3c
       0.023600928 0.012612922 0.023299802 0.027406003
000390 a8 03 94 3c 83 94 f3 3c 05 2c ac 3c 8b 7a 97 3c
       0.01806815 0.029733902 0.021017084 0.01849105
0003a0 58 73 44 3d 98 0d d4 3c 12 c6 12 3d 3f 28 62 3c
       0.047961563 0.025885388 0.035833426 0.013803541
0003b0 ec 20 10 3d a9 50 c8 3c 7a db e4 3c 89 1a 68 3c
       0.035187647 0.024452524 0.027936686 0.014166483
0003c0 5f ae 9b 3c d9 eb 04 3d 29 77 2a 3d 6f 53 17 3d
       0.019004045 0.032451484 0.041617546 0.036944803
0003d0 bc 05 f0 3c 2d 0b cf 3c 98 f9 f5 3c 79 b0 85 3d
       0.02929961 0.025273884 0.030026242 0.065278
0003e0 e4 bd 7f 3c c5 7d a7 3c 66 2a 7e 3b 70 01 9d 3c
       0.015609238 0.020445714 0.0038782596 0.019165725
0003f0 46 74 5c 3c f0 8f b6 3c 4c 52 49 3c 20 1d 23 3b
       0.013455456 0.022285432 0.0122876875 0.0024889186

LSTM1/forward_lstm/lstm_cell_1/bias f4 [512]
000000 9f 78 69 3d f3 3c 8b 3c 48 a2 ce 3c 23 93 40 3d
       0.0569998 0.016996836 0.025223866 0.04701532
000010 09 8e 86 3c a5 c6 59 3d fa 44 26 3c 45 9d 2e 3c
       0.01642515 0.053167958 0.010148281 0.010657613
000020 1f eb 89 3c 18 d6 80 3c 03 ce 8e bb a9 a3 e3 3c
       0.016835747 0.015727088 -0.0043580546 0.027788
000030 77 0a b2 3c 97 e0 8e 3c 25 e9 b3 bb 7a 9d 88 3c
       0.021733506 0.017441077 -0.0054904395 0.016676653
000040 10 f2 f3 3c ee 3e b1 3b 96 e4 49 3b c8 c6 d6 3c
       0.02977851 0.005409113 0.0030806414 0.026217833
000050 ea 1e ba 3b b2 47 f7 bc 54 34 dc 3c dc d1 b4 3c
       0.005679955 -0.030185554 0.02688042 0.022072725
000060 4a d7 b4 3c 2c ed e8 3b b6 cb ea bb 73 24 03 3d
       0.022075314 0.007108351 -0.0071653975 0.032017183
000070 6c 90 77 3c 73 15 06 3d 63 b9 7d 3c c1 c0 9a bb
       0.015110116 0.0327353 0.015486094 -0.004722685
000080 60 cb 9b bb 76 88 a7 3c d2 b4 45 3d a7 ac 8e b9
       -0.004754469 0.020450812 0.048268147 -0.00027212987
000090 53 b5 50 bb 8c e8 53 3d cb 0d db 3d 10 70 98 3c
       -0.003184636 0.051735446 0.1069599 0.018608123
0000a0 c4 28 aa 3c 86 d3 b7 3c 07 de 8e 3c c3 8b 2a 3d
       0.020771392 0.02243973 0.017439855 0.041637193
0000b0 a9 cf df 3c 8b 91 ac 3c e2 75 46 3c 69 60 12 3d
       0.0273207 0.021065494 0.012113066 0.035736475
0000c0 3b db ce 3c 25 4f c2 bc 9c 1d 12 3d 5c 50 e3 bb
       0.025251022 -0.02371938 0.03567277 -0.00693707
0000d0 06 62 17 3c 3b 97 16 3d 6c 7d 13 3d 93 b3 5a 3c
       0.009239679 0.03676532 0.036008283 0.013348478
0000e0 cd a3 02 3d 67 38 6d 3c 43 d2 a8 3c 21 ed d2 3c
       0.031894494 0.014478779 0.020608073 0.025747837
0000f0 8a 9f a5 3c 9f 8a 85 3d 1c fc 82 3d 8e 36 2f 3d
       0.020217676 0.065205805 0.06395742 0.042776637
000100 3d 51 6a 3c dc c7 59 3a 93 0a 38 3d bf f5 fd 3b
       0.014301595 0.00083076744 0.04493196 0.0077502425
000110 b7 f8 34 3c 8b ce 8b 3c b4 bb 1d 3c 7b 18 d3 3c
       0.011045626 0.01706626 0.009627271 0.02576851
000120 e8 6c 56 3d 35 0c 7b 3b 27 f1 9d 3c 71 60 e3 3c
       0.052349955 0.0038306837 0.01928003 0.027755948
000130 2e 02 65 3d c8 9c 83 3c ab d0 fb 3c b4 84 2b 3c
       0.05591028 0.01606597 0.03073915 0.010468651
000140 ab c5 1a 3d 8d 7b 0a 3d 00 2d 30 3d 76 71 e4 3c
       0.037786167 0.033809233 0.043011665 0.027886134
000150 78 b1 82 3c c8 2a a2 3c 1c cd db bb 0b 1d 2b 3c
       0.015953764 0.01979579 -0.0067078006 0.010443936
000160 78 6b 8d 3c 32 78 1e ba 74 52 83 3d a2 88 bf 3c
       0.01726316 -0.0006045132 0.06412211 0.023380581
000170 d9 f8 62 39 b1 75 f9 3a 37 d6 93 3c 35 32 0f 3c
       0.00021645743 0.0019032267 0.018046482 0.008739998
000180 b1 f0 06 bb 1b 49 5a 3b aa 3d 3f 3d ed 04 80 3d
       -0.002059024 0.0033307734 0.046689667 0.062509395
000190 40 38 e7 3c e5 cd 39 3d 90 b2 dd 3b ae cf ad 3c
       0.028225064 0.045362372 0.006765671 0.021217193
0001a0 05 d8 d7 3c ff e7 e9 bb 82 99 cc 3c 84 20 92 3b
       0.026348123 -0.007138252 0.024975542 0.0044594426
0001b0 6d 92 9d bc a9 72 8c 3c 39 29 a8 3c 04 ad 40 3c
       -0.01923486 0.017144518 0.020527469 0.01176
0001c0 88 12 95 bb 43 e1 d3 3c 92 cd 64 3d a2 b4 a4 3c
       -0.0045493282 0.02586425 0.05586011 0.020105664
0001d0 dd 84 6c 3c 7e 15 27 3d ba 81 7d 3d 46 e4 eb 38
       0.014435974 0.04079198 0.061891295 0.000112481925
0001e0 17 4d b3 3c 8a 2e 29 3d c5 3d 29 3d 37 ef 0a 3c
       0.021887345 0.04130415 0.041318674 0.008479885
0001f0 f7 bb 19 3c 34 47 e5 3c 3a ce 52 3d 47 f8 01 3a
       0.009383193 0.027988054 0.051466204 0.00049579557
000200 6b 13 71 3f 58 0a 82 3f 31 f1 7d 3f ee 5c 72 3f
       0.94170254 1.0159407 0.99196154 0.9467305
000210 94 59 82 3f c2 5b 77 3f ab 2b 7b 3f d7 3b 75 3f
       1.0183587 0.96624386 0.9811351 0.95794433
000220 3a 9f 83 3f e2 26 82 3f 1c f7 7a 3f 9e fe 70 3f
       1.0282967 1.0168116 0.9803331 0.94138515
000230 e1 ac 76 3f 1c d6 7b 3f 30 f2 7b 3f e3 0c 80 3f
       0.9635754 0.9837358 0.98416424 1.0003933
000240 3d cc 81 3f 6b 2e 82 3f 6c 1b 79 3f ae d2 78 3f
       1.0140454 1.0170416 0.9730747 0.9719647
000250 c1 b6 7c 3f a8 f5 6b 3f e5 4f 7e 3f c8 af 7a 3f
       0.9871636 0.92171717 0.9934066 0.9792447
000260 3a 45 78 3f 35 60 80 3f c7 e4 75 3f 20 78 6f 3f
       0.9698063 1.002936 0.9605221 0.9354267
000270 9f f5 82 3f de 95 7a 3f 15 f5 81 3f 54 24 80 3f
       1.0231208 0.9788493 1.0152918 1.0011086
000280 3c 4b 7f 3f 65 aa 76 3f f8 b2 7d 3f d6 55 79 3f
       0.99724174 0.9635375 0.9910121 0.973966
000290 4b 59 85 3f 79 ca 7d 3f 2b fe 65 3f 67 e6 81 3f
       1.0417875 0.99137074 0.89840955 1.0148438
0002a0 f4 76 81 3f b3 f4 83 3f e4 06 80 3f 1a 0b 7e 3f
       1.0114427 1.0309051 1.0002103 0.9923569
0002b0 7a c8 7b 3f 74 4f 83 3f 34 3d 81 3f e2 37 84 3f
       0.9835278 1.0258622 1.0096803 1.0329554
0002c0 99 a0 7b 3f 67 36 7d 3f 38 d2 7e 3f 14 30 7d 3f
       0.9829193 0.98911136 0.9953952 0.98901486
0002d0 55 30 7d 3f f7 1c 7c 3f 3a 88 7c 3f 2b ff 81 3f
       0.98901874 0.98481697 0.98645365 1.0155996
0002e0 3b 40 83 3f 20 e9 81 3f f5 bb 81 3f d9 c3 78 3f
       1.0253977 1.0149269 1.0135485 0.9717384
0002f0 44 8a 82 3f e7 3e 83 3f 72 fa 73 3f 94 20 73 3f
       1.0198445 1.0253571 0.95304024 0.94971585
000300 60 f0 81 3f 73 41 79 3f 43 5d 7a 3f 5a e4 7d 3f
       1.0151482 0.9736549 0.97798556 0.9917656
000310 6d ca 80 3f e1 b6 7f 3f e5 15 81 3f 03 93 7c 3f
       1.0061775 0.99888426 1.0084807 0.9866182
000320 da 03 69 3f 97 94 80 3f 8c 1c 81 3f e2 20 7e 3f
       0.910215 1.0045346 1.0086837 0.99268925
000330 6a 0e 75 3f 01 8e 7f 3f ba 45 77 3f 22 7e 82 3f
       0.9572512 0.99826056 0.9659077 1.0194743
000340 98 43 80 3f b7 95 7c 3f 45 c2 74 3f 34 40 81 3f
       1.0020628 0.98665947 0.9560893 1.0097718
000350 ed 66 7f 3f d6 4b 82 3f e9 fa 7c 3f 40 ac 7b 3f
       0.9976643 1.0179393 0.9882036 0.9830971
000360 27 2b 7d 3f 94 6f 79 3f 4a ee 7c 3f c9 92 79 3f
       0.9889397 0.9743588 0.988011 0.974896
000370 08 d4 7a 3f d8 46 7d 3f b6 9f 7f 3f 0a 2b 7d 3f
       0.97979784 0.98936224 0.99853075 0.988938
000380 01 52 7c 3f 3d 3c 80 3f ef ab 7d 3f 9c 67 77 3f
       0.9856263 1.0018383 0.99090475 0.9664247
000390 e2 07 80 3f 7e de 6e 3f 7d 61 82 3f ee d7 79 3f
       1.0002406 0.93308246 1.0186001 0.9759511
0003a0 a5 e9 7b 3f d1 2c 82 3f 63 61 7d 3f d8 4c 7b 3f
       0.9840339 1.0169927 0.98976725 0.9816413
0003b0 3f 40 81 3f d3 18 83 3f b9 77 81 3f ef 25 83 3f
       1.0097731 1.0241951 1.0114661 1.0245951
0003c0 3c ab 7a 3f fd 9f 81 3f eb 56 7b 3f e5 13 7b 3f
       0.9791753 1.012695 0.981795 0.9807723
0003d0 cd 42 79 3f 2a 09 80 3f ef fb 73 3f 78 d2 7a 3f
       0.97367555 1.0002797 0.95306295 0.979774
0003e0 ad d9 82 3f 8d 72 7a 3f fa 4b 74 3f db f8 73 3f
       1.0222679 0.9783104 0.9542843 0.953016
0003f0 88 b8 7f 3f b3 38 7b 3f a8 2b 79 3f 5d fe 81 3f
       0.9989095 0.9813339 0.9733224 1.015575

LSTM1/backward_lstm/lstm_cell_2/bias f4 [512]
000000 62 a0 86 3b db 23 e5 3b 69 30 e5 ba 9a 5e 7d 3b
       0.0041084746 0.0069927997 -0.0017485741 0.0038661123
000010 ec 6c 94 3d 35 e9 98 3d 40 7f 2f 3c ae 95 09 3c
       0.07247338 0.07466356 0.010711491 0.008397503
000020 84 57 96 3c 92 64 c7 3d ce 96 69 3c e3 36 57 3d
       0.018352278 0.09735979 0.014257146 0.05254258
000030 e6 9e 40 bb 34 f1 9d bb 7c 10 61 3c 3a 85 85 3b
       -0.0029391586 -0.0048200134 0.01373684 0.0040747197
000040 08 17 35 3b 16 8c 3e 3c 77 d1 93 3b 5e 9b 6e 3c
       0.0027632136 0.011630079 0.004511054 0.01456341
000050 a4 0d 9f 3c bf f0 8b 3c 56 84 e0 bc ae 72 41 3d
       0.019415684 0.01708257 -0.027406853 0.047228508
000060 8e 50 a0 3c 6e d9 a2 3c fe 4d a6 3d 02 c1 4d 3c
       0.019569661 0.01987907 0.081203446 0.012558224
000070 e9 d1 ca 3b e4 a4 a1 3c 46 3f 0a 3d fc b0 d6 3c
       0.006189574 0.019731946 0.03375175 0.02620744
000080 78 74 19 3d 7e 7c 2a 3c 3e 91 da 3c 6a 72 a5 bc
       0.03746459 0.010405658 0.026680585 -0.020196158
000090 cd 4d e2 3b cc e5 d7 3b 93 ce 93 3c f7 1d 00 3c
       0.006906247 0.006588673 0.018042838 0.007819644
0000a0 8d 42 a3 3c 8a 55 60 bc 2c 52 65 3d 20 45 82 3b
       0.019929195 -0.013692269 0.05598657 0.0039755255
0000b0 9c c2 9b bc 3c 32 3b bc cf 0d 57 3c c8 93 05 3c
       -0.019013695 -0.011425551 0.013125851 0.00815291
0000c0 95 31 cb ba d7 8d 14 3c 9e 78 e1 3c 50 21 ea 3d
       -0.0015502447 0.00906702 0.027523335 0.11432135
0000d0 ea ef 12 3c 2b 91 39 bd 79 fb ae 3c 07 42 90 3d
       0.008968333 -0.04530446 0.021360146 0.07043844
0000e0 2a 32 db 3c 5f 09 b4 bc 65 39 9f 3d 8a 25 e3 3c
       0.026757319 -0.021977125 0.07774619 0.027727861
0000f0 58 88 8c 3c cc 63 0b 3b e5 da c1 3d 00 de 72 3c
       0.017154858 0.00212692 0.09465579 0.014823437
000100 73 7a 92 3c b1 30 8e 3c bf f3 d0 3a c3 80 d2 3c
       0.017880654 0.017357202 0.0015941783 0.025696164
000110 b0 4a 19 3c dc da 6b 3c 2e 67 ca 3c b3 71 0c 3d
       0.009356186 0.014395442 0.024707403 0.03428812
000120 d0 5b f4 3c 33 b2 5e 3d 18 cf 79 3c 1a bf 5f 3d
       0.029828936 0.054369163 0.015247129 0.054625608
000130 37 b3 2d bd ff c8 24 3d df 95 5e 3c 13 81 6f 3c
       -0.04240724 0.040230747 0.013585537 0.014618176
000140 53 97 a3 3c 94 3c 90 3d 96 d4 79 3c c6 ef 8e 3d
       0.019969618 0.07042804 0.015248438 0.06979327
000150 1a de b6 3b 80 22 41 3c f4 db 1a 3d 0c 06 2e bc
       0.005580676 0.011788011 0.03780742 -0.010621559
000160 dc db 62 3b 2e 8e 94 bb 2d d9 94 ba 44 69 2c 3d
       0.003461591 -0.0045335507 -0.0011356227 0.042092577
000170 a0 e7 28 3c 1b 1e 31 bc 07 df 89 3c 27 c1 16 3d
       0.01030913 -0.0108104 0.01682998 0.0368053
000180 aa 30 b0 3c c8 7f 8f 3c f7 20 e0 3d 77 45 11 3d
       0.02150758 0.017516986 0.109437875 0.035466637
000190 4e ed 86 ba be dc 43 3d b9 95 8b 3d 9b 5b 54 3c
       -0.0010294111 0.047817938 0.06815667 0.012961294
0001a0 3a 26 e3 3c d1 1b e1 3c e7 a4 98 3c 0d eb 05 3e
       0.027728189 0.027479084 0.018633319 0.13077946
0001b0 4b cc 47 bb 20 cf ef bc eb 83 29 3c 5c e4 0f 3d
       -0.0030486758 -0.02927357 0.010346393 0.03512989
0001c0 3a 71 ca 3c c7 1a 97 3c 75 1f 4b 3b 44 69 24 3d
       0.024712194 0.018445386 0.0030994092 0.04013945
0001d0 05 85 81 3c c1 ca bb bc 58 45 97 3d 13 28 94 3c
       0.015810499 -0.022923829 0.07386273 0.018085515
0001e0 82 8d ce 3d 2a bf c6 3d 01 e3 e1 39 1d 6d d3 3b
       0.10085584 0.097044304 0.00043084475 0.0064522163
0001f0 c1 9b ba 3c a0 6f 91 3c 06 33 4b 3c 40 a4 05 3c
       0.022779347 0.017753422 0.012402302 0.008156836
000200 c5 f5 72 3f cb 75 7f 3f 87 ff 76 3f f5 ab 7a 3f
       0.94906265 0.9978911 0.96483654 0.97918636
000210 d1 d0 70 3f e2 ec 73 3f 28 26 82 3f cf 0f 81 3f
       0.9406863 0.9528333 1.0167894 1.0082949
000220 b4 99 82 3f 40 4b 74 3f 53 89 7a 3f e1 d1 7b 3f
       1.0203156 0.9542732 0.9786579 0.98367125
000230 9d 06 73 3f 97 47 68 3f 62 90 82 3f 9e a4 78 3f
       0.94931966 0.9073424 1.0200312 0.97126186
000240 d0 e9 7e 3f 68 ce 82 3f b8 d1 81 3f dc 11 82 3f
       0.9957552 1.021924 1.0142126 1.01617
000250 36 06 83 3f 78 22 82 3f 3a c8 73 3f 53 37 80 3f
       1.023627 1.0166769 0.95227396 1.0016884
000260 73 96 76 3f 03 3f 81 3f b6 7a 73 3f 4d bc 81 3f
       0.9632332 1.0097355 0.9510912 1.013559
000270 b8 c9 83 3f d1 96 7a 3f 93 5f 74 3f 5c 0c 7f 3f
       1.0295935 0.9788638 0.95458335 0.99628234
000280 67 6e 77 3f 71 f4 7c 3f 28 c0 80 3f 32 9f 77 3f
       0.96652836 0.9881049 1.0058641 0.9672729
000290 c0 7d 6f 3f ce bb 7b 3f da c8 82 3f 8d 6a 81 3f
       0.93551254 0.9833344 1.0217545 1.0110642
0002a0 4d e9 7d 3f 1c 96 72 3f 48 e9 7e 3f 5f e2 7d 3f
       0.99184114 0.947603 0.9957471 0.9917354
0002b0 d7 2c 79 3f 3d a2 6f 3f 1f ea 81 3f 1c 97 81 3f
       0.97334045 0.9360693 1.0149573 1.012424
0002c0 e5 3c 7e 3f dd 37 7c 3f 2e c3 81 3f 2f 15 6e 3f
       0.9931167 0.9852274 1.0137689 0.93001074
0002d0 26 66 7c 3f bc e2 7a 3f 79 b8 7c 3f 29 f3 70 3f
       0.98593366 0.9800222 0.9871898 0.9412103
0002e0 21 9f 7c 3f bc 9c 77 3f d2 0e 7e 3f 6d 29 7a 3f
       0.9868031 0.9672353 0.99241364 0.9771946
0002f0 37 d1 82 3f 0c 6d 7e 3f 2b cc 7f 3f bd e3 77 3f
       1.0220097 0.9938514 0.9992091 0.96831876
000300 be 8f 7a 3f fc 02 79 3f 34 00 80 3f 78 56 7d 3f
       0.97875583 0.9727018 1.0000062 0.98960066
000310 45 00 82 3f a9 32 82 3f c7 f8 81 3f b8 07 74 3f
       1.0156332 1.017171 1.0154046 0.9532428
000320 08 28 71 3f b9 e3 74 3f 78 fb 82 3f 20 be 78 3f
       0.9420171 0.9565998 1.0232992 0.9716511
000330 61 cf 7b 3f 02 05 80 3f c8 dd 80 3f 50 b6 81 3f
       0.9836331 1.0001528 1.0067682 1.0133762
000340 18 df 80 3f b2 51 6d 3f de f3 81 3f 6c 7b 69 3f
       1.0068083 0.9270278 1.0152547 0.9120395
000350 91 35 77 3f 7a 8f 7a 3f c5 34 75 3f e6 31 85 3f
       0.9656611 0.9787518 0.95783645 1.0405853
000360 9a e5 7e 3f 76 f8 7a 3f b4 05 79 3f c5 ce 71 3f
       0.99569094 0.9803537 0.9727433 0.9445613
000370 f7 99 6e 3f 9f 97 7b 3f 53 84 81 3f fe d6 7b 3f
       0.9320368 0.9827823 1.0118507 0.9837493
000380 df e9 81 3f 43 85 7c 3f fc 20 72 3f f3 16 73 3f
       1.0149497 0.9864084 0.9458158 0.9495689
000390 79 39 6d 3f 9e 2f 6a 3f fc 76 6e 3f 50 d3 7c 3f
       0.9266582 0.9147891 0.93150306 0.9875994
0003a0 eb 1b 7b 3f 90 03 80 3f 71 c4 7e 3f 8b fe 72 3f
       0.98089474 1.0001087 0.99518496 0.9491965
0003b0 51 91 7d 3f d2 a7 79 3f 0a 74 80 3f 24 90 77 3f
       0.9904986 0.975217 1.0035412 0.96704316
0003c0 76 bd 7f 3f 75 01 82 3f 1b 06 82 3f a6 4d 73 3f
       0.9989847 1.0156695 1.0158113 0.9504036
0003d0 b1 5b 7b 3f 9c 9d 80 3f fa 9c 6e 3f 44 69 7b 3f
       0.98186785 1.0048099 0.9320828 0.982075
0003e0 7f 42 72 3f f9 fe 70 3f b2 21 7e 3f a4 b5 7c 3f
       0.94632715 0.9413906 0.99270165 0.9871466
0003f0 a0 74 7f 3f a5 30 66 3f 59 b0 83 3f 88 54 7e 3f
       0.9978733 0.89917976 1.0288192 0.99347734

Dense2/bias f4 [68]
000000 c8 19 04 bd 6e 83 05 bd b2 c3 11 bd 51 b8 37 bd
       -0.03225115 -0.032596044 -0.03558702 -0.044853512
000010 04 7e 0a bd f3 ff 11 bd 4f c0 35 bd df 72 25 bd
       -0.033811584 -0.035644483 -0.044372853 -0.040392753
000020 17 da 31 bd 34 b2 22 bd cd 55 18 bd 43 d8 4b bd
       -0.043420877 -0.03972073 -0.0371912 -0.04976679
000030 1c b7 27 bd 98 03 1a bd a4 9d 35 bd 79 d6 1a bd
       -0.04094611 -0.037601084 -0.04433979 -0.037802193
000040 16 4d 37 bd 96 a4 29 3b 38 dc a7 3c 0e 76 d0 3c
       -0.04475125 0.0025885454 0.02049075 0.025446918
000050 94 b4 fd 3c 9d 1c 90 3c 4b d1 cb 3c 7c 51 b5 3c
       0.030969895 0.017591769 0.024880072 0.022133581
000060 57 4d 19 bd d8 74 24 bd c1 2c e9 bc 31 c8 07 bd
       -0.037427273 -0.040150493 -0.028463723 -0.0331499
000070 77 97 2b bd 75 fd 21 bd 84 c3 09 bd 1d 2e 2d bd
       -0.041892495 -0.039548356 -0.033633724 -0.042280305
000080 bc 27 1c bd 73 a5 06 bd 74 3f 12 bd 27 1f f7 bc
       -0.03812383 -0.03287263 -0.035705045 -0.030166222
000090 0a 56 0e bd 86 bf 13 bd 27 e7 8d 3c 1a 29 ff 3c
       -0.034750022 -0.036071323 0.017322136 0.031147528
0000a0 08 67 13 3c 3a fb 2e 3d 04 7f 8a 3c 0e 1e c4 3c
       0.0089967325 0.042720057 0.016906269 0.023940112
0000b0 6d a4 12 bd 77 cd 0e bd a5 c2 db bc a6 2a 0d bd
       -0.03580134 -0.034863915 -0.026826212 -0.0344645
0000c0 c1 7f 2f bd 90 c0 15 3d 7d f4 3f 3d 32 dd 25 bd
       -0.042846445 0.036560595 0.04686402 -0.04049415
0000d0 71 4c 9b 3c ed 25 00 bd 48 c8 26 bd 79 ba 09 bd
       0.018957349 -0.03128617 -0.040718347 -0.0336251
0000e0 96 6b 04 bd 09 e0 0d bd 37 a4 f9 bc 50 0a 9d 3c
       -0.032329164 -0.034637485 -0.030473812 0.019169956
0000f0 66 97 8b 3c d5 c1 cb 3b 2a 0d 05 bd da 31 0b bd
       0.017039966 0.006218175 -0.032483257 -0.03398309
000100 6e 09 00 bd 9f 27 11 bd 62 0a 18 bd 9e 4d bf 3c
       -0.031258993 -0.035438176 -0.037119277 0.02335244

Dense1/bias f4 [64]
000000 6e 30 9c 3b 42 80 07 bc 8a df 8b bb e3 a0 23 bd
       0.0047665155 -0.008270325 -0.0042685913 -0.039948355
000010 3a 81 f3 bb 58 ce a8 ba 67 e9 b7 bc e0 52 17 bc
       -0.0074311765 -0.0012878878 -0.022450162 -0.0092360675
000020 8a 0d 80 bc e3 11 b7 bc 8c 4d 4e bc 95 49 79 3b
       -0.015631456 -0.022347396 -0.012591731 0.0038038243
000030 3b 5f eb 3c 67 cc 98 bc 45 08 4b bc 54 fe 2b 3d
       0.028731933 -0.018652154 -0.012392108 0.041990593
000040 aa 83 c7 bb 1b 8f d5 bb c7 c9 1f bc ce 81 cf bb
       -0.0060886936 -0.0065173036 -0.009752697 -0.0063326126
000050 cf ec 25 bc 5b 83 61 3c 80 ea 04 bc d2 17 91 3d
       -0.01012726 0.013764228 -0.00811255 0.070846215
000060 bb ed 04 3d df 5f 28 3d cb f5 8f bc 92 b8 8e bc
       0.03245328 0.041107055 -0.017573258 -0.017421994
000070 0a e9 3c bc ea 10 b6 bc 77 09 e6 3c 0e a3 3e 3c
       -0.01153017 -0.022224862 0.028080685 0.011635555
000080 a9 d4 cc bc f3 60 48 bc ad 7c 1f 3c 0a db dd 3c
       -0.025003748 -0.012230146 0.009734315 0.027081985
000090 17 e5 81 bc a9 3b fc bb 80 b9 af 3c 7b c9 d2 bb
       -0.015856309 -0.0076975417 0.021450758 -0.0064327097
0000a0 c7 b9 a8 bb 7a b2 3e 3d 2d d0 bb bb dc 11 b6 bb
       -0.0051490995 0.046556927 -0.0057316036 -0.005556328
0000b0 65 c1 ad bb 02 99 f5 3c 31 84 54 bc c9 fe a6 bb
       -0.0053025954 0.029980186 -0.01297097 -0.0050962907
0000c0 f1 69 2f bc 17 22 8c bc fa 5f 7c 3c b4 7b f6 bb
       -0.010706411 -0.017106099 0.015403742 -0.007522071
0000d0 75 37 06 bc 6f 5b b9 bc 01 56 7a 3b 2b 3f f0 bc
       -0.008191933 -0.022626607 0.0038198235 -0.029326996
0000e0 55 cc 5f bc 26 f4 e4 bb b2 45 0e bd 50 cd d9 bb
       -0.013659556 -0.0069871126 -0.034734435 -0.0066467896
0000f0 32 93 f7 bc 5d 3b c7 bc f5 c3 80 bc 8c fa 13 bd
       -0.030221555 -0.024320299 -0.01571844 -0.036127612

Conv2/bias f4 [64]
000000 11 bd 35 bc 4f cb d1 3b ad e9 af bb 71 ff ec bb
       -0.01109244 0.00640241 -0.0053684325 -0.0072325994
000010 9b cf ae 3b 45 7f 51 bc 62 69 ea 3a f5 43 c5 bb
       0.005334807 -0.012786691 0.001788419 -0.006020064
000020 85 12 26 bc 10 39 29 3b cc 29 49 bc a8 05 5c 3d
       -0.010136251 0.0025821365 -0.012278032 0.05371633
000030 24 e9 92 3d a0 ff a2 3c 35 9d 77 bc ea 65 8b 3c
       0.07173374 0.019897282 -0.015113165 0.01701637
000040 78 14 92 3d 30 77 c2 3d 0e 2f fd bc e0 b1 ad 3d
       0.0713281 0.094953895 -0.030906226 0.084811926
000050 a7 de 22 3c 6c 1d 1d bc 75 c6 42 bc 4b 58 a1 bc
       0.00994078 -0.009589534 -0.011888136 -0.019695422
000060 20 7e b1 bb 61 50 66 bc 1d be 3f bb e9 f6 ab bc
       -0.0054166466 -0.01405725 -0.0029257603 -0.02099176
000070 90 5f f6 3a d2 14 85 3d 7b 04 94 bc d1 e5 cf bc
       0.001879679 0.06498112 -0.018068543 -0.02537814
000080 27 0a a4 3d 35 fd 00 3e 52 af 5f bc e5 cb 52 3c
       0.08009749 0.12596591 -0.013652639 0.012865995
000090 08 a2 d3 3b 2f c6 3f bc f6 52 2d bc e0 aa 50 bc
       0.0064585246 -0.0117049655 -0.010578861 -0.012736052
0000a0 2b 73 03 bb 0f 37 c5 bb 45 3f 75 bc d3 f6 67 bc
       -0.002005766 -0.0060185264 -0.014968698 -0.014157969
0000b0 70 5e 33 bc b0 51 ba 3c 50 e0 42 3b 92 6b 64 3b
       -0.010947809 0.02274403 0.0029735751 0.0034854156
0000c0 5f 83 08 3d c6 ba a3 bc 06 bc 0a bd f9 70 ba bc
       0.03332841 -0.019986521 -0.03387072 -0.022758948
0000d0 ff da 0d 3c 37 71 54 bc 46 d0 62 3c 4f 6b 66 3c
       0.00865817 -0.012966446 0.013843602 0.01406367
0000e0 8b 75 98 bc ef 80 cb 3c 74 b2 0f bc 23 5a ac bc
       -0.018610736 0.024841754 -0.008770574 -0.021039074
0000f0 5b 62 8f bc a9 8e 9a 3d a4 0f 94 3d b3 bb 07 bd
       -0.017502954 0.075467415 0.07229546 -0.03313799

Conv1/bias f4 [32]
000000 65 ad c5 3d 42 b4 44 be 1c d4 cd 3e fc 26 66 bd
       0.09652213 -0.19209388 0.4020089 -0.056189522
000010 d1 c7 65 3c 8a 39 86 bc df 00 20 bd de 5a 6e bd
       0.014024691 -0.016384859 -0.03906333 -0.058192126
000020 92 da e0 bb 21 2a 0b 3b 8a f4 4c bd 7b 26 9b 3d
       -0.006861993 0.0021234828 -0.050037898 0.07575699
000030 cf 67 96 bd c7 3d f0 bc 39 7f 31 bd 03 b0 1e be
       -0.07344019 -0.029326333 -0.04333422 -0.1549683
000040 32 83 93 bd 7e e6 4b bd 38 9c 92 bd 5c 0b 84 3e
       -0.07202758 -0.04978036 -0.071587026 0.25789917
000050 33 54 41 3e 56 b5 d9 3e 01 df 99 bd 74 81 79 3d
       0.18879776 0.4252116 -0.07513238 0.06091447
000060 76 e4 23 3e 2b 7a 4a bd f4 2d 79 3e 45 33 48 bd
       0.1600512 -0.049432915 0.24333936 -0.04887702
000070 b5 b8 59 3c 54 b5 9d bd bb 7a 82 3e 02 b5 a8 3c
       0.0132886665 -0.07700601 0.2548426 0.020594124

std.constant16 i1 [64, 768] scale=0.0054423753 zero_point=0
000000 f3 10 09 f9 f0 f9 0e fa 0c f9 ff 07 fd f1 f1 f6
       -0.07075088 0.087078005 0.048981376 -0.03809663 -0.087078005 -0.03809663 0.07619326 -0.032654252 0.065308504 -0.03809663 -0.0054423753 0.03809663 -0.016327126 -0.08163563 -0.08163563 -0.054423753
000010 fe 05 01 05 f9 0b f3 06 01 fb fe f2 fe 12 f0 03
       -0.010884751 0.027211877 0.0054423753 0.027211877 -0.03809663 0.05986613 -0.07075088 0.032654252 0.0054423753 -0.027211877 -0.010884751 -0.07619326 -0.010884751 0.09796275 -0.087078005 0.016327126
000020 04 08 0e f6 06 fa 0b fc fa ff 0f 06 04 fc 08 00
       0.021769501 0.043539003 0.07619326 -0.054423753 0.032654252 -0.032654252 0.05986613 -0.021769501 -0.032654252 -0.0054423753 0.08163563 0.032654252 0.021769501 -0.021769501 0.043539003 0.0
000030 eb 01 f1 f1 fd 05 0a 00 f6 04 fb 03 fa 24 fc f5
       -0.11428988 0.0054423753 -0.08163563 -0.08163563 -0.016327126 0.027211877 0.054423753 0.0 -0.054423753 0.021769501 -0.027211877 0.016327126 -0.032654252 0.1959255 -0.021769501 -0.05986613
000040 05 e5 fc 0e 03 08 0d 0b 03 10 0b 0d 08 10 03 02
       0.027211877 -0.14694414 -0.021769501 0.07619326 0.016327126 0.043539003 0.07075088 0.05986613 0.016327126 0.087078005 0.05986613 0.07075088 0.043539003 0.087078005 0.016327126 0.010884751
000050 04 ee f2 0a 05 04 fb f4 10 fd 0f 14 f0 00 0b 0c
       0.021769501 -0.09796275 -0.07619326 0.054423753 0.027211877 0.021769501 -0.027211877 -0.065308504 0.087078005 -0.016327126 0.08163563 0.10884751 -0.087078005 0.0 0.05986613 0.065308504
000060 2b 15 12 f0 0a f8 0a f9 02 fa 0a 0a 04 0d 16 14
       0.23402214 0.11428988 0.09796275 -0.087078005 0.054423753 -0.043539003 0.054423753 -0.03809663 0.010884751 -0.032654252 0.054423753 0.054423753 0.021769501 0.07075088 0.11973226 0.10884751
000070 e8 06 14 10 0e 09 08 08 f3 e4 fc 0b 08 36 00 fe
       -0.13061701 0.032654252 0.10884751 0.087078005 0.07619326 0.048981376 0.043539003 0.043539003 -0.07075088 -0.15238652 -0.021769501 0.05986613 0.043539003 0.29388827 0.0 -0.010884751
000080 f8 fd 0d 01 0e fb 0e f2 0d f2 0a 04 00 0e 03 0f
       -0.043539003 -0.016327126 0.07075088 0.0054423753 0.07619326 -0.027211877 0.07619326 -0.07619326 0.07075088 -0.07619326 0.054423753 0.021769501 0.0 0.07619326 0.016327126 0.08163563
000090 fc fe f9 f6 fd 0c 0f fb f5 f3 f7 ef 0e d9 00 fe
       -0.021769501 -0.010884751 -0.03809663 -0.054423753 -0.016327126 0.065308504 0.08163563 -0.027211877 -0.05986613 -0.07075088 -0.048981376 -0.09252038 0.07619326 -0.21225263 0.0 -0.010884751
0000a0 1e 12 f5 dd 08 fa fc 0f f1 fd 0f f7 0d 03 10 09
       0.16327126 0.09796275 -0.05986613 -0.19048314 0.043539003 -0.032654252 -0.021769501 0.08163563 -0.08163563 -0.016327126 0.08163563 -0.048981376 0.07075088 0.016327126 0.087078005 0.048981376
0000b0 d4 01 10 ee f7 01 fd 0f 0e e3 0c ff 09 2d eb 07
       -0.23946452 0.0054423753 0.087078005 -0.09796275 -0.048981376 0.0054423753 -0.016327126 0.08163563 0.07619326 -0.15782888 0.065308504 -0.0054423753 0.048981376 0.24490689 -0.11428988 0.03809663
0000c0 fe 0c fd 08 08 fa f9 0d fa fc 09 f1 e7 01 ea 11
       -0.010884751 0.065308504 -0.016327126 0.043539003 0.043539003 -0.032654252 -0.03809663 0.07075088 -0.032654252 -0.021769501 0.048981376 -0.08163563 -0.13605939 0.0054423753 -0.11973226 0.09252038
0000d0 fc eb 10 f3 01 fa 06 10 06 0b 04 0e 0c d7 04 ee
       -0.021769501 -0.11428988 0.087078005 -0.07075088 0.0054423753 -0.032654252 0.032654252 0.087078005 0.032654252 0.05986613 0.021769501 0.07619326 0.065308504 -0.2231374 0.021769501 -0.09796275
0000e0 21 da 03 f5 06 04 f9 f7 07 08 02 10 0c 14 e7 f2
       0.17959839 -0.20681027 0.016327126 -0.05986613 0.032654252 0.021769501 -0.03809663 -0.048981376 0.03809663 0.043539003 0.010884751 0.087078005 0.065308504 0.10884751 -0.13605939 -0.07619326
0000f0 ed 08 03 f4 fa 02 00 f9 0a fc f8 0f 05 24 0a 0a
       -0.10340513 0.043539003 0.016327126 -0.065308504 -0.032654252 0.010884751 0.0 -0.03809663 0.054423753 -0.021769501 -0.043539003 0.08163563 0.027211877 0.1959255 0.054423753 0.054423753

std.constant17 i1 [68, 128] scale=0.0073655145 zero_point=0
000000 f6 07 f4 10 fb 19 ed 12 e0 0b f0 ec f9 e5 01 0d
       -0.07365514 0.051558603 -0.08838618 0.11784823 -0.03682757 0.18413787 -0.13994478 0.13257927 -0.23569646 0.08102066 -0.11784823 -0.14731029 -0.051558603 -0.19886889 0.0073655145 0.09575169
000010 1c 15 07 f7 e8 f2 1d fd 00 0c 0b ec f6 fa ee 0e
       0.20623441 0.15467581 0.051558603 -0.06628963 -0.17677236 -0.103117205 0.21359992 -0.022096545 0.0 0.08838618 0.08102066 -0.14731029 -0.07365514 -0.04419309 -0.13257927 0.103117205
000020 fd fa e3 14 00 fe 0c f7 03 10 04 07 f3 f2 00 10
       -0.022096545 -0.04419309 -0.21359992 0.14731029 0.0 -0.014731029 0.08838618 -0.06628963 0.022096545 0.11784823 0.029462058 0.051558603 -0.09575169 -0.103117205 0.0 0.11784823
000030 f1 02 ef ef 0f f1 ea 03 ee f8 1c 16 f5 fd e3 e8
       -0.110482715 0.014731029 -0.12521374 -0.12521374 0.110482715 -0.110482715 -0.16204132 0.022096545 -0.13257927 -0.058924116 0.20623441 0.16204132 -0.08102066 -0.022096545 -0.21359992 -0.17677236
000040 09 ef 05 1c 1c 0b 18 ee 04 ee 11 13 0a e3 ee ee
       0.06628963 -0.12521374 0.03682757 0.20623441 0.20623441 0.08102066 0.17677236 -0.13257927 0.029462058 -0.13257927 0.12521374 0.13994478 0.07365514 -0.21359992 -0.13257927 -0.13257927
000050 ea 01 f5 0b 1f 06 eb 05 ff ea fe e8 ef 10 e9 06
       -0.16204132 0.0073655145 -0.08102066 0.08102066 0.22833095 0.04419309 -0.15467581 0.03682757 -0.0073655145 -0.16204132 -0.014731029 -0.17677236 -0.12521374 0.11784823 -0.16940683 0.04419309
000060 12 f0 0f e8 f6 12 0c f2 18 0d ed 00 07 0f f8 fd
       0.13257927 -0.11784823 0.110482715 -0.17677236 -0.07365514 0.13257927 0.08838618 -0.103117205 0.17677236 0.09575169 -0.13994478 0.0 0.051558603 0.110482715 -0.058924116 -0.022096545
000070 ff eb fe e5 16 fa 10 ed f5 1d fc fd 14 dc 0e 0a
       -0.0073655145 -0.15467581 -0.014731029 -0.19886889 0.16204132 -0.04419309 0.11784823 -0.13994478 -0.08102066 0.21359992 -0.029462058 -0.022096545 0.14731029 -0.26515853 0.103117205 0.07365514
000080 06 e9 08 f1 12 f7 09 ff f5 f8 f8 f4 1c f1 fa 06
       0.04419309 -0.16940683 0.058924116 -0.110482715 0.13257927 -0.06628963 0.06628963 -0.0073655145 -0.08102066 -0.058924116 -0.058924116 -0.08838618 0.20623441 -0.110482715 -0.04419309 0.04419309
000090 07 06 00 0a 0b e8 1a ea f0 20 fa f5 03 17 e9 1e
       0.051558603 0.04419309 0.0 0.07365514 0.08102066 -0.17677236 0.19150338 -0.16204132 -0.11784823 0.23569646 -0.04419309 -0.08102066 0.022096545 0.16940683 -0.16940683 0.22096543
0000a0 f2 0b 03 12 0e 11 fa f6 0a 06 21 12 1d 01 18 fc
       -0.103117205 0.08102066 0.022096545 0.13257927 0.103117205 0.12521374 -0.04419309 -0.07365514 0.07365514 0.04419309 0.24306197 0.13257927 0.21359992 0.0073655145 0.17677236 -0.029462058
0000b0 00 0f ec f3 e8 18 01 0e fa f0 15 01 e8 0e 0b fa
       0.0 0.110482715 -0.14731029 -0.09575169 -0.17677236 0.17677236 0.0073655145 0.103117205 -0.04419309 -0.11784823 0.15467581 0.0073655145 -0.17677236 0.103117205 0.08102066 -0.04419309
0000c0 df f5 02 14 15 19 18 08 1a 14 f3 f9 12 11 ef 0c
       -0.24306197 -0.08102066 0.014731029 0.14731029 0.15467581 0.18413787 0.17677236 0.058924116 0.19150338 0.14731029 -0.09575169 -0.051558603 0.13257927 0.12521374 -0.12521374 0.08838618
0000d0 f6 f5 e9 01 fc 05 f3 07 23 01 1d f2 08 04 09 10
       -0.07365514 -0.08102066 -0.16940683 0.0073655145 -0.029462058 0.03682757 -0.09575169 0.051558603 0.257793 0.0073655145 0.21359992 -0.103117205 0.058924116 0.029462058 0.06628963 0.11784823
0000e0 fb 0f 00 e5 01 0f 08 e6 eb 12 e9 1a 23 f5 08 f3
       -0.03682757 0.110482715 0.0 -0.19886889 0.0073655145 0.110482715 0.058924116 -0.19150338 -0.15467581 0.13257927 -0.16940683 0.19150338 0.257793 -0.08102066 0.058924116 -0.09575169
0000f0 f4 f5 06 ee 22 11 01 09 f2 fb f9 00 10 df ec 00
       -0.08838618 -0.08102066 0.04419309 -0.13257927 0.25042748 0.12521374 0.0073655145 0.06628963 -0.103117205 -0.03682757 -0.051558603 0.0 0.11784823 -0.24306197 -0.14731029 0.0

std.constant18 f4 [32, 3, 3, 1]
000000 4d c5 1c bf b8 33 03 bf 61 5c 97 3e 8d 8a be 3d
       -0.6123856 -0.5125079 0.29562667 0.0930377
000010 37 b5 14 3e e2 65 3c be de 4f e7 3e b9 72 b7 3e
       0.14522253 -0.1839824 0.4517812 0.35829714
000020 8e 14 53 be 20 e9 63 bd 64 f9 24 bf c9 c4 07 3f
       -0.2061331 -0.055642247 -0.6444304 0.53034645
000030 06 6b 2a bf 52 93 38 be 92 ee ec bb fa 45 58 3f
       -0.66569555 -0.18024948 -0.0072305882 0.84481776
000040 0f 01 37 3f 33 ca e1 3e 74 d8 2a be 80 91 ab be
       0.7148599 0.44099578 -0.16684133 -0.33509445
000050 75 1b cb be 78 4d 81 be 00 1a e5 3e bc 3e 6e 3e
       -0.39669386 -0.25254416 0.447464 0.23266119
000060 bc 00 19 be 85 36 f1 bd b9 5b 3b be 9b 55 82 3e
       -0.14941686 -0.11777977 -0.18296708 0.25455937
000070 fd eb 23 bf b9 4a 0e bf 3d 3e 85 3e 47 ca ca 3d
       -0.64031965 -0.5558277 0.26024047 0.099018626
000080 be 0d 96 3d fd 7a a7 3d b6 31 4e be a5 bb 51 3f
       0.0732684 0.08177755 -0.2013615 0.8192695
000090 a1 c6 22 bd 22 2c 29 3d 6c 53 d5 3e fd 0c 25 bf
       -0.03974021 0.041301854 0.41665208 -0.64472944
0000a0 8e 11 63 bf 33 8a 6b 3f cd 40 62 3e 4f 16 00 bf
       -0.8869866 0.9200775 0.22095032 -0.5003404
0000b0 70 53 31 3f 63 f1 b3 bc 26 b3 3b bf d8 e5 17 3f
       0.6926794 -0.021965688 -0.73320234 0.5933509
0000c0 9f 75 5b 3e 4e 99 0b bf ae 4a 8d 3e 57 29 29 3f
       0.21431588 -0.545308 0.2759604 0.66078705
0000d0 8a 79 36 3e 26 a8 1e bf 42 e3 e7 3e dc 08 13 3f
       0.17819801 -0.61975324 0.4529057 0.57435393
0000e0 3e c6 52 be 1c ba 3c 3f 8b 28 d2 3e 77 5f 12 bf
       -0.20583436 0.7372148 0.41046557 -0.5717692
0000f0 9d cf a6 3e 94 fc 25 3f 7d f7 8a 3d 49 1c 4f bd
       0.3258027 0.6483853 0.06785486 -0.050564084
000100 7d 51 ec be 16 22 62 3f 66 77 fa 3e 67 ad c4 be
       -0.4615592 0.8833326 0.4891922 -0.38413545
000110 68 e6 c4 3e 4b 0b 8f 3c 74 b8 35 3e 5b 49 8c 3e
       0.38457036 0.01746144 0.17746145 0.27399716
000120 a2 94 46 be a3 02 32 3f 4b 4b 19 3e 79 8b 7b bf
       -0.19392636 0.69535273 0.14970128 -0.98259693
000130 71 fa 8f be d0 5a 4d 3e bf e5 61 be 39 99 85 3f
       -0.2812076 0.20054173 -0.22060297 1.0437385
000140 a7 53 9a be e4 c1 78 3c 91 9f 4d be 2f 33 3f 3f
       -0.30141947 0.015182946 -0.20080401 0.74687475
000150 6e ad 3f 3f 8a 60 86 be 72 43 46 be 15 3a ff 3e
       0.7487401 -0.26245528 -0.19361666 0.49849
000160 29 40 86 bf a6 dd 21 bf 22 df 64 3f 0c 0c 7f 3f
       -1.048833 -0.63228834 0.89402974 0.9962776
000170 ed 4c 9c bd 23 60 c2 3b 46 1e e2 3e 6a 44 5e bf
       -0.0763186 0.0059318705 0.44163722 -0.8682314
000180 7d a6 0c 3f 05 7f 63 3d f0 7a 1a 3e 04 39 28 3e
       0.5494154 0.055541057 0.1508596 0.16428
000190 b9 e8 34 3f 19 29 18 3f 86 c4 8d 3e 38 74 bb be
       0.70667607 0.5943771 0.27688998 -0.36612105
0001a0 0a d5 32 bf 1a d8 17 bf 5f 1c a4 be 62 9c 8e 3d
       -0.6985632 -0.5931412 -0.32052895 0.069634214
0001b0 c1 91 85 3f 91 8c 4e 3e 7e cc 19 3f a3 5d 78 bf
       1.0435106 0.2017081 0.60077655 -0.9701788
0001c0 23 eb 53 3f 9c 49 35 3f 2b 4a 5f 3f d5 4b 55 bf
       0.82780665 0.70815444 0.87222546 -0.83318835
0001d0 53 1d 61 bf 95 17 0a 3f 31 77 8f be 2d 7a dc 3e
       -0.8793537 0.53942233 -0.28020623 0.43061963
0001e0 25 70 82 bc 8f bf a8 3e 87 bd 10 3f d6 c1 28 be
       -0.015922615 0.32958648 0.56539196 -0.16480193
0001f0 f0 b0 c5 bd a8 a0 c9 be e1 44 8a be 61 ec d0 be
       -0.09652889 -0.39380383 -0.27005675 -0.40805343
000200 fc d2 08 3e f8 d8 b2 be 9f 5d 2d 3f dc 39 fd 3e
       0.13361734 -0.3493116 0.6772098 0.49458206
000210 2f f6 c6 3e 8b a2 9a be 4c 70 aa be 5d a8 04 bf
       0.38859698 -0.30202135 -0.332888 -0.518194
000220 ed 6f e5 bd 52 a2 a3 3e ef c4 89 3e 40 86 4c 3f
       -0.11202989 0.31959778 0.2690806 0.7989235
000230 56 76 73 be 5e f4 3b bf 2f 6c 30 3f 98 45 ce 3e
       -0.2377561 -0.7341975 0.68915075 0.4028747
000240 f4 79 5c 3e 7c 94 6b 3c 3c 3f 98 be ca 2e 4c 3f
       0.21530896 0.014378663 -0.29735744 0.79758894
000250 aa c6 21 3e 86 22 de 3d 07 b5 29 bf 6c 8f c0 be
       0.1579844 0.108464286 -0.6629185 -0.37609422
000260 ac 65 3c 3f f5 55 33 be bf 6b 39 3f 23 cd 01 bf
       0.7359264 -0.17513259 0.7243003 -0.5070364
000270 96 4d 12 bd 46 19 97 3e 40 3b 4a 3e 07 27 01 3f
       -0.035718523 0.2951147 0.19749165 0.50450176
000280 17 bc 43 3e 2d 84 43 3f 7f 7b 24 bf 78 02 0d 3f
       0.1911472 0.7637356 -0.6425094 0.5508189
000290 52 d8 23 3f dc 95 70 3f 63 97 b4 3e 90 4f 76 be
       0.64001954 0.9397867 0.3527175 -0.24053788
0002a0 f6 85 6a 3f f4 cd 04 be 33 d5 18 3f 7f ce 3e bf
       0.9161066 -0.1296919 0.59700316 -0.7453384
0002b0 73 77 27 3f bd 12 97 3e fa 19 7a 3f 5a f7 66 be
       0.6541664 0.29506484 0.9769589 -0.22555295
0002c0 4e 0b 1c bf 62 66 fb be 28 3d f6 be 6c d4 36 3e
       -0.6095475 -0.4910155 -0.48093534 0.1785447
0002d0 ce 43 ad be df 8f 39 3f 2d ff 70 bf e7 cd 51 be
       -0.33840793 0.72485155 -0.9413937 -0.20488702
0002e0 31 42 f3 be 6e 48 2a be 57 02 a4 3e 2c e6 79 be
       -0.47511438 -0.16629192 0.32033035 -0.2440421
0002f0 0a 72 66 3f 9e e5 8a bd 89 20 f7 3d 49 dd 02 bf
       0.9001776 -0.06782077 0.120667525 -0.51118904
000300 4c 99 a4 bd bc fe ec be 16 3b 34 be 54 a7 e0 be
       -0.080370516 -0.46288097 -0.17600664 -0.4387766
000310 ea b7 1d 3f 92 89 85 3d a5 46 e2 bd e6 c9 50 be
       0.61608756 0.0652038 -0.110486306 -0.20389518
000320 69 8f 9f 3e cb c0 a4 3c ab b0 22 bf f7 84 2c 3f
       0.311641 0.020111462 -0.63550824 0.6739039
000330 c8 77 ce 3e c8 82 b4 bd c6 9a 87 3d 51 a3 46 bf
       0.4032576 -0.08814007 0.066213176 -0.7759295
000340 ed ca 13 3f 5f ee 8a bd af 8c f2 be 34 6c 92 be
       0.57731515 -0.06783747 -0.47372958 -0.28598177
000350 e3 d0 4c 3f a3 3d 07 bf ab e6 6e 3d ce d6 df 3e
       0.80006236 -0.52828425 0.05832545 0.4371857
000360 18 58 39 be 7e 78 07 be d5 07 23 bf ca fc 0f 3c
       -0.18100011 -0.13229558 -0.63683826 0.008788297
000370 6a d5 3c 3f 6d db 2b bf 1a 9b 11 be 0b b4 4d 3f
       0.73763144 -0.6713169 -0.14219323 0.8035285
000380 07 ed aa bf 4c 26 e6 3e e8 4d b6 3e a2 6a 17 bf
       -1.3353585 0.44951093 0.35606313 -0.59147084
000390 ed f5 8d bd c4 5b a9 3e 75 b4 1c bf 1b 6f 25 3f
       -0.06931672 0.33077824 -0.61212856 0.6462266
0003a0 45 81 ae be 8d 6a 9b 3e cf 34 c6 be a4 07 9a be
       -0.34083 0.3035473 -0.38712165 -0.30083954
0003b0 9a cc 26 bf 2b bb e1 3e b8 c6 89 3e f1 70 56 3e
       -0.6515595 0.4408811 0.26909423 0.20941521
0003c0 e5 9b 44 be 39 8a 46 3d 7a ff 36 3e b3 0b 23 3f
       -0.19200094 0.048471663 0.17870894 0.63689727
0003d0 71 70 b1 bd d9 01 2b 3d 6f ea a0 3e e6 0f 6e bf
       -0.086640246 0.04174981 0.3142886 -0.9299301
0003e0 4a c8 a5 3e f9 0f 5e 3e 03 5a 7f be d9 c1 50 3d
       0.3237937 0.2168578 -0.2493668 0.050966118
0003f0 a0 8c d8 be 3f 21 0a bd 0f 9b 8f 3e 0c 77 8c bb
       -0.42294788 -0.033723112 0.28047988 -0.0042866524
