Android/application/app/src/main/assets/OCR/OCR_model.tflite (tflite, 461056 bytes, 56 tensors)

Dense2/bias f4 [68]
00000000: c819 04bd 6e83 05bd b2c3 11bd 51b8 37bd
00000010: 047e 0abd f3ff 11bd 4fc0 35bd df72 25bd
00000020: 17da 31bd 34b2 22bd cd55 18bd 43d8 4bbd
00000030: 1cb7 27bd 9803 1abd a49d 35bd 79d6 1abd
00000040: 164d 37bd 96a4 293b 38dc a73c 0e76 d03c
00000050: 94b4 fd3c 9d1c 903c 4bd1 cb3c 7c51 b53c
00000060: 574d 19bd d874 24bd c12c e9bc 31c8 07bd
00000070: 7797 2bbd 75fd 21bd 84c3 09bd 1d2e 2dbd
00000080: bc27 1cbd 73a5 06bd 743f 12bd 271f f7bc
00000090: 0a56 0ebd 86bf 13bd 27e7 8d3c 1a29 ff3c
000000a0: 0867 133c 3afb 2e3d 047f 8a3c 0e1e c43c
000000b0: 6da4 12bd 77cd 0ebd a5c2 dbbc a62a 0dbd
000000c0: c17f 2fbd 90c0 153d 7df4 3f3d 32dd 25bd
000000d0: 714c 9b3c ed25 00bd 48c8 26bd 79ba 09bd
000000e0: 966b 04bd 09e0 0dbd 37a4 f9bc 500a 9d3c
000000f0: 6697 8b3c d5c1 cb3b 2a0d 05bd da31 0bbd
00000100: 6e09 00bd 9f27 11bd 620a 18bd 9e4d bf3c
-0.03225115 -0.032596044 -0.03558702 -0.044853512 -0.033811584 -0.035644483 -0.044372853 -0.040392753
-0.043420877 -0.03972073 -0.0371912 -0.04976679 -0.04094611 -0.037601084 -0.04433979 -0.037802193
-0.04475125 0.0025885454 0.02049075 0.025446918 0.030969895 0.017591769 0.024880072 0.022133581
-0.037427273 -0.040150493 -0.028463723 -0.0331499 -0.041892495 -0.039548356 -0.033633724 -0.042280305
-0.03812383 -0.03287263 -0.035705045 -0.030166222 -0.034750022 -0.036071323 0.017322136 0.031147528
0.0089967325 0.042720057 0.016906269 0.023940112 -0.03580134 -0.034863915 -0.026826212 -0.0344645
-0.042846445 0.036560595 0.04686402 -0.04049415 0.018957349 -0.03128617 -0.040718347 -0.0336251
-0.032329164 -0.034637485 -0.030473812 0.019169956 0.017039966 0.006218175 -0.032483257 -0.03398309
-0.031258993 -0.035438176 -0.037119277 0.02335244

Dense1/bias f4 [64]
00000000: 6e30 9c3b 4280 07bc 8adf 8bbb e3a0 23bd
00000010: 3a81 f3bb 58ce a8ba 67e9 b7bc e052 17bc
00000020: 8a0d 80bc e311 b7bc 8c4d 4ebc 9549 793b
00000030: 3b5f eb3c 67cc 98bc 4508 4bbc 54fe 2b3d
00000040: aa83 c7bb 1b8f d5bb c7c9 1fbc ce81 cfbb
00000050: cfec 25bc 5b83 613c 80ea 04bc d217 913d
00000060: bbed 043d df5f 283d cbf5 8fbc 92b8 8ebc
00000070: 0ae9 3cbc ea10 b6bc 7709 e63c 0ea3 3e3c
00000080: a9d4 ccbc f360 48bc ad7c 1f3c 0adb dd3c
00000090: 17e5 81bc a93b fcbb 80b9 af3c 7bc9 d2bb
000000a0: c7b9 a8bb 7ab2 3e3d 2dd0 bbbb dc11 b6bb
000000b0: 65c1 adbb 0299 f53c 3184 54bc c9fe a6bb
000000c0: f169 2fbc 1722 8cbc fa5f 7c3c b47b f6bb
000000d0: 7537 06bc 6f5b b9bc 0156 7a3b 2b3f f0bc
000000e0: 55cc 5fbc 26f4 e4bb b245 0ebd 50cd d9bb
000000f0: 3293 f7bc 5d3b c7bc f5c3 80bc 8cfa 13bd
0.0047665155 -0.008270325 -0.0042685913 -0.039948355 -0.0074311765 -0.0012878878 -0.022450162 -0.0092360675
-0.015631456 -0.022347396 -0.012591731 0.0038038243 0.028731933 -0.018652154 -0.012392108 0.041990593
-0.0060886936 -0.0065173036 -0.009752697 -0.0063326126 -0.01012726 0.013764228 -0.00811255 0.070846215
0.03245328 0.041107055 -0.017573258 -0.017421994 -0.01153017 -0.022224862 0.028080685 0.011635555
-0.025003748 -0.012230146 0.009734315 0.027081985 -0.015856309 -0.0076975417 0.021450758 -0.0064327097
-0.0051490995 0.046556927 -0.0057316036 -0.005556328 -0.0053025954 0.029980186 -0.01297097 -0.0050962907
-0.010706411 -0.017106099 0.015403742 -0.007522071 -0.008191933 -0.022626607 0.0038198235 -0.029326996
-0.013659556 -0.0069871126 -0.034734435 -0.0066467896 -0.030221555 -0.024320299 -0.01571844 -0.036127612

Conv2/bias f4 [64]
00000000: 11bd 35bc 4fcb d13b ade9 afbb 71ff ecbb
00000010: 9bcf ae3b 457f 51bc 6269 ea3a f543 c5bb
00000020: 8512 26bc 1039 293b cc29 49bc a805 5c3d
00000030: 24e9 923d a0ff a23c 359d 77bc ea65 8b3c
00000040: 7814 923d 3077 c23d 0e2f fdbc e0b1 ad3d
00000050: a7de 223c 6c1d 1dbc 75c6 42bc 4b58 a1bc
00000060: 207e b1bb 6150 66bc 1dbe 3fbb e9f6 abbc
00000070: 905f f63a d214 853d 7b04 94bc d1e5 cfbc
00000080: 270a a43d 35fd 003e 52af 5fbc e5cb 523c
00000090: 08a2 d33b 2fc6 3fbc f652 2dbc e0aa 50bc
000000a0: 2b73 03bb 0f37 c5bb 453f 75bc d3f6 67bc
000000b0: 705e 33bc b051 ba3c 50e0 423b 926b 643b
000000c0: 5f83 083d c6ba a3bc 06bc 0abd f970 babc
000000d0: ffda 0d3c 3771 54bc 46d0 623c 4f6b 663c
000000e0: 8b75 98bc ef80 cb3c 74b2 0fbc 235a acbc
000000f0: 5b62 8fbc a98e 9a3d a40f 943d b3bb 07bd
-0.01109244 0.00640241 -0.0053684325 -0.0072325994 0.005334807 -0.012786691 0.001788419 -0.006020064
-0.010136251 0.0025821365 -0.012278032 0.05371633 0.07173374 0.019897282 -0.015113165 0.01701637
0.0713281 0.094953895 -0.030906226 0.084811926 0.00994078 -0.009589534 -0.011888136 -0.019695422
-0.0054166466 -0.01405725 -0.0029257603 -0.02099176 0.001879679 0.06498112 -0.018068543 -0.02537814
0.08009749 0.12596591 -0.013652639 0.012865995 0.0064585246 -0.0117049655 -0.010578861 -0.012736052
-0.002005766 -0.0060185264 -0.014968698 -0.014157969 -0.010947809 0.02274403 0.0029735751 0.0034854156
0.03332841 -0.019986521 -0.03387072 -0.022758948 0.00865817 -0.012966446 0.013843602 0.01406367
-0.018610736 0.024841754 -0.008770574 -0.021039074 -0.017502954 0.075467415 0.07229546 -0.03313799

Conv1/bias f4 [32]
00000000: 65ad c53d 42b4 44be 1cd4 cd3e fc26 66bd
00000010: d1c7 653c 8a39 86bc df00 20bd de5a 6ebd
00000020: 92da e0bb 212a 0b3b 8af4 4cbd 7b26 9b3d
00000030: cf67 96bd c73d f0bc 397f 31bd 03b0 1ebe
00000040: 3283 93bd 7ee6 4bbd 389c 92bd 5c0b 843e
00000050: 3354 413e 56b5 d93e 01df 99bd 7481 793d
00000060: 76e4 233e 2b7a 4abd f42d 793e 4533 48bd
00000070: b5b8 593c 54b5 9dbd bb7a 823e 02b5 a83c
0.09652213 -0.19209388 0.4020089 -0.056189522 0.014024691 -0.016384859 -0.03906333 -0.058192126
-0.006861993 0.0021234828 -0.050037898 0.07575699 -0.07344019 -0.029326333 -0.04333422 -0.1549683
-0.07202758 -0.04978036 -0.071587026 0.25789917 0.18879776 0.4252116 -0.07513238 0.06091447
0.1600512 -0.049432915 0.24333936 -0.04887702 0.0132886665 -0.07700601 0.2548426 0.020594124

std.constant9 i1 [64, 768] scale=0.0054423753 zero_point=0
00000000: f310 09f9 f0f9 0efa 0cf9 ff07 fdf1 f1f6
00000010: fe05 0105 f90b f306 01fb fef2 fe12 f003
00000020: 0408 0ef6 06fa 0bfc faff 0f06 04fc 0800
00000030: eb01 f1f1 fd05 0a00 f604 fb03 fa24 fcf5
00000040: 05e5 fc0e 0308 0d0b 0310 0b0d 0810 0302
00000050: 04ee f20a 0504 fbf4 10fd 0f14 f000 0b0c
00000060: 2b15 12f0 0af8 0af9 02fa 0a0a 040d 1614
00000070: e806 1410 0e09 0808 f3e4 fc0b 0836 00fe
00000080: f8fd 0d01 0efb 0ef2 0df2 0a04 000e 030f
00000090: fcfe f9f6 fd0c 0ffb f5f3 f7ef 0ed9 00fe
000000a0: 1e12 f5dd 08fa fc0f f1fd 0ff7 0d03 1009
000000b0: d401 10ee f701 fd0f 0ee3 0cff 092d eb07
000000c0: fe0c fd08 08fa f90d fafc 09f1 e701 ea11
000000d0: fceb 10f3 01fa 0610 060b 040e 0cd7 04ee
000000e0: 21da 03f5 0604 f9f7 0708 0210 0c14 e7f2
000000f0: ed08 03f4 fa02 00f9 0afc f80f 0524 0a0a
-0.07075088 0.087078005 0.048981376 -0.03809663 -0.087078005 -0.03809663 0.07619326 -0.032654252
0.065308504 -0.03809663 -0.0054423753 0.03809663 -0.016327126 -0.08163563 -0.08163563 -0.054423753
-0.010884751 0.027211877 0.0054423753 0.027211877 -0.03809663 0.05986613 -0.07075088 0.032654252
0.0054423753 -0.027211877 -0.010884751 -0.07619326 -0.010884751 0.09796275 -0.087078005 0.016327126
0.021769501 0.043539003 0.07619326 -0.054423753 0.032654252 -0.032654252 0.05986613 -0.021769501
-0.032654252 -0.0054423753 0.08163563 0.032654252 0.021769501 -0.021769501 0.043539003 0.0
-0.11428988 0.0054423753 -0.08163563 -0.08163563 -0.016327126 0.027211877 0.054423753 0.0
-0.054423753 0.021769501 -0.027211877 0.016327126 -0.032654252 0.1959255 -0.021769501 -0.05986613
0.027211877 -0.14694414 -0.021769501 0.07619326 0.016327126 0.043539003 0.07075088 0.05986613
0.016327126 0.087078005 0.05986613 0.07075088 0.043539003 0.087078005 0.016327126 0.010884751
0.021769501 -0.09796275 -0.07619326 0.054423753 0.027211877 0.021769501 -0.027211877 -0.065308504
0.087078005 -0.016327126 0.08163563 0.10884751 -0.087078005 0.0 0.05986613 0.065308504
0.23402214 0.11428988 0.09796275 -0.087078005 0.054423753 -0.043539003 0.054423753 -0.03809663
0.010884751 -0.032654252 0.054423753 0.054423753 0.021769501 0.07075088 0.11973226 0.10884751
-0.13061701 0.032654252 0.10884751 0.087078005 0.07619326 0.048981376 0.043539003 0.043539003
-0.07075088 -0.15238652 -0.021769501 0.05986613 0.043539003 0.29388827 0.0 -0.010884751
-0.043539003 -0.016327126 0.07075088 0.0054423753 0.07619326 -0.027211877 0.07619326 -0.07619326
0.07075088 -0.07619326 0.054423753 0.021769501 0.0 0.07619326 0.016327126 0.08163563
-0.021769501 -0.010884751 -0.03809663 -0.054423753 -0.016327126 0.065308504 0.08163563 -0.027211877
-0.05986613 -0.07075088 -0.048981376 -0.09252038 0.07619326 -0.21225263 0.0 -0.010884751
0.16327126 0.09796275 -0.05986613 -0.19048314 0.043539003 -0.032654252 -0.021769501 0.08163563
-0.08163563 -0.016327126 0.08163563 -0.048981376 0.07075088 0.016327126 0.087078005 0.048981376
-0.23946452 0.0054423753 0.087078005 -0.09796275 -0.048981376 0.0054423753 -0.016327126 0.08163563
0.07619326 -0.15782888 0.065308504 -0.0054423753 0.048981376 0.24490689 -0.11428988 0.03809663
-0.010884751 0.065308504 -0.016327126 0.043539003 0.043539003 -0.032654252 -0.03809663 0.07075088
-0.032654252 -0.021769501 0.048981376 -0.08163563 -0.13605939 0.0054423753 -0.11973226 0.09252038
-0.021769501 -0.11428988 0.087078005 -0.07075088 0.0054423753 -0.032654252 0.032654252 0.087078005
0.032654252 0.05986613 0.021769501 0.07619326 0.065308504 -0.2231374 0.021769501 -0.09796275
0.17959839 -0.20681027 0.016327126 -0.05986613 0.032654252 0.021769501 -0.03809663 -0.048981376
0.03809663 0.043539003 0.010884751 0.087078005 0.065308504 0.10884751 -0.13605939 -0.07619326
-0.10340513 0.043539003 0.016327126 -0.065308504 -0.032654252 0.010884751 0.0 -0.03809663
0.054423753 -0.021769501 -0.043539003 0.08163563 0.027211877 0.1959255 0.054423753 0.054423753

std.constant10 i1 [128, 128] scale=0.004736356 zero_point=0
00000000: 150b fb0f e347 14f6 f013 fd0e 1b2c 0bd0
00000010: 29ed 2108 0f11 f413 0904 cef3 0cef f416
00000020: dee3 05e7 0519 f0ee f305 27fb f5e2 fff7
00000030: f1ef 31fd 13ec 164c e8ea e5ed f00e e6e5
00000040: e415 f500 e9fe 1405 f5d2 0ef2 fb0c 160b
00000050: 0ff4 18e8 0911 fcf7 0d08 1803 f5ee 05f4
00000060: fbed 38f8 d204 0907 fb1b ea31 efd4 312e
00000070: 0712 f327 ecf9 0b05 1b12 17f6 dafd 19d2
00000080: ffff 18fe 0300 04fc 0f00 faf3 feee 110e
00000090: 0305 1117 11fa 03ff 0a01 fd06 f603 040c
000000a0: 08fb f9fa 0416 f1f5 06fa 0700 03f1 f6ff
000000b0: 05fd ff0a 0aff f107 020b fffa 0e0a fdf3
000000c0: da0f 02f7 0704 fefc fe09 1104 13fb f801
000000d0: 0afd 0705 18f8 0c00 0103 05fa f8f8 f303
000000e0: 0004 01ea f805 eaf3 fe00 fc0d fa01 0406
000000f0: f8f9 f302 dff2 f305 00e9 f3f9 fd05 02f9
0.09946348 0.052099917 -0.02368178 0.07104534 -0.13735433 0.33628127 0.09472712 -0.04736356
-0.075781696 0.089990765 -0.014209067 0.06630898 0.12788162 0.20839967 0.052099917 -0.22734508
0.19419059 -0.089990765 0.15629974 0.037890848 0.07104534 0.08051805 -0.05683627 0.089990765
0.042627204 0.018945424 -0.23681779 -0.061572626 0.05683627 -0.08051805 -0.05683627 0.104199834
-0.1610361 -0.13735433 0.02368178 -0.118408896 0.02368178 0.118408896 -0.075781696 -0.08525441
-0.061572626 0.02368178 0.18471788 -0.02368178 -0.052099917 -0.14209068 -0.004736356 -0.042627204
-0.07104534 -0.08051805 0.23208144 -0.014209067 0.089990765 -0.09472712 0.104199834 0.35996306
-0.11367254 -0.104199834 -0.12788162 -0.089990765 -0.075781696 0.06630898 -0.12314525 -0.12788162
-0.13261797 0.09946348 -0.052099917 0.0 -0.10893619 -0.009472712 0.09472712 0.02368178
-0.052099917 -0.21787238 0.06630898 -0.06630898 -0.02368178 0.05683627 0.104199834 0.052099917
0.07104534 -0.05683627 0.11367254 -0.11367254 0.042627204 0.08051805 -0.018945424 -0.042627204
0.061572626 0.037890848 0.11367254 0.014209067 -0.052099917 -0.08525441 0.02368178 -0.05683627
-0.02368178 -0.089990765 0.26523593 -0.037890848 -0.21787238 0.018945424 0.042627204 0.03315449
-0.02368178 0.12788162 -0.104199834 0.23208144 -0.08051805 -0.20839967 0.23208144 0.21787238
0.03315449 0.08525441 -0.061572626 0.18471788 -0.09472712 -0.03315449 0.052099917 0.02368178
0.12788162 0.08525441 0.10893619 -0.04736356 -0.17998153 -0.014209067 0.118408896 -0.21787238
-0.004736356 -0.004736356 0.11367254 -0.009472712 0.014209067 0.0 0.018945424 -0.018945424
0.07104534 0.0 -0.028418135 -0.061572626 -0.009472712 -0.08525441 0.08051805 0.06630898
0.014209067 0.02368178 0.08051805 0.10893619 0.08051805 -0.028418135 0.014209067 -0.004736356
0.04736356 0.004736356 -0.014209067 0.028418135 -0.04736356 0.014209067 0.018945424 0.05683627
0.037890848 -0.02368178 -0.03315449 -0.028418135 0.018945424 0.104199834 -0.07104534 -0.052099917
0.028418135 -0.028418135 0.03315449 0.0 0.014209067 -0.07104534 -0.04736356 -0.004736356
0.02368178 -0.014209067 -0.004736356 0.04736356 0.04736356 -0.004736356 -0.07104534 0.03315449
0.009472712 0.052099917 -0.004736356 -0.028418135 0.06630898 0.04736356 -0.014209067 -0.061572626
-0.17998153 0.07104534 0.009472712 -0.042627204 0.03315449 0.018945424 -0.009472712 -0.018945424
-0.009472712 0.042627204 0.08051805 0.018945424 0.089990765 -0.02368178 -0.037890848 0.004736356
0.04736356 -0.014209067 0.03315449 0.02368178 0.11367254 -0.037890848 0.05683627 0.0
0.004736356 0.014209067 0.02368178 -0.028418135 -0.037890848 -0.037890848 -0.061572626 0.014209067
0.0 0.018945424 0.004736356 -0.104199834 -0.037890848 0.02368178 -0.104199834 -0.061572626
-0.009472712 0.0 -0.018945424 0.061572626 -0.028418135 0.004736356 0.018945424 0.028418135
-0.037890848 -0.03315449 -0.061572626 0.009472712 -0.15629974 -0.06630898 -0.061572626 0.02368178
0.0 -0.10893619 -0.061572626 -0.03315449 -0.014209067 0.02368178 0.009472712 -0.03315449

std.constant11 i1 [128, 128] scale=0.0040275385 zero_point=0
00000000: f4d7 1506 0bf6 d6f3 fa34 f201 e212 02d7
00000010: ed12 1013 f7e6 0a2b 1bf9 1302 0909 f004
00000020: e7f6 0a06 0afd 1520 07e6 f8e6 e6d6 0df1
00000030: eaf4 0ed2 fafa 2428 e9ec d206 1418 de03
00000040: f6fc f20a 09fd e8f2 1f19 0510 0cfc f4fa
00000050: 001b f1d8 e5f4 0138 d423 130a 08f5 f2fb
00000060: f412 230a 06ed 0b04 ed0e fa0a f1f4 fb0d
00000070: 1224 2afc 0a0f f803 f8e9 e4ea ecfb f6fc
00000080: 0408 fcf9 fbff 010f 090f f7f2 ed01 fc13
00000090: 02fc 0403 fa02 0e09 02ea eaed fff5 0402
000000a0: 03f2 fe0d 0608 0de8 0b00 e405 07f6 fb04
000000b0: fa16 f800 ea02 0414 19fe 0615 0105 ef04
000000c0: e909 2115 f205 e5f1 0f14 0306 0bff fdfa
000000d0: 0004 09f6 08fc 07ff ff14 fae8 03f3 0dfb
000000e0: f5ff fef8 fb03 05f8 031b f801 f90d f8fa
000000f0: eff1 f8fb fcfd fc05 06ec fefe f9f8 fffe
-0.048330463 -0.16512908 0.084578305 0.024165232 0.04430292 -0.040275384 -0.16915661 -0.052358
-0.024165232 0.209432 -0.05638554 0.0040275385 -0.120826155 0.07249569 0.008055077 -0.16512908
-0.07652323 0.07249569 0.064440615 0.07652323 -0.036247846 -0.104716 0.040275384 0.17318416
0.10874354 -0.02819277 0.07652323 0.008055077 0.036247846 0.036247846 -0.064440615 0.016110154
-0.100688465 -0.040275384 0.040275384 0.024165232 0.040275384 -0.012082616 0.084578305 0.12888123
0.02819277 -0.104716 -0.032220308 -0.104716 -0.104716 -0.16915661 0.052358 -0.060413077
-0.08860584 -0.048330463 0.05638554 -0.18526676 -0.024165232 -0.024165232 0.14499138 0.16110153
-0.09263338 -0.08055077 -0.18526676 0.024165232 0.08055077 0.09666093 -0.1369363 0.012082616
-0.040275384 -0.016110154 -0.05638554 0.040275384 0.036247846 -0.012082616 -0.09666093 -0.05638554
0.12485369 0.100688465 0.020137692 0.064440615 0.048330463 -0.016110154 -0.048330463 -0.024165232
0.0 0.10874354 -0.060413077 -0.16110153 -0.10874354 -0.048330463 0.0040275385 0.22554216
-0.17721169 0.14096385 0.07652323 0.040275384 0.032220308 -0.04430292 -0.05638554 -0.020137692
-0.048330463 0.07249569 0.14096385 0.040275384 0.024165232 -0.07652323 0.04430292 0.016110154
-0.07652323 0.05638554 -0.024165232 0.040275384 -0.060413077 -0.048330463 -0.020137692 0.052358
0.07249569 0.14499138 0.16915661 -0.016110154 0.040275384 0.060413077 -0.032220308 0.012082616
-0.032220308 -0.09263338 -0.11277108 -0.08860584 -0.08055077 -0.020137692 -0.040275384 -0.016110154
0.016110154 0.032220308 -0.016110154 -0.02819277 -0.020137692 -0.0040275385 0.0040275385 0.060413077
0.036247846 0.060413077 -0.036247846 -0.05638554 -0.07652323 0.0040275385 -0.016110154 0.07652323
0.008055077 -0.016110154 0.016110154 0.012082616 -0.024165232 0.008055077 0.05638554 0.036247846
0.008055077 -0.08860584 -0.08860584 -0.07652323 -0.0040275385 -0.04430292 0.016110154 0.008055077
0.012082616 -0.05638554 -0.008055077 0.052358 0.024165232 0.032220308 0.052358 -0.09666093
0.04430292 0.0 -0.11277108 0.020137692 0.02819277 -0.040275384 -0.020137692 0.016110154
-0.024165232 0.08860584 -0.032220308 0.0 -0.08860584 0.008055077 0.016110154 0.08055077
0.100688465 -0.008055077 0.024165232 0.084578305 0.0040275385 0.020137692 -0.06846815 0.016110154
-0.09263338 0.036247846 0.13290878 0.084578305 -0.05638554 0.020137692 -0.10874354 -0.060413077
0.060413077 0.08055077 0.012082616 0.024165232 0.04430292 -0.0040275385 -0.012082616 -0.024165232
0.0 0.016110154 0.036247846 -0.040275384 0.032220308 -0.016110154 0.02819277 -0.0040275385
-0.0040275385 0.08055077 -0.024165232 -0.09666093 0.012082616 -0.052358 0.052358 -0.020137692
-0.04430292 -0.0040275385 -0.008055077 -0.032220308 -0.020137692 0.012082616 0.020137692 -0.032220308
0.012082616 0.10874354 -0.032220308 0.0040275385 -0.02819277 0.052358 -0.032220308 -0.024165232
-0.06846815 -0.060413077 -0.032220308 -0.020137692 -0.016110154 -0.012082616 -0.016110154 0.020137692
0.024165232 -0.08055077 -0.008055077 -0.008055077 -0.02819277 -0.032220308 -0.0040275385 -0.008055077

std.constant12 i1 [128, 128] scale=0.0044748965 zero_point=0
00000000: 07e5 fdf9 3d25 1919 f711 03e4 db06 0d0a
00000010: 00ed ed02 000a 0e02 0002 efe9 1412 0cff
00000020: 120a 0803 0cf7 fcf6 fc10 fe02 effb 0b03
00000030: f413 070b fd01 0cfd f5fe f302 f905 fe1b
00000040: 0fdb 04f8 07fc 0307 19f7 f4ef fe05 f608
00000050: fbfc f702 fcf2 e801 0407 e1ee fc03 f8f8
00000060: f404 07e4 1fed 0b0d 0afc 1902 f0e3 150c
00000070: f507 0e07 0505 dcf4 fefa 0a08 0116 f009
00000080: f801 0002 fc00 fb06 ff03 0ff8 0308 031f
00000090: ff0c fae2 0309 05ec f20f fff8 0a00 04fa
000000a0: 16fc 09fd fe11 0bee ffe2 0603 faf5 ef0f
000000b0: fef6 fbfd fd03 0df4 fef4 10fd ecff 0c09
000000c0: 0d01 fbf5 fc0a fefc fa00 02fc 07e2 1706
000000d0: 0915 f0f4 fb04 fa10 f8fb 05fd f7f4 1106
000000e0: 0119 01fe 00f9 f718 0ffc 0ae7 ff0b ea02
000000f0: 0d01 f803 03ef 0d0b 0aee 02ff f402 05e9
0.031324275 -0.120822206 -0.013424689 -0.031324275 0.27296868 0.16557117 0.11187241 0.11187241
-0.04027407 0.07607324 0.013424689 -0.1252971 -0.16557117 0.026849378 0.058173653 0.044748966
0.0 -0.08502303 -0.08502303 0.008949793 0.0 0.044748966 0.06264855 0.008949793
0.0 0.008949793 -0.07607324 -0.10292262 0.08949793 0.08054814 0.053698756 -0.0044748965
0.08054814 0.044748966 0.03579917 0.013424689 0.053698756 -0.04027407 -0.017899586 -0.044748966
-0.017899586 0.07159834 -0.008949793 0.008949793 -0.07607324 -0.022374483 0.049223863 0.013424689
-0.053698756 0.08502303 0.031324275 0.049223863 -0.013424689 0.0044748965 0.053698756 -0.013424689
-0.049223863 -0.008949793 -0.058173653 0.008949793 -0.031324275 0.022374483 -0.008949793 0.120822206
0.06712345 -0.16557117 0.017899586 -0.03579917 0.031324275 -0.017899586 0.013424689 0.031324275
0.11187241 -0.04027407 -0.053698756 -0.07607324 -0.008949793 0.022374483 -0.044748966 0.03579917
-0.022374483 -0.017899586 -0.04027407 0.008949793 -0.017899586 -0.06264855 -0.10739751 0.0044748965
0.017899586 0.031324275 -0.1387218 -0.08054814 -0.017899586 0.013424689 -0.03579917 -0.03579917
-0.053698756 0.017899586 0.031324275 -0.1252971 0.1387218 -0.08502303 0.049223863 0.058173653
0.044748966 -0.017899586 0.11187241 0.008949793 -0.07159834 -0.129772 0.093972825 0.053698756
-0.049223863 0.031324275 0.06264855 0.031324275 0.022374483 0.022374483 -0.16109627 -0.053698756
-0.008949793 -0.026849378 0.044748966 0.03579917 0.0044748965 0.098447725 -0.07159834 0.04027407
-0.03579917 0.0044748965 0.0 0.008949793 -0.017899586 0.0 -0.022374483 0.026849378
-0.0044748965 0.013424689 0.06712345 -0.03579917 0.013424689 0.03579917 0.013424689 0.1387218
-0.0044748965 0.053698756 -0.026849378 -0.1342469 0.013424689 0.04027407 0.022374483 -0.08949793
-0.06264855 0.06712345 -0.0044748965 -0.03579917 0.044748966 0.0 0.017899586 -0.026849378
0.098447725 -0.017899586 0.04027407 -0.013424689 -0.008949793 0.07607324 0.049223863 -0.08054814
-0.0044748965 -0.1342469 0.026849378 0.013424689 -0.026849378 -0.049223863 -0.07607324 0.06712345
-0.008949793 -0.044748966 -0.022374483 -0.013424689 -0.013424689 0.013424689 0.058173653 -0.053698756
-0.008949793 -0.053698756 0.07159834 -0.013424689 -0.08949793 -0.0044748965 0.053698756 0.04027407
0.058173653 0.0044748965 -0.022374483 -0.049223863 -0.017899586 0.044748966 -0.008949793 -0.017899586
-0.026849378 0.0 0.008949793 -0.017899586 0.031324275 -0.1342469 0.10292262 0.026849378
0.04027407 0.093972825 -0.07159834 -0.053698756 -0.022374483 0.017899586 -0.026849378 0.07159834
-0.03579917 -0.022374483 0.022374483 -0.013424689 -0.04027407 -0.053698756 0.07607324 0.026849378
0.0044748965 0.11187241 0.0044748965 -0.008949793 0.0 -0.031324275 -0.04027407 0.10739751
0.06712345 -0.017899586 0.044748966 -0.11187241 -0.0044748965 0.049223863 -0.098447725 0.008949793
0.058173653 0.0044748965 -0.03579917 0.013424689 0.013424689 -0.07607324 0.058173653 0.049223863
0.044748966 -0.08054814 0.008949793 -0.0044748965 -0.053698756 0.008949793 0.022374483 -0.10292262

std.constant13 i1 [128, 128] scale=0.0041303276 zero_point=0
00000000: f90c f527 e6db 0afd 144d 3b1c f911 0de0
00000010: 0b10 13ef fb00 243a 08f7 10fc dcf7 f005
00000020: fdf1 e5f2 21f4 0b02 05f1 ea07 07e8 f802
00000030: f0ed eed9 f00c 0d29 d90f 00ee fdfa e5e3
00000040: 1a09 fbf5 f9fa 18b9 25d1 f70a 3be5 0d09
00000050: ecff fdc7 bb0a fff0 f1f4 1a43 0f09 05ff
00000060: 0505 31ff e805 342d 2afd f4e5 0bb8 0418
00000070: 12f2 11ef f9fb fe1a f9f8 0b05 ea09 03e1
00000080: 0ef0 16ee 10fc f71a 01de 12de 0de1 122a
00000090: 0101 fbef fc11 caf0 110c ee09 1107 d80a
000000a0: 1404 11f3 e7ff f505 0914 0bf8 00fb 0413
000000b0: 0c2b f932 05ff ffe9 ff0c e708 0908 f019
000000c0: 01ee 0a04 11ef 0039 e723 e7f7 0b2f fff2
000000d0: f7df 1731 f204 0d0a f11a ea00 f2fc 01f5
000000e0: e9e6 0d26 ea1c f0e7 06f5 f921 1d13 fe05
000000f0: fbf9 0703 f609 13fe 0d00 1104 f213 04fe
-0.028912293 0.04956393 -0.045433603 0.16108277 -0.10738852 -0.15282212 0.041303277 -0.012390982
0.082606554 0.31803522 0.24368933 0.11564917 -0.028912293 0.07021557 0.05369426 -0.13217048
0.045433603 0.06608524 0.07847623 -0.07021557 -0.020651639 0.0 0.14869179 0.239559
0.03304262 -0.037172947 0.06608524 -0.01652131 -0.14869179 -0.037172947 -0.06608524 0.020651639
-0.012390982 -0.061954916 -0.111518845 -0.057824586 0.13630082 -0.04956393 0.045433603 0.008260655
0.020651639 -0.061954916 -0.09086721 0.028912293 0.028912293 -0.09912786 -0.03304262 0.008260655
-0.06608524 -0.07847623 -0.074345894 -0.16108277 -0.06608524 0.04956393 0.05369426 0.16934343
-0.16108277 0.061954916 0.0 -0.074345894 -0.012390982 -0.024781965 -0.111518845 -0.1197795
0.10738852 0.037172947 -0.020651639 -0.045433603 -0.028912293 -0.024781965 0.09912786 -0.29325327
0.15282212 -0.1941254 -0.037172947 0.041303277 0.24368933 -0.111518845 0.05369426 0.037172947
-0.082606554 -0.0041303276 -0.012390982 -0.23542868 -0.2849926 0.041303277 -0.0041303276 -0.06608524
-0.061954916 -0.04956393 0.10738852 0.27673194 0.061954916 0.037172947 0.020651639 -0.0041303276
0.020651639 0.020651639 0.20238605 -0.0041303276 -0.09912786 0.020651639 0.21477704 0.18586475
0.17347376 -0.012390982 -0.04956393 -0.111518845 0.045433603 -0.29738358 0.01652131 0.09912786
0.074345894 -0.057824586 0.07021557 -0.07021557 -0.028912293 -0.020651639 -0.008260655 0.10738852
-0.028912293 -0.03304262 0.045433603 0.020651639 -0.09086721 0.037172947 0.012390982 -0.12804015
0.057824586 -0.06608524 0.09086721 -0.074345894 0.06608524 -0.01652131 -0.037172947 0.10738852
0.0041303276 -0.14043114 0.074345894 -0.14043114 0.05369426 -0.12804015 0.074345894 0.17347376
0.0041303276 0.0041303276 -0.020651639 -0.07021557 -0.01652131 0.07021557 -0.22303769 -0.06608524
0.07021557 0.04956393 -0.074345894 0.037172947 0.07021557 0.028912293 -0.16521311 0.041303277
0.082606554 0.01652131 0.07021557 -0.05369426 -0.10325819 -0.0041303276 -0.045433603 0.020651639
0.037172947 0.082606554 0.045433603 -0.03304262 0.0 -0.020651639 0.01652131 0.07847623
0.04956393 0.1776041 -0.028912293 0.20651639 0.020651639 -0.0041303276 -0.0041303276 -0.09499753
-0.0041303276 0.04956393 -0.10325819 0.03304262 0.037172947 0.03304262 -0.06608524 0.10325819
0.0041303276 -0.074345894 0.041303277 0.01652131 0.07021557 -0.07021557 0.0 0.23542868
-0.10325819 0.14456147 -0.10325819 -0.037172947 0.045433603 0.1941254 -0.0041303276 -0.057824586
-0.037172947 -0.13630082 0.09499753 0.20238605 -0.057824586 0.01652131 0.05369426 0.041303277
-0.061954916 0.10738852 -0.09086721 0.0 -0.057824586 -0.01652131 0.0041303276 -0.045433603
-0.09499753 -0.10738852 0.05369426 0.15695246 -0.09086721 0.11564917 -0.06608524 -0.10325819
0.024781965 -0.045433603 -0.028912293 0.13630082 0.1197795 0.07847623 -0.008260655 0.020651639
-0.020651639 -0.028912293 0.028912293 0.012390982 -0.041303277 0.037172947 0.07847623 -0.008260655
0.05369426 0.0 0.07021557 0.01652131 -0.057824586 0.07847623 0.01652131 -0.008260655

std.constant14 f4 [128]
00000000: 62a0 863b db23 e53b 6930 e5ba 9a5e 7d3b
00000010: ec6c 943d 35e9 983d 407f 2f3c ae95 093c
00000020: 8457 963c 9264 c73d ce96 693c e336 573d
00000030: e69e 40bb 34f1 9dbb 7c10 613c 3a85 853b
00000040: 0817 353b 168c 3e3c 77d1 933b 5e9b 6e3c
00000050: a40d 9f3c bff0 8b3c 5684 e0bc ae72 413d
00000060: 8e50 a03c 6ed9 a23c fe4d a63d 02c1 4d3c
00000070: e9d1 ca3b e4a4 a13c 463f 0a3d fcb0 d63c
00000080: 7874 193d 7e7c 2a3c 3e91 da3c 6a72 a5bc
00000090: cd4d e23b cce5 d73b 93ce 933c f71d 003c
000000a0: 8d42 a33c 8a55 60bc 2c52 653d 2045 823b
000000b0: 9cc2 9bbc 3c32 3bbc cf0d 573c c893 053c
000000c0: 9531 cbba d78d 143c 9e78 e13c 5021 ea3d
000000d0: eaef 123c 2b91 39bd 79fb ae3c 0742 903d
000000e0: 2a32 db3c 5f09 b4bc 6539 9f3d 8a25 e33c
000000f0: 5888 8c3c cc63 0b3b e5da c13d 00de 723c
00000100: 737a 923c b130 8e3c bff3 d03a c380 d23c
00000110: b04a 193c dcda 6b3c 2e67 ca3c b371 0c3d
00000120: d05b f43c 33b2 5e3d 18cf 793c 1abf 5f3d
00000130: 37b3 2dbd ffc8 243d df95 5e3c 1381 6f3c
00000140: 5397 a33c 943c 903d 96d4 793c c6ef 8e3d
00000150: 1ade b63b 8022 413c f4db 1a3d 0c06 2ebc
00000160: dcdb 623b 2e8e 94bb 2dd9 94ba 4469 2c3d
00000170: a0e7 283c 1b1e 31bc 07df 893c 27c1 163d
00000180: aa30 b03c c87f 8f3c f720 e03d 7745 113d
00000190: 4eed 86ba bedc 433d b995 8b3d 9b5b 543c
000001a0: 3a26 e33c d11b e13c e7a4 983c 0deb 053e
000001b0: 4bcc 47bb 20cf efbc eb83 293c 5ce4 0f3d
000001c0: 3a71 ca3c c71a 973c 751f 4b3b 4469 243d
000001d0: 0585 813c c1ca bbbc 5845 973d 1328 943c
000001e0: 828d ce3d 2abf c63d 01e3 e139 1d6d d33b
000001f0: c19b ba3c a06f 913c 0633 4b3c 40a4 053c
0.0041084746 0.0069927997 -0.0017485741 0.0038661123 0.07247338 0.07466356 0.010711491 0.008397503
0.018352278 0.09735979 0.014257146 0.05254258 -0.0029391586 -0.0048200134 0.01373684 0.0040747197
0.0027632136 0.011630079 0.004511054 0.01456341 0.019415684 0.01708257 -0.027406853 0.047228508
0.019569661 0.01987907 0.081203446 0.012558224 0.006189574 0.019731946 0.03375175 0.02620744
0.03746459 0.010405658 0.026680585 -0.020196158 0.006906247 0.006588673 0.018042838 0.007819644
0.019929195 -0.013692269 0.05598657 0.0039755255 -0.019013695 -0.011425551 0.013125851 0.00815291
-0.0015502447 0.00906702 0.027523335 0.11432135 0.008968333 -0.04530446 0.021360146 0.07043844
0.026757319 -0.021977125 0.07774619 0.027727861 0.017154858 0.00212692 0.09465579 0.014823437
0.017880654 0.017357202 0.0015941783 0.025696164 0.009356186 0.014395442 0.024707403 0.03428812
0.029828936 0.054369163 0.015247129 0.054625608 -0.04240724 0.040230747 0.013585537 0.014618176
0.019969618 0.07042804 0.015248438 0.06979327 0.005580676 0.011788011 0.03780742 -0.010621559
0.003461591 -0.0045335507 -0.0011356227 0.042092577 0.01030913 -0.0108104 0.01682998 0.0368053
0.02150758 0.017516986 0.109437875 0.035466637 -0.0010294111 0.047817938 0.06815667 0.012961294
0.027728189 0.027479084 0.018633319 0.13077946 -0.0030486758 -0.02927357 0.010346393 0.03512989
0.024712194 0.018445386 0.0030994092 0.04013945 0.015810499 -0.022923829 0.07386273 0.018085515
0.10085584 0.097044304 0.00043084475 0.0064522163 0.022779347 0.017753422 0.012402302 0.008156836

std.constant15 f4 [128]
00000000: c5f5 723f cb75 7f3f 87ff 763f f5ab 7a3f
00000010: d1d0 703f e2ec 733f 2826 823f cf0f 813f
00000020: b499 823f 404b 743f 5389 7a3f e1d1 7b3f
00000030: 9d06 733f 9747 683f 6290 823f 9ea4 783f
00000040: d0e9 7e3f 68ce 823f b8d1 813f dc11 823f
00000050: 3606 833f 7822 823f 3ac8 733f 5337 803f
00000060: 7396 763f 033f 813f b67a 733f 4dbc 813f
00000070: b8c9 833f d196 7a3f 935f 743f 5c0c 7f3f
00000080: 676e 773f 71f4 7c3f 28c0 803f 329f 773f
00000090: c07d 6f3f cebb 7b3f dac8 823f 8d6a 813f
000000a0: 4de9 7d3f 1c96 723f 48e9 7e3f 5fe2 7d3f
000000b0: d72c 793f 3da2 6f3f 1fea 813f 1c97 813f
000000c0: e53c 7e3f dd37 7c3f 2ec3 813f 2f15 6e3f
000000d0: 2666 7c3f bce2 7a3f 79b8 7c3f 29f3 703f
000000e0: 219f 7c3f bc9c 773f d20e 7e3f 6d29 7a3f
000000f0: 37d1 823f 0c6d 7e3f 2bcc 7f3f bde3 773f
00000100: be8f 7a3f fc02 793f 3400 803f 7856 7d3f
00000110: 4500 823f a932 823f c7f8 813f b807 743f
00000120: 0828 713f b9e3 743f 78fb 823f 20be 783f
00000130: 61cf 7b3f 0205 803f c8dd 803f 50b6 813f
00000140: 18df 803f b251 6d3f def3 813f 6c7b 693f
00000150: 9135 773f 7a8f 7a3f c534 753f e631 853f
00000160: 9ae5 7e3f 76f8 7a3f b405 793f c5ce 713f
00000170: f799 6e3f 9f97 7b3f 5384 813f fed6 7b3f
00000180: dfe9 813f 4385 7c3f fc20 723f f316 733f
00000190: 7939 6d3f 9e2f 6a3f fc76 6e3f 50d3 7c3f
000001a0: eb1b 7b3f 9003 803f 71c4 7e3f 8bfe 723f
000001b0: 5191 7d3f d2a7 793f 0a74 803f 2490 773f
000001c0: 76bd 7f3f 7501 823f 1b06 823f a64d 733f
000001d0: b15b 7b3f 9c9d 803f fa9c 6e3f 4469 7b3f
000001e0: 7f42 723f f9fe 703f b221 7e3f a4b5 7c3f
000001f0: a074 7f3f a530 663f 59b0 833f 8854 7e3f
0.94906265 0.9978911 0.96483654 0.97918636 0.9406863 0.9528333 1.0167894 1.0082949
1.0203156 0.9542732 0.9786579 0.98367125 0.94931966 0.9073424 1.0200312 0.97126186
0.9957552 1.021924 1.0142126 1.01617 1.023627 1.0166769 0.95227396 1.0016884
0.9632332 1.0097355 0.9510912 1.013559 1.0295935 0.9788638 0.95458335 0.99628234
0.96652836 0.9881049 1.0058641 0.9672729 0.93551254 0.9833344 1.0217545 1.0110642
0.99184114 0.947603 0.9957471 0.9917354 0.97334045 0.9360693 1.0149573 1.012424
0.9931167 0.9852274 1.0137689 0.93001074 0.98593366 0.9800222 0.9871898 0.9412103
0.9868031 0.9672353 0.99241364 0.9771946 1.0220097 0.9938514 0.9992091 0.96831876
0.97875583 0.9727018 1.0000062 0.98960066 1.0156332 1.017171 1.0154046 0.9532428
0.9420171 0.9565998 1.0232992 0.9716511 0.9836331 1.0001528 1.0067682 1.0133762
1.0068083 0.9270278 1.0152547 0.9120395 0.9656611 0.9787518 0.95783645 1.0405853
0.99569094 0.9803537 0.9727433 0.9445613 0.9320368 0.9827823 1.0118507 0.9837493
1.0149497 0.9864084 0.9458158 0.9495689 0.9266582 0.9147891 0.93150306 0.9875994
0.98089474 1.0001087 0.99518496 0.9491965 0.9904986 0.975217 1.0035412 0.96704316
0.9989847 1.0156695 1.0158113 0.9504036 0.98186785 1.0048099 0.9320828 0.982075
0.94632715 0.9413906 0.99270165 0.9871466 0.9978733 0.89917976 1.0288192 0.99347734

std.constant16 f4 [128]
00000000: caa9 d5ba 0a7a e73b 1011 0fb8 9445 303c
00000010: 2483 073d 64fa b23b 6192 da3c 0161 d5bb
00000020: 8a04 8c3c 460d 92bc 1338 123c 5751 2c3c
00000030: 25d2 09bc be89 d4bc f90a 9f3c bd33 823c
00000040: 547e 5c3c 0ad7 22bc 356a 4a3c f608 6cbc
00000050: 0301 7e3c 86dd 813c 27ec eebb 934b dbbc
00000060: 8693 b23b fd43 7f3c 7bbb e93b 4c78 10bc
00000070: 5866 aebc 44bd 69bb 4999 bc3c 3192 123c
00000080: 162a 5f3a 8df3 aa3c 7191 4fbc f22c 073d
00000090: 915c 0039 77ba 7bbc 7902 adbc e725 20bc
000000a0: 26ee 6cbb fa06 613c a72f 793b 245f d73c
000000b0: 65c7 cf3b cb55 073c fa21 49bc 9a07 5c3c
000000c0: 9221 ab3c 691e f4bc d8af 85bc 3d0e 633d
000000d0: e53d 953b 567b 743b 9c0f 0c3b 6079 5b3b
000000e0: 46a6 61bc 886a af3b a3e6 2bbd 4d73 a3bc
000000f0: 1ab5 73bc 1efd 94bb 6fbd 453d c588 29bb
00000100: 998b b33c 9063 113c 5e54 e6bb 4105 9ebc
00000110: 818c 87bc 706a 663c 5f24 8c3c bb4e bbbc
00000120: 623e d4bc 047c 3d3b ab56 903c a434 63bc
00000130: a926 173c f80d 8a3c fb93 943c e5a9 833c
00000140: ff05 423c 723e 49bd 2c28 843c 0c32 663d
00000150: 68af 6ebb 83f2 053d a304 50bd c2f7 92bc
00000160: ed26 593c 728d e9bb 41ea 65bc f7f1 cd3c
00000170: 8bca 81bc 2e23 333c cd9d 4d3c 8343 25bc
00000180: 4b6b 63bc f5f0 edbb 95da 0cbd 91c3 8abc
00000190: 5605 253c 113f f8bc b837 f23a 5a66 eb3c
000001a0: 71dc 563c 4408 7abb 1ea6 5c3b e6f0 803d
000001b0: 0ad8 d33c 7414 98bc 7f07 7e3c 4497 f2bb
000001c0: 0233 e13b e099 d7bc 9c19 67bc c59b f03b
000001d0: 59e0 a03c 6bfa f4bc b890 0c3b c37b 2d3c
000001e0: 5c4b ebbc 2c71 a9ba 644b 4f3c 8848 89bc
000001f0: 3c7d 393c 0e66 37bc 4d54 5e3c 2603 f5bc
-0.0016301211 0.0070641087 -3.4109748e-05 0.010758776 0.03308405 0.005461978 0.026681127 -0.006511808
0.017092008 -0.017828595 0.008924502 0.01051744 -0.008411919 -0.025944587 0.019414412 0.015893811
0.013457853 -0.009938965 0.012354423 -0.014406433 0.015503171 0.0158527 -0.007291335 -0.026769435
0.005449715 0.0155801745 0.007132945 -0.0088177435 -0.021289036 -0.003566579 0.02302231 0.008945988
0.0008513046 0.020868087 -0.012668953 0.033001848 0.00012241515 -0.015364281 -0.021119343 -0.009774662
-0.003615269 0.0137345735 0.0038022788 0.026290484 0.0063409084 0.008260201 -0.012276167 0.013429547
0.020890031 -0.029799657 -0.0163192 0.0554335 0.0045544975 0.003730496 0.0021371609 0.0033489093
-0.013772553 0.0053532757 -0.041968 -0.01995244 -0.014874721 -0.0045467755 0.04827636 -0.0025868875
0.021917151 0.008873835 -0.0070291003 -0.019289615 -0.01654649 0.014063463 0.017107187 -0.02286469
-0.025908653 0.002891303 0.017619452 -0.013867531 0.009225526 0.016852364 0.018136969 0.016072223
0.01184225 -0.049131818 0.016132437 0.056200072 -0.0036420468 0.03270198 -0.050785672 -0.017940406
0.01325391 -0.0071274573 -0.014032901 0.025139792 -0.01584365 0.01093368 0.01254983 -0.010086897
-0.013880561 -0.0072613903 -0.034388144 -0.016938956 0.010072073 -0.03030351 0.001847974 0.028735328
0.013114081 -0.00381519 0.003366835 0.06295948 0.025859851 -0.01856444 0.015504717 -0.007403286
0.0068725357 -0.02631849 -0.014105227 0.007342788 0.019638227 -0.029904565 0.0021448564 0.010588589
-0.028722458 -0.0012927405 0.012652252 -0.016758218 0.011321362 -0.011193765 0.013569904 -0.029908728

std.constant17 f4 [128]
00000000: eba7 0c3c 2885 9abc a011 cbbc 5378 b43c
00000010: 8efc 243d 1a5a 8c3d 3f1b 5a3c 2279 a7bc
00000020: 2970 dbbb 22f7 a43c e3c5 df3c 19fd 293d
00000030: 0842 073d 4826 7abc fba1 e3bc 3cd5 e23b
00000040: f1de c33b d5e1 51bc 1c99 04bd f2a7 e53b
00000050: baf3 9f3c 9d28 4fba a1ed 7c3b 17ca 493d
00000060: 7abe ac3c b92b f8ba b9e0 6e3d 4067 86bb
00000070: cacd 07bd 5a7f c63c 1922 803d 3224 163c
00000080: 7f98 bc3c d757 703c 8cf5 01bc 6039 123c
00000090: be6e 193d 5308 6b3c 2c5a 57bc 7d78 a6bc
000000a0: f95d a93c d1b2 633d f21f c33c 0454 45b9
000000b0: c6c0 453b 3952 883c 33fd 36bb 59a8 963b
000000c0: 073b 37bb 2eea c73c 560a 333d 5860 8d3d
000000d0: 4c54 1d3c 80b1 35bb 0e0b ef3b a92b ae3d
000000e0: af04 d93c b9a5 df3b e148 87bc 66a6 9a3c
000000f0: 52e3 77bc 3266 c1bc 02d4 af3d 5139 ba3b
00000100: b84c 053c 67bf 643d 5468 d03b 4337 3d3c
00000110: d1ef ceba ee64 d13b 2738 0f3c 84f0 363d
00000120: 5660 d03c 1c30 503c 0f10 fdbb 38e5 443d
00000130: 5f9a 5d3c 2ba1 9d3c 2484 bfbb 2b54 bfbb
00000140: f3ff 953c 83c5 153d 7d67 d93a 8761 603d
00000150: 73d2 1e3b a45d 033d b67d 393d 8a6f ebbc
00000160: bda0 433d 4e46 3a3b 418f 193d 67da 23bd
00000170: f4d5 ad3c 6797 66bc 91c3 da3a 685c c8bc
00000180: f279 883b aec7 353b bf42 093e 086f 7b3c
00000190: 5aa0 61bc ffd3 2538 a99d 8d3d c3c7 093d
000001a0: 0034 353d ebb3 933d 2b25 9e3c 00bb fa3d
000001b0: 9c1c 95bd da25 7c3d 617f e43b 94ef 9e3b
000001c0: d6a2 45bd 49bd bc3b e533 313c c167 373d
000001d0: 2ec1 7b3c c750 be3b 19b1 023d 210c a73c
000001e0: 8bec 9e3d bac1 833d 9468 45bb a02f 93b9
000001f0: 7ed5 ff3c 04ef 3f3c 55df 583b 0cc3 a1bc
0.008584957 -0.018862322 -0.024788678 0.022030031 0.040279917 0.06853123 0.01331216 -0.020443503
-0.00669672 0.020137373 0.02731604 0.04150114 0.033021957 -0.015267916 -0.0277872 0.006922392
0.0059775044 -0.01281019 -0.03237258 0.007008546 0.019525398 -0.0007902475 0.0038593786 0.049264994
0.02108692 -0.0018933929 0.05831978 -0.004101664 -0.03315524 0.024230648 0.062565036 0.009163903
0.023021935 0.01466938 -0.007932078 0.008924812 0.037459128 0.014345246 -0.013144057 -0.020321125
0.020674692 0.055590454 0.023818944 -0.00018818682 0.0030174716 0.01664077 -0.0027921915 0.0045977053
-0.0027958767 0.024403658 0.04371103 0.06903142 0.0096026175 -0.0027724206 0.007295019 0.08504421
0.026491491 0.0068251756 -0.016514244 0.018878173 -0.015129881 -0.0236083 0.08585359 0.005683102
0.008135967 0.055846598 0.006360093 0.01154882 -0.0015788024 0.0063902056 0.008741415 0.044662967
0.025436562 0.012706783 -0.0077228616 0.048070163 0.0135255745 0.01924189 -0.00584461 -0.005838891
0.018310523 0.036565315 0.0016586628 0.05478051 0.0024234324 0.032071725 0.045285903 -0.02873971
0.047760714 0.0028423253 0.037490133 -0.040003207 0.021220185 -0.014074183 0.0016690363 -0.024458125
0.0041649276 0.0027737427 0.13404368 0.015346296 -0.013771141 3.9536502e-05 0.06914837 0.033637773
0.044239044 0.07212051 0.019304832 0.12242699 -0.072808474 0.061559536 0.0069731926 0.0048503373
-0.048250996 0.0057598692 0.010815595 0.04477668 0.015365882 0.0058079693 0.031907175 0.020391526
0.07759961 0.06433435 -0.0030122148 -0.00028073508 0.03122973 0.011714701 0.00330921 -0.019746326

std.constant18 i1 [128, 64] scale=0.0028525721 zero_point=0
00000000: f411 fee5 0be1 d7e1 f40e 1515 eff8 07da
00000010: fe0b 1209 f80b 24f0 ebbf f318 ed0e d8ef
00000020: 2e11 e8ff 1718 f8f7 0fea e523 06dd fbfe
00000030: ffd8 361d f209 1115 eef8 15f8 11fc 0333
00000040: e0fe ede7 0d0b 220a 181b ffec 0306 e1de
00000050: e303 df1b 04cd 1600 0ff8 e400 1ef8 f3fa
00000060: f21e 1c21 f3ed 03e1 faea 1aec e7f6 17ff
00000070: 12fa efee 16e4 07f4 f0e2 1102 f0ff 0f08
00000080: e9ee ece5 1609 02f7 fa34 2cfb 0af5 23ff
00000090: 12f8 fbe5 ea03 0a2d f7ea e500 06f3 dde0
000000a0: dee3 071e f30d fded 160c 201b e5ef ea1c
000000b0: 0dd9 03f1 f6df 2424 f9f7 211e 14f4 0f43
000000c0: fa10 1aea fef2 0ff0 e301 08e4 d3f9 e015
000000d0: f0ea f1f2 f43f f0cb 0d22 03e9 fe25 1802
000000e0: 1f1b fd08 1604 ef24 f51f e90f 0913 0200
000000f0: e006 d506 22e3 3e2c 110a b2f5 ddf2 d6ee
-0.034230866 0.048493728 -0.0057051443 -0.077019446 0.03137829 -0.088429734 -0.11695546 -0.088429734
-0.034230866 0.03993601 0.059904017 0.059904017 -0.048493728 -0.022820577 0.019968005 -0.10839774
-0.0057051443 0.03137829 0.0513463 0.02567315 -0.022820577 0.03137829 0.1026926 -0.045641154
-0.059904017 -0.18541719 -0.03708344 0.06846173 -0.05419887 0.03993601 -0.114102885 -0.048493728
0.13121831 0.048493728 -0.06846173 -0.0028525721 0.06560916 0.06846173 -0.022820577 -0.02567315
0.04278858 -0.06275658 -0.077019446 0.09984002 0.017115433 -0.09984002 -0.014262861 -0.0057051443
-0.0028525721 -0.114102885 0.15403889 0.08272459 -0.03993601 0.02567315 0.048493728 0.059904017
-0.0513463 -0.022820577 0.059904017 -0.022820577 0.048493728 -0.0114102885 0.008557716 0.14548118
-0.09128231 -0.0057051443 -0.05419887 -0.071314305 0.03708344 0.03137829 0.096987456 0.028525721
0.06846173 0.077019446 -0.0028525721 -0.057051443 0.008557716 0.017115433 -0.088429734 -0.096987456
-0.08272459 0.008557716 -0.09413488 0.077019446 0.0114102885 -0.14548118 0.06275658 0.0
0.04278858 -0.022820577 -0.07987202 0.0 0.08557716 -0.022820577 -0.03708344 -0.017115433
-0.03993601 0.08557716 0.07987202 0.09413488 -0.03708344 -0.05419887 0.008557716 -0.088429734
-0.017115433 -0.06275658 0.07416688 -0.057051443 -0.071314305 -0.028525721 0.06560916 -0.0028525721
0.0513463 -0.017115433 -0.048493728 -0.0513463 0.06275658 -0.07987202 0.019968005 -0.034230866
-0.045641154 -0.08557716 0.048493728 0.0057051443 -0.045641154 -0.0028525721 0.04278858 0.022820577
-0.06560916 -0.0513463 -0.057051443 -0.077019446 0.06275658 0.02567315 0.0057051443 -0.02567315
-0.017115433 0.14833376 0.12551317 -0.014262861 0.028525721 -0.03137829 0.09984002 -0.0028525721
0.0513463 -0.022820577 -0.014262861 -0.077019446 -0.06275658 0.008557716 0.028525721 0.12836574
-0.02567315 -0.06275658 -0.077019446 0.0 0.017115433 -0.03708344 -0.09984002 -0.09128231
-0.096987456 -0.08272459 0.019968005 0.08557716 -0.03708344 0.03708344 -0.008557716 -0.05419887
0.06275658 0.034230866 0.09128231 0.077019446 -0.077019446 -0.048493728 -0.06275658 0.07987202
0.03708344 -0.11125031 0.008557716 -0.04278858 -0.028525721 -0.09413488 0.1026926 0.1026926
-0.019968005 -0.02567315 0.09413488 0.08557716 0.057051443 -0.034230866 0.04278858 0.19112234
-0.017115433 0.045641154 0.07416688 -0.06275658 -0.0057051443 -0.03993601 0.04278858 -0.045641154
-0.08272459 0.0028525721 0.022820577 -0.07987202 -0.12836574 -0.019968005 -0.09128231 0.059904017
-0.045641154 -0.06275658 -0.04278858 -0.03993601 -0.034230866 0.17971204 -0.045641154 -0.15118632
0.03708344 0.096987456 0.008557716 -0.06560916 -0.0057051443 0.10554517 0.06846173 0.0057051443
0.088429734 0.077019446 -0.008557716 0.022820577 0.06275658 0.0114102885 -0.048493728 0.1026926
-0.03137829 0.088429734 -0.06560916 0.04278858 0.02567315 0.05419887 0.0057051443 0.0
-0.09128231 0.017115433 -0.1226606 0.017115433 0.096987456 -0.08272459 0.17685947 0.12551317
0.048493728 0.028525721 -0.22250062 -0.03137829 -0.09984002 -0.03993601 -0.11980803 -0.0513463

std.constant19 i1 [128, 64] scale=0.003236523 zero_point=0
00000000: 19fa f712 04f7 0eff fc07 0141 f5e4 fff1
00000010: 1516 fa19 1014 ed15 240f f516 f914 ebe0
00000020: 00e6 e9e6 ff1c cdff 0509 e606 e829 e0f5
00000030: 1710 18e2 1d05 f9f8 03fb e416 eff9 08e0
00000040: 11e8 0ef2 fff8 01e4 0f16 e1ff 0920 10e8
00000050: 000e f6e4 1d14 1de4 f815 ea08 01eb 0506
00000060: 03f3 fafd fd1c 12f8 f0ea fee4 fcee f7ec
00000070: eeeb 1d0c f8eb 1704 0621 1ae5 09e2 f31d
00000080: fe21 18ec 2507 001c 03fc 071e fa17 16ef
00000090: 03e8 00f8 1601 f7ee 0d1b 12fe f314 0deb
000000a0: 0e0d e002 e9f5 1b01 0ce5 1800 1d1b e2fe
000000b0: 1de8 f81a 1ae1 14e5 fd17 10f6 081e 0908
000000c0: 09f0 1fe2 e51e 0112 e217 12fd e1f5 e7f0
000000d0: f301 11f0 ec09 09e7 0028 1a0a e013 dcf8
000000e0: f11b e711 1df4 edf4 0bed f40c f413 17fb
000000f0: 0f2e 2114 13f6 0027 00e3 bef6 d313 0310
0.080913074 -0.019419137 -0.029128706 0.058257412 0.012946092 -0.029128706 0.04531132 -0.003236523
-0.012946092 0.02265566 0.003236523 0.21037398 -0.03560175 -0.09062264 -0.003236523 -0.04854784
0.06796698 0.0712035 -0.019419137 0.080913074 0.051784366 0.06473046 -0.061493933 0.06796698
0.116514824 0.04854784 -0.03560175 0.0712035 -0.02265566 0.06473046 -0.06796698 -0.10356873
0.0 -0.0841496 -0.074440025 -0.0841496 -0.003236523 0.09062264 -0.16506267 -0.003236523
0.016182614 0.029128706 -0.0841496 0.019419137 -0.07767655 0.13269743 -0.10356873 -0.03560175
0.074440025 0.051784366 0.07767655 -0.09709568 0.093859166 0.016182614 -0.02265566 -0.025892183
0.009709569 -0.016182614 -0.09062264 0.0712035 -0.05502089 -0.02265566 0.025892183 -0.10356873
0.05502089 -0.07767655 0.04531132 -0.04531132 -0.003236523 -0.025892183 0.003236523 -0.09062264
0.04854784 0.0712035 -0.10033221 -0.003236523 0.029128706 0.10356873 0.051784366 -0.07767655
0.0 0.04531132 -0.03236523 -0.09062264 0.093859166 0.06473046 0.093859166 -0.09062264
-0.025892183 0.06796698 -0.0712035 0.025892183 0.003236523 -0.06796698 0.016182614 0.019419137
0.009709569 -0.0420748 -0.019419137 -0.009709569 -0.009709569 0.09062264 0.058257412 -0.025892183
-0.051784366 -0.0712035 -0.006473046 -0.09062264 -0.012946092 -0.058257412 -0.029128706 -0.06473046
-0.058257412 -0.06796698 0.093859166 0.038838275 -0.025892183 -0.06796698 0.074440025 0.012946092
0.019419137 0.10680526 0.0841496 -0.08738612 0.029128706 -0.09709568 -0.0420748 0.093859166
-0.006473046 0.10680526 0.07767655 -0.06473046 0.11975135 0.02265566 0.0 0.09062264
0.009709569 -0.012946092 0.02265566 0.09709568 -0.019419137 0.074440025 0.0712035 -0.05502089
0.009709569 -0.07767655 0.0 -0.025892183 0.0712035 0.003236523 -0.029128706 -0.058257412
0.0420748 0.08738612 0.058257412 -0.006473046 -0.0420748 0.06473046 0.0420748 -0.06796698
0.04531132 0.0420748 -0.10356873 0.006473046 -0.074440025 -0.03560175 0.08738612 0.003236523
0.038838275 -0.08738612 0.07767655 0.0 0.093859166 0.08738612 -0.09709568 -0.006473046
0.093859166 -0.07767655 -0.025892183 0.0841496 0.0841496 -0.10033221 0.06473046 -0.08738612
-0.009709569 0.074440025 0.051784366 -0.03236523 0.025892183 0.09709568 0.029128706 0.025892183
0.029128706 -0.051784366 0.10033221 -0.09709568 -0.08738612 0.09709568 0.003236523 0.058257412
-0.09709568 0.074440025 0.058257412 -0.009709569 -0.10033221 -0.03560175 -0.080913074 -0.051784366
-0.0420748 0.003236523 0.05502089 -0.051784366 -0.06473046 0.029128706 0.029128706 -0.080913074
0.0 0.12946092 0.0841496 0.03236523 -0.10356873 0.061493933 -0.116514824 -0.025892183
-0.04854784 0.08738612 -0.080913074 0.05502089 0.093859166 -0.038838275 -0.061493933 -0.038838275
0.03560175 -0.061493933 -0.038838275 0.038838275 -0.038838275 0.061493933 0.074440025 -0.016182614
0.04854784 0.14888005 0.10680526 0.06473046 0.061493933 -0.03236523 0.0 0.1262244
0.0 -0.093859166 -0.21361051 -0.03236523 -0.14564353 0.061493933 0.009709569 0.051784366

std.constant20 i1 [128, 64] scale=0.0022126369 zero_point=0
00000000: 080f 0fea f313 0ae5 48ee f9e9 f30a 122c
00000010: 15d5 de0b e62a 2af9 fe20 e722 2113 eff4
00000020: dbe6 e8bb 1d1a ae0d 11c5 d6fc e2f3 e6f0
00000030: 12ea e502 f0ff bee1 13f0 4927 3cda e0e8
00000040: 002e df18 fdd9 0819 0ff1 0ee6 1f18 21e7
00000050: 19f6 d608 efd6 f002 10f2 dd04 e3f7 310d
00000060: fbe1 2021 001b f628 11d8 f9dd 2402 dcd6
00000070: 0410 0d25 1822 0f12 ebfb 1ef2 0017 0cf0
00000080: 07f6 d019 e815 11e1 f7fd 360a 0010 21df
00000090: 1fe7 fa03 11fe 01f6 dee5 efdb e630 0200
000000a0: 3d29 13f9 17e0 fa18 2310 052f 2bf1 ede8
000000b0: 0712 fa1d f9fa d9f6 0bea d820 dc10 10e5
000000c0: 0d09 1f07 35df 1bf9 2c01 28ec ff15 f00d
000000d0: ea1c 0216 0e04 f7f6 0415 fd14 1f2f d831
000000e0: e2dc feea e51b f8f3 01f5 e0ee e12a ef03
000000f0: f318 e118 1b04 dde7 d920 ead6 2e26 0806
0.017701095 0.033189554 0.033189554 -0.04867801 -0.02876428 0.042040102 0.02212637 -0.059741195
0.15930985 -0.039827462 -0.015488458 -0.050890647 -0.02876428 0.02212637 0.039827462 0.09735602
0.046465375 -0.095143385 -0.07522965 0.024339005 -0.05752856 0.09293075 0.09293075 -0.015488458
-0.0044252737 0.07080438 -0.055315923 0.07522965 0.073017016 0.042040102 -0.037614826 -0.026551642
-0.08186756 -0.05752856 -0.053103283 -0.15267195 0.06416647 0.05752856 -0.18143623 0.02876428
0.037614826 -0.13054557 -0.09293075 -0.0088505475 -0.06637911 -0.02876428 -0.05752856 -0.03540219
0.039827462 -0.04867801 -0.059741195 0.0044252737 -0.03540219 -0.0022126369 -0.14603403 -0.06859174
0.042040102 -0.03540219 0.1615225 0.08629284 0.13275822 -0.084080204 -0.07080438 -0.053103283
0.0 0.101781294 -0.073017016 0.053103283 -0.0066379104 -0.08629284 0.017701095 0.055315923
0.033189554 -0.033189554 0.030976916 -0.05752856 0.06859174 0.053103283 0.073017016 -0.055315923
0.055315923 -0.02212637 -0.09293075 0.017701095 -0.037614826 -0.09293075 -0.03540219 0.0044252737
0.03540219 -0.030976916 -0.07744229 0.0088505475 -0.06416647 -0.019913731 0.10841921 0.02876428
-0.011063185 -0.06859174 0.07080438 0.073017016 0.0 0.059741195 -0.02212637 0.08850548
0.037614826 -0.08850548 -0.015488458 -0.07744229 0.079654925 0.0044252737 -0.079654925 -0.09293075
0.0088505475 0.03540219 0.02876428 0.08186756 0.053103283 0.07522965 0.033189554 0.039827462
-0.046465375 -0.011063185 0.06637911 -0.030976916 0.0 0.050890647 0.026551642 -0.03540219
0.015488458 -0.02212637 -0.106206566 0.055315923 -0.053103283 0.046465375 0.037614826 -0.06859174
-0.019913731 -0.0066379104 0.11948239 0.02212637 0.0 0.03540219 0.073017016 -0.073017016
0.06859174 -0.055315923 -0.013275821 0.0066379104 0.037614826 -0.0044252737 0.0022126369 -0.02212637
-0.07522965 -0.059741195 -0.037614826 -0.08186756 -0.05752856 0.106206566 0.0044252737 0.0
0.13497084 0.09071811 0.042040102 -0.015488458 0.050890647 -0.07080438 -0.013275821 0.053103283
0.07744229 0.03540219 0.011063185 0.10399393 0.095143385 -0.033189554 -0.042040102 -0.053103283
0.015488458 0.039827462 -0.013275821 0.06416647 -0.015488458 -0.013275821 -0.08629284 -0.02212637
0.024339005 -0.04867801 -0.08850548 0.07080438 -0.079654925 0.03540219 0.03540219 -0.059741195
0.02876428 0.019913731 0.06859174 0.015488458 0.117269754 -0.073017016 0.059741195 -0.015488458
0.09735602 0.0022126369 0.08850548 -0.04425274 -0.0022126369 0.046465375 -0.03540219 0.02876428
-0.04867801 0.06195383 0.0044252737 0.04867801 0.030976916 0.0088505475 -0.019913731 -0.02212637
0.0088505475 0.046465375 -0.0066379104 0.04425274 0.06859174 0.10399393 -0.08850548 0.10841921
-0.06637911 -0.079654925 -0.0044252737 -0.04867801 -0.059741195 0.059741195 -0.017701095 -0.02876428
0.0022126369 -0.024339005 -0.07080438 -0.039827462 -0.06859174 0.09293075 -0.037614826 0.0066379104
-0.02876428 0.053103283 -0.06859174 0.053103283 0.059741195 0.0088505475 -0.07744229 -0.055315923
-0.08629284 0.07080438 -0.04867801 -0.09293075 0.101781294 0.084080204 0.017701095 0.013275821
