Android/application/app/src/main/assets/OCR/OCR_model.tflite (tflite, 487392 bytes, 24 tensors)

dense2/bias f4 [20]
000000 e9 53 62 bd ad 7a fc bc 40 a5 ec bc 9b 11 6f bc
       -0.055255804 -0.030820215 -0.028887391 -0.0145916
000010 e0 ea fd bc 69 a9 cf 3b 58 61 aa bb 4e b1 fc bb
       -0.030995786 0.006337334 -0.0051995926 -0.007711566
000020 e4 61 e9 bc 18 04 1f bd 16 e1 99 bc c6 8b 70 bc
       -0.02848906 -0.038822263 -0.018784087 -0.014681762
000030 5f 5d 1b bc ef 15 3b 3a dc 73 6d 3b 6c 79 d8 3b
       -0.009482711 0.0007136752 0.0036232388 0.0066062715
000040 db 88 81 bc ac bd 2e 3c 9e 04 d5 bc 57 84 35 3d
       -0.015812328 0.0106653385 -0.026003178 0.044315662

dense1/bias f4 [64]
000000 a0 ad 20 bc f0 be ba bc 14 95 4d bc b2 ac c1 bc
       -0.00980702 -0.022796124 -0.01254775 -0.023641918
000010 90 4d d6 ba 7b 1c ec bc 9d 03 52 bd 8f 89 02 bd
       -0.001635002 -0.028822174 -0.051272977 -0.031869467
000020 71 57 0d bd 59 e1 b4 bc 7e 01 c1 bc dd 3f 63 3d
       -0.03450722 -0.02208011 -0.023560282 0.055480827
000030 48 d3 82 3d a9 54 86 bc 98 89 aa bc 46 a0 f5 bc
       0.06387955 -0.016397791 -0.020817563 -0.02998365
000040 c5 35 56 bc 8f 13 0c bc 97 b5 04 bd b5 8a fa bc
       -0.013074343 -0.008549585 -0.03239974 -0.030583719
000050 df 52 1e bc 66 ac c9 3c 49 28 d5 bc 02 94 85 bb
       -0.009663313 0.024618339 -0.026020186 -0.004076482
000060 59 4d 53 3c c6 a3 fc bc 72 5d a9 bc 3f 7a 0d bd
       0.012896859 -0.030839812 -0.020674441 -0.03454041
000070 dd 51 3a bd 23 ca 8d 3c 09 ba 9a bc ad 8b 81 bc
       -0.045488227 0.0173083 -0.018887537 -0.015813673
000080 8d af 1b bd ed 99 84 bc 65 ef 82 3d 22 c3 a9 bc
       -0.038009215 -0.016186679 0.06393317 -0.02072293
000090 03 06 4b bd 2b 2c 25 bd c8 f7 e5 bc cd 62 96 3d
       -0.04956628 -0.040325325 -0.028072253 0.073430635
0000a0 14 20 84 bc 37 8d 3f 3d 22 85 97 3b 08 72 57 3d
       -0.016128577 0.046765532 0.004624025 0.052598983
0000b0 8f cf ba 3b 06 74 a7 bb 75 3a 09 bd d5 37 3c bd
       0.0057010124 -0.0051102666 -0.033503015 -0.045951683
0000c0 37 0a d6 bc ca ba f0 bc ff 24 c7 bc 8f 98 4e 3d
       -0.026127918 -0.029385943 -0.024309633 0.05043846
0000d0 db 8c a5 bb 69 43 bd bc 87 c4 a4 3d 9a fc f7 bc
       -0.0050521917 -0.023103433 0.08045297 -0.030271817
0000e0 4a ff f1 bb 3f 64 c1 bc 4b 38 09 bd 8b 0f 2b bd
       -0.007385169 -0.023607371 -0.03350095 -0.04176287
0000f0 c6 00 0a bc a4 04 b0 bc 20 97 05 bd b4 29 5f 3d
       -0.008423036 -0.021486588 -0.032614827 0.05448313

bidirectional_1/forward_lstm_1/lstm_cell_4/bias f4 [256]
000000 2d 3c 47 3c 69 88 87 3d 9b c1 14 3c 57 c0 c7 3c
       0.012160343 0.06617815 0.009079362 0.024383707
000010 f5 d9 5b 3d cf 54 1b 3d 6a aa 83 3c bb cf a8 3d
       0.053674657 0.037922677 0.01607247 0.082427464
000020 9e ce 8f 3c 51 53 0b 3d 51 53 9c 3d 51 a1 9f 3c
       0.017554577 0.034015004 0.07633079 0.019486101
000030 90 04 3b 3d 06 f0 d2 3d 18 41 2e 3d d3 5a 96 3d
       0.045658648 0.10299687 0.042542547 0.07341542
000040 c0 e7 a3 3d 0b c5 81 3d c6 5d b7 3d ee 80 e0 3c
       0.08003187 0.06336411 0.08953433 0.027405228
000050 9f b3 75 3d b8 e1 2f 3d 73 6f fd 3b 5a 1a 79 3d
       0.059985753 0.04293987 0.007734233 0.060816146
000060 b7 66 41 3d e7 dd 0d 3d 7b ed 2b 3e 00 b8 78 3d
       0.047217097 0.03463545 0.1678981 0.06072235
000070 f3 ec ac 3d b9 79 f1 3c 1c bc a5 3d fe 31 42 3d
       0.08443632 0.029476987 0.0809252 0.047410958
000080 99 97 41 3d 74 21 7b 3d 62 4a 5b 3c f5 10 46 3d
       0.047263715 0.0613112 0.013384433 0.048356015
000090 a4 02 4a 3d 22 52 cf 3b 27 d9 bc 3c b5 33 a2 3d
       0.049318925 0.0063269297 0.023052765 0.079200186
0000a0 cb ad c0 3c 4b c8 b2 3d 9f ba 2a 3d 3d 36 b7 3d
       0.023520371 0.08729609 0.041681882 0.08945892
0000b0 3a a2 0e 3d bb 91 06 3c bf a5 33 3d 5f c7 1b 3e
       0.03482268 0.008213456 0.04385924 0.15212773
0000c0 de 0b a1 3b 22 27 1b 3d a3 48 5f 3c 4a 75 34 3b
       0.0049147448 0.037879117 0.013628158 0.002753573
0000d0 c1 31 c5 3d d7 63 39 3d 2b 0c 03 3c 20 11 99 3d
       0.096286304 0.04526123 0.007998507 0.074739695
0000e0 ff 64 f9 3c 19 c2 6c 3d dd 28 02 3d 99 62 97 3d
       0.030443667 0.057802293 0.03177725 0.07391853
0000f0 87 ac cb 3d cc 71 56 3d 6c 0e 90 3d b3 a5 1f 3d
       0.09945016 0.05235462 0.07034001 0.038976382
000100 78 0d 81 3f 86 c5 77 3f ff fa 83 3f d6 cb 82 3f
       1.0082235 0.9678577 1.0310973 1.0218456
000110 1f 23 7b 3f 2c 8e 78 3f f1 41 81 3f 60 0b 7b 3f
       0.98100466 0.9709194 1.0098249 0.9806423
000120 95 35 80 3f 00 22 78 3f ce 2c 7e 3f 15 ff 7b 3f
       1.0016352 0.9692688 0.99287117 0.984361
000130 07 29 7b 3f f4 e3 76 3f a9 34 77 3f a9 68 7c 3f
       0.9810948 0.9644158 0.9656473 0.985972
000140 71 9c 74 3f 3e 47 79 3f bf 10 76 3f 88 3b 82 3f
       0.9555121 0.9737433 0.961193 1.0174417
000150 f4 50 7e 3f da 4b 72 3f 67 7d 81 3f df 1b 79 3f
       0.99342275 0.9464699 1.0116395 0.9730815
000160 0d 11 76 3f e3 72 82 3f 5b 10 6c 3f df c0 78 3f
       0.9611977 1.0191311 0.92212456 0.971693
000170 a6 42 73 3f da 5c 82 3f 13 36 79 3f 66 5f 76 3f
       0.9502357 1.0184586 0.97348136 0.96239316
000180 22 22 7e 3f d3 f5 7a 3f 04 09 82 3f e2 d9 6f 3f
       0.9927083 0.9803135 1.0159001 0.9369184
000190 1e b7 80 3f d8 e6 81 3f 8b 6d 82 3f 7e 3f 7e 3f
       1.0055883 1.0148573 1.018968 0.9931563
0001a0 d3 48 81 3f 57 0b 6b 3f 78 62 80 3f fe 8c 70 3f
       1.0100349 0.9181418 1.003005 0.93965137
0001b0 34 4d 82 3f 3a fe 80 3f ba 7f 7d 3f c6 73 76 3f
       1.017981 1.0077584 0.9902302 0.96270406
0001c0 53 a3 81 3f 6a 70 7f 3f 4d 90 80 3f f8 b7 80 3f
       1.0127968 0.99780905 1.0044037 1.0056143
0001d0 5e 9a 7b 3f 87 ed 78 3f 33 71 81 3f 86 58 72 3f
       0.9828242 0.9723744 1.0112671 0.94666326
0001e0 2d 74 82 3f 3a 01 72 3f a3 4a 83 3f 3e 03 7a 3f
       1.0191704 0.9453312 1.0257152 0.976612
0001f0 a7 27 70 3f 8a db 81 3f d6 23 7f 3f b4 51 81 3f
       0.93810505 1.0145123 0.99664056 1.0103059
000200 c5 bf 85 bc 8a bd ec 3c 7b 3b 02 bb 68 2f 04 3d
       -0.016326794 0.028898973 -0.001987188 0.032271773
000210 a1 2b 25 bd c2 b8 25 bd 74 0b b9 bc b2 d9 0c bc
       -0.04032481 -0.040459402 -0.02258847 -0.0085968245
000220 f7 71 9d bc a3 b3 97 bb 87 f0 bb bc 44 ea 47 bc
       -0.019219382 -0.0046295687 -0.02294184 -0.012201849
000230 9f c5 d7 bc b6 cf ff bc 1c f1 0e bd 46 bc 8b bc
       -0.02633935 -0.031226974 -0.03489791 -0.01705755
000240 ab c9 c2 bb 9c 3e 93 3c 17 06 15 bd 9a 6c cb 3c
       -0.005944451 0.01797419 -0.03638276 0.024832059
000250 30 ea 1f bd 25 77 22 bd 4f c6 90 bc 40 21 89 bc
       -0.039041698 -0.039664406 -0.017672686 -0.016739488
000260 1d 1c da 3c 0c 84 0e 3d 83 9b d0 3c a0 09 66 bc
       0.026624734 0.0347939 0.025464779 -0.014040381
000270 ba 18 b1 3c cc 54 dc bc 14 5a 8b 3c 06 57 4b 3c
       0.021618236 -0.026895903 0.017010726 0.012410885
000280 e3 4c a2 3c ea ea a3 bc 4f eb e9 bc f2 15 b5 bb
       0.019812053 -0.020009477 -0.028554587 -0.0055262977
000290 7a 2f 10 bd 12 43 88 bc 2f 81 d0 bc 19 ba a9 bb
       -0.035201527 -0.016633544 -0.025452225 -0.0051796553
0002a0 3d e5 a8 bc 77 87 95 bc f4 d1 d7 3c b7 0a 17 3d
       -0.020617122 -0.018253071 0.02634523 0.036875453
0002b0 e7 e2 95 3c e9 a6 da bc b5 f9 e5 bc 27 75 9d bc
       0.018296672 -0.026690917 -0.028073171 -0.019220902
0002c0 56 a8 cf bc e7 c9 f1 3c 96 ac fb 3c 8d b0 ca bc
       -0.025348824 0.02951522 0.030721944 -0.02474239
0002d0 f4 4a ee bc 18 b9 c6 37 ba 96 ca bc 78 e9 f0 3c
       -0.029088475 2.368963e-05 -0.024730075 0.029408202
0002e0 52 94 fa 3c 0a 49 77 3b c5 dd d6 3c 87 be d2 bc
       0.030588303 0.0037732744 0.026228795 -0.025725616
0002f0 17 c9 f8 bc df 28 03 3d 83 5e df 3c a5 fc ef bc
       -0.030369325 0.0320214 0.027266746 -0.029295275
000300 3a aa e7 3c d1 8e 9d 3d a8 ec 4e 3b 57 bc 0c 3d
       0.028279413 0.07693256 0.0031574164 0.034359302
000310 8a 74 8d 3d bc fa 6f 3d 33 be 0d 3d c4 1e 98 3d
       0.06906994 0.05858873 0.034605216 0.07427743
000320 16 41 3b 3d 4f ff 6e 3c 41 ce a5 3d 6a 47 e8 3c
       0.045716368 0.0145872375 0.080959804 0.028354365
000330 4d 85 77 3d da 6d 00 3e 26 17 27 3d 66 62 72 3d
       0.06042986 0.12541905 0.04079356 0.05917587
000340 f2 4b 7c 3d 29 0e 8f 3d 8b 82 9e 3d 7d 9d 26 3d
       0.061595865 0.06985123 0.07739743 0.040677536
000350 4f 83 86 3d 87 d4 a2 3d bd 41 dd 3c e8 76 9d 3d
       0.06568014 0.079506926 0.027008886 0.07688695
000360 e7 7a 3b 3d 57 1b 54 3d 77 94 3a 3e 81 b9 7d 3d
       0.045771506 0.051783886 0.18220697 0.06194449
000370 fc a3 8f 3d 9c 11 c1 3c 6d 78 7a 3d 2e 5d 0b 3d
       0.070136994 0.023567967 0.061150003 0.03402441
000380 ae 73 1e 3d 16 4d 65 3d df 42 12 3d e4 20 44 3d
       0.03868454 0.055981718 0.035708304 0.04788293
000390 c5 bc ed 3c 79 67 e4 3c 61 4b 1d 3d 61 cd 89 3d
       0.029020676 0.02788137 0.038401965 0.06728626
0003a0 2d 3c 1c 3d 07 35 bc 3d 6c 27 4b 3d 5e af a0 3d
       0.038143326 0.09189802 0.049598143 0.07845949
0003b0 02 24 2c 3d 74 69 ba 3c 6e c8 ec 3c 32 db 1a 3d
       0.042026527 0.022755362 0.028904166 0.037806697
0003c0 59 24 d7 3c 1e 3d 8e 3d 99 fd a4 3c 37 e1 00 3d
       0.02626245 0.06945251 0.020140456 0.03146478
0003d0 4f 6e 48 3d 15 5e 87 3d 77 42 33 3d 13 01 87 3d
       0.048933323 0.066097416 0.043764558 0.06592002
0003e0 e5 5e 3b 3d 46 d9 3b 3d 86 75 4d 3d fb d6 a2 3d
       0.045744795 0.045861505 0.050160907 0.079511605
0003f0 6d 6a 87 3d fd 73 4a 3d 9e 93 95 3d 7e 26 77 3d
       0.06612096 0.04942702 0.07303546 0.060339443

bidirectional_1/backward_lstm_1/lstm_cell_5/bias f4 [256]
000000 db 64 48 3d 6e ab 9b 3d b7 20 9e 3c a3 ce d1 3c
       0.04892431 0.07601057 0.019302709 0.025611227
000010 e0 54 48 3d 30 73 a7 3c 23 7a 68 3d 14 41 ad 3b
       0.048909068 0.020440668 0.056757104 0.005287299
000020 6e 54 40 3d 57 c0 bb ba 5f 51 ef 3c fe 3d 21 3d
       0.04695552 -0.001432429 0.029213605 0.03936576
000030 1b d8 01 3c 94 ab b7 3d 88 ee 9a 3d 1d 62 40 3c
       0.007925059 0.08968273 0.075650275 0.011742142
000040 be 19 22 3d 59 c7 d3 3c 0d 3c 85 3d 5a 62 62 3d
       0.03957533 0.025851892 0.065055944 0.055269577
000050 d7 07 57 3c 52 bf 0a 3e 3c 8b c9 3c a3 35 9f 3d
       0.013124428 0.13549545 0.024602525 0.07773902
000060 22 99 77 3c 45 20 93 3c 1c 51 1c 3d aa 60 93 ba
       0.015112193 0.017959723 0.03816329 -0.0011244018
000070 93 92 60 3c 25 d5 86 3c e4 86 85 3c 8a be 61 3d
       0.013706821 0.016459057 0.016299672 0.055113353
000080 d3 f4 c7 3d f4 a7 a3 3c c8 89 ff 3b 16 88 90 3c
       0.097634934 0.019977547 0.007798407 0.017643016
000090 4c 7b 3d 3d 51 7f 91 3d 4d c8 07 3d ae 4b 07 3d
       0.046260163 0.07104362 0.033150006 0.03303116
0000a0 a5 29 8c 3d ed bf bf 3c 88 e3 99 3d 2e 3a 40 3d
       0.068438806 0.023406947 0.07514101 0.046930484
0000b0 9e 84 2d 3d 26 41 d3 3b 43 41 ef 3c 84 2f 56 3d
       0.0423628 0.0064469753 0.029205924 0.05229141
0000c0 1e 2e 6b 3d 8b 8e b0 3d cb 93 73 3d ac bd 0b 3d
       0.057417028 0.08620938 0.05946712 0.034116432
0000d0 d5 cc 33 3d de 45 10 3d f4 53 ab 3c 88 bd 70 3c
       0.043896515 0.03522288 0.020914055 0.014693625
0000e0 17 3e cc 3d d8 8e 1c 3d 30 df d8 3c ad 26 2a 3d
       0.0997278 0.038222164 0.026473612 0.04154079
0000f0 65 4a 1e 3d 58 a7 af 3b 52 15 61 3d 11 6c 3d 3b
       0.038645167 0.005360525 0.054951973 0.0028903524
000100 5f c2 80 3f b3 07 7c 3f 0b 5d 80 3f 76 1c 76 3f
       1.0059317 0.9844925 1.0028394 0.9613718
000110 8f c0 74 3f f2 89 83 3f 83 25 7d 3f a8 a1 81 3f
       0.9560632 1.0276473 0.98885363 1.0127459
000120 59 42 7c 3f 82 73 82 3f d4 44 80 3f 2e 05 80 3f
       0.9853874 1.01915 1.0021005 1.0001581
000130 7c d4 82 3f f5 85 81 3f 2f f9 7d 3f 5e a5 80 3f
       1.0221095 1.0119005 0.9920835 1.0050466
000140 ec 36 80 3f 10 b0 81 3f d4 f7 7b 3f 1b 5e 81 3f
       1.0016761 1.0131855 0.9842503 1.0106844
000150 ff 72 83 3f e9 7d 6c 3f ad 5e 83 3f 97 ea 75 3f
       1.0269469 0.92379624 1.0263268 0.9606108
000160 8b 47 82 3f e8 4a 81 3f d0 df 82 3f e7 6f 81 3f
       1.0178083 1.0100985 1.0224552 1.0112275
000170 94 c5 82 3f 7f ca 83 3f 5e e7 80 3f 50 13 73 3f
       1.0216546 1.0296172 1.0070608 0.94951344
000180 85 74 76 3f c7 c0 83 3f 3f 18 84 3f a3 7c 82 3f
       0.96271545 1.0293206 1.0319899 1.0194286
000190 8a 45 7b 3f fb 99 82 3f 44 88 7f 3f c1 12 80 3f
       0.98152983 1.0203241 0.998173 1.0005723
0001a0 66 4d 83 3f eb be 7e 3f 66 38 7e 3f 01 3e 81 3f
       1.0257995 0.9951007 0.9930481 1.0097047
0001b0 d9 77 67 3f 2b d4 81 3f 08 ae 80 3f 7a 7c 81 3f
       0.9041725 1.0142874 1.005311 1.0116112
0001c0 e1 48 80 3f c6 78 80 3f af f5 7d 3f be f0 7d 3f
       1.0022241 1.0036857 0.9920301 0.9919547
0001d0 08 38 79 3f 21 62 7e 3f 4f 11 85 3f b9 20 83 3f
       0.9735112 0.9936848 1.0395907 1.0244361
0001e0 74 8a 7d 3f 94 cf 79 3f fd 1e 82 3f ca 0d 7e 3f
       0.9903939 0.97582364 1.0165707 0.9923979
0001f0 f2 dd 81 3f 52 09 7b 3f e7 01 81 3f 2f b7 80 3f
       1.0145857 0.98061097 1.0078706 1.0055903
000200 f0 a7 9c bc f9 78 7f 3c 5d cd 74 bc f9 71 40 bc
       -0.019123048 0.015592807 -0.014941541 -0.011745923
000210 8e 59 ae bc 64 87 41 bc 21 99 e1 bb c5 55 44 bc
       -0.021282937 -0.011812065 -0.0068847095 -0.01198334
000220 4e b0 cf bb f4 bf fd b9 7e 15 99 bb 30 23 81 bb
       -0.006338156 -0.00048398937 -0.0046717515 -0.0039409623
000230 18 6b b2 bc ec 84 13 3c 47 db e2 bc 68 bb 85 3c
       -0.021779582 0.009003859 -0.02769245 0.016324714
000240 cc 28 de bc 91 18 e3 3c bd b7 d0 3c 04 df d8 bc
       -0.027119063 0.027721675 0.025478238 -0.02647353
000250 fc 65 b2 bc 23 b2 ba bc 3a 8b 63 bc 30 fa 25 3c
       -0.021777146 -0.02279002 -0.013888175 0.01013045
000260 87 d0 f9 bc e5 44 dc 3c 25 ff e6 3c 70 a3 60 3c
       -0.030494941 0.02688832 0.028197834 0.013710842
000270 96 4a 82 3c 5c 06 b2 bc 1b e0 8a 3c a4 ae e2 3c
       0.015904706 -0.021731548 0.016952565 0.027671166
000280 3c e6 54 bc 4b ca 98 bc dd e9 13 bc b5 25 84 3c
       -0.012994345 -0.018651148 -0.009027925 0.016131261
000290 17 fd 86 3b e2 2f ad bb fa e8 bb bc 89 85 b6 3c
       0.004119526 -0.005285249 -0.02293824 0.022280471
0002a0 bd 87 b1 bb bb 4d 4b bc 2e 62 f4 3c 9b 10 86 3c
       -0.0054177926 -0.012408669 0.029831972 0.01636534
0002b0 ce d0 be bc bb e0 51 3c 3d 95 1b 3c 79 f4 4f 3c
       -0.023292925 0.012809928 0.00949603 0.012692564
0002c0 03 be ac bc 79 6b 51 bc 5f 96 9b bc dc 53 2d bc
       -0.021086698 -0.012781971 -0.018992601 -0.010579076
0002d0 04 e6 26 3c 49 16 0c 3c 6f d5 94 bc 6d 1e 68 3c
       0.010186676 0.008550235 -0.01816818 0.01416741
0002e0 9d 46 23 bd 2d 38 90 3c 25 1c d3 3a f3 87 8b 3c
       -0.039862264 0.017604912 0.001610641 0.0170326
0002f0 10 ec 9e bc 4d 92 b1 bc 92 9e 01 bd 6a 41 46 3a
       -0.019399673 -0.021676207 -0.031645365 0.0007562848
000300 d5 ff ae 3d 41 e5 de 3d 1f 48 90 3d d7 a6 8d 3d
       0.0854489 0.108835705 0.07045006 0.06916588
000310 91 a3 98 3d ba 38 3d 3d 56 b2 0e 3e b6 6c c2 3c
       0.07453073 0.046196677 0.13935217 0.023733478
000320 b1 43 c3 3d 2c 94 2f 3d 72 9d a1 3d 62 1f 77 3d
       0.095343955 0.042865917 0.078913584 0.060332663
000330 78 17 a9 3d e2 41 bc 3d 49 c5 b1 3d 64 c1 46 3d
       0.082564294 0.09192254 0.08680207 0.048524275
000340 ad 04 3e 3d d0 16 49 3d c3 80 ae 3d 66 fe d7 3d
       0.046391178 0.04909402 0.08520653 0.105465695
000350 93 f8 15 3d 27 ce f8 3d 2c b5 54 3d d9 b6 70 3d
       0.036614012 0.121486954 0.05193059 0.058768127
000360 68 60 76 bd 4a ab 6a 3d bb b6 71 3d 59 44 1e 3e
       -0.060150534 0.05729226 0.059012156 0.1545576
000370 41 2f c1 3c bf f7 a6 3c 7a df c7 3d 50 71 9d 3d
       0.023582103 0.020381806 0.09759422 0.07687628
000380 37 1f 3b 3e b4 64 19 3d 17 71 e7 bc e0 a1 81 3c
       0.18273626 0.037449554 -0.028252168 0.015824258
000390 d0 8c d9 3d 11 cb d8 3d 0a 94 5e 3d 20 e0 8f 3d
       0.10622561 0.10585607 0.0543404 0.0702517
0003a0 3c ea 03 3e ae 5e c7 3d 9c 04 b0 3d 3b b6 82 3d
       0.12882322 0.097348556 0.08594629 0.06382414
0003b0 0e de d4 3d 6e 33 06 3e 80 a4 95 3d 24 65 87 3d
       0.10393916 0.13105556 0.073067665 0.06611088
0003c0 4c 6a 98 3d fd c3 a7 3d a1 b9 0b 3d 57 d0 45 3d
       0.074421495 0.08191679 0.034112576 0.04829439
0003d0 9b f8 03 3d 6a a7 32 3d a7 57 9a 3d ca e7 f2 3c
       0.03221951 0.04361669 0.075362496 0.029651541
0003e0 1c 38 a5 3d e2 9a 68 3d af 37 b1 3d 7a 6f 5f 3d
       0.08067343 0.056788333 0.08653199 0.05454967
0003f0 b0 5d df 3d d5 c0 95 3d f2 69 61 3d 85 86 84 3d
       0.10906541 0.073121704 0.055032678 0.0647097

bidirectional/forward_lstm/lstm_cell_1/bias f4 [512]
000000 78 57 ca bb 57 9e 98 3c 9e 9b 64 bd 9a d5 d4 3d
       -0.006174978 0.01863019 -0.05581247 0.10392304
000010 02 1d 88 bd e7 a6 35 3c a0 a6 e6 3c d2 40 d3 3d
       -0.06646158 0.011087156 0.028155625 0.10315098
000020 cb 39 05 3d 93 ac e4 3c f6 6c 53 3a d5 76 9e 3c
       0.03252582 0.027914321 0.00080652477 0.019343773
000030 ef bc 0f 3d 08 1b 2e 3d e8 92 a3 3c 1a 46 90 3d
       0.03509229 0.042506248 0.019967511 0.07044621
000040 c6 09 ac 3d e3 43 86 3d 49 91 7e 3d 4a 21 20 3d
       0.08400302 0.06555917 0.062150273 0.039094247
000050 b1 17 9b 3b 66 f8 3b ba de e9 ec 3d 1d f0 c3 bb
       0.004733049 -0.0007170498 0.11568044 -0.0059795515
000060 90 9c 3c 3d 14 27 87 3d c9 2e 0d 3d 93 f9 54 3c
       0.046047747 0.065992504 0.034468446 0.012998956
000070 04 60 ef 3c fe 89 1d bc f0 3e 30 3d 51 a5 8d 3c
       0.029220589 -0.009615419 0.043028772 0.017290743
000080 96 ff 9f bd 68 f5 84 3c 4e 50 89 bc 5c 8c 09 3e
       -0.07812421 0.0162303 -0.016761925 0.13432449
000090 eb c1 c6 bc 56 8f 57 3d 1c 76 94 3c 79 45 6e bd
       -0.02426239 0.05262693 0.018122725 -0.058171723
0000a0 1b 69 3c bd f9 bf 9c 3d c7 c5 59 3d 71 9b 43 bc
       -0.045998674 0.076538034 0.05316713 -0.011938916
0000b0 bc 1b 6d bd 9d bc 68 3d 00 62 97 3d 47 0c c0 3d
       -0.057887778 0.0568205 0.07391739 0.09377342
0000c0 f3 6e 3d 3e 97 da b4 bb a2 54 0e 3d 2b 25 6e bd
       0.18499355 -0.005519222 0.03474868 -0.058140915
0000d0 e9 c3 44 bd b0 93 40 bb 70 47 e1 bb c8 d9 6f 3e
       -0.048038397 -0.0029384904 -0.006874971 0.2342292
0000e0 3d 07 dd bc e2 ec aa 3d 2b f7 ea ba 51 df df 3a
       -0.02698099 0.08345963 -0.0017926445 0.0017080103
0000f0 b6 e0 c0 3d ce 49 ed bb 72 92 4c 3d 13 e9 c7 3d
       0.0941786 -0.007241464 0.04994435 0.09761252
000100 d1 8d a2 bd 18 5c b8 3c c1 14 fb 3c 69 46 2e 3c
       -0.079372056 0.022504851 0.030649545 0.010636904
000110 d7 89 e6 3c 38 36 13 bc b3 40 b6 3d f3 e7 6f bc
       0.028141899 -0.008985095 0.08899059 -0.014642703
000120 54 aa 9a bc 4b 5b fe 3d 96 3f 6b 3c f7 2c 49 bd
       -0.018880047 0.124197565 0.014358422 -0.049115147
000130 7e f2 02 bc 45 4c 34 bd f7 4e 21 bd a2 3f 13 bd
       -0.007992385 -0.04401805 -0.039381947 -0.035949357
000140 52 2e 21 bc f3 8d f8 3d b4 89 e3 3d 09 02 63 3d
       -0.009837704 0.1213645 0.11110249 0.055421863
000150 9b b2 1b ba 9a e4 de 3d 23 2c 3f bd 39 12 28 3b
       -0.0005939395 0.10883446 -0.04667295 0.0025645627
000160 bb 3b 2a 3d df f2 4e bc a1 cc f7 3c f8 72 91 3c
       0.04156087 -0.012631147 0.030248942 0.017755017
000170 ac e3 cb 3c 6e f7 12 3d ee cd eb ba 25 21 d1 3d
       0.024888836 0.0358805 -0.0017990449 0.102114
000180 2b fa e7 3d 25 71 4f bd 15 68 bc 3c 3c a1 01 3e
       0.11327013 -0.050645012 0.022998849 0.12659162
000190 cc 02 c1 3d 42 e6 88 3b fe 30 cb 3d 51 5e fc 3c
       0.094243616 0.0041778395 0.09921454 0.030806692
0001a0 8e dd 31 3c 6a 17 7d 3d bc f0 51 3c 15 d5 34 bd
       0.010856045 0.061789908 0.012813743 -0.044148523
0001b0 18 8d 2b bb 2d c8 e2 3d aa dd 0e 3e 8a 5f b7 ba
       -0.0026176628 0.11073337 0.13951746 -0.0013990265
0001c0 15 9a bc 3d 2c 6d cd bc 0d e0 de 3c 5b 92 bb bc
       0.09209076 -0.025076471 0.027206445 -0.022896936
0001d0 40 4e b5 bc 98 95 33 3d 8c 28 5a bc 71 35 c4 3d
       -0.02213204 0.043843836 -0.013315331 0.09580506
0001e0 a2 4f 11 3c 68 28 3a 3e 3b 0c 63 3d 8b 2a 68 3d
       0.008869084 0.18179476 0.055431586 0.056681197
0001f0 26 b8 18 bb 45 63 ba bc 1a 5f b3 bc 28 22 a3 3d
       -0.002330312 -0.022752414 -0.021895934 0.07965499
000200 04 1f 7c 3f 96 d0 68 3f 0e fb 82 3f e4 00 6c 3f
       0.98484826 0.90943277 1.0232866 0.9218886
000210 07 49 6e 3f 5c 86 76 3f fe 59 72 3f 7d ae 74 3f
       0.9308018 0.96298766 0.9466857 0.9557875
000220 3e dc 77 3f f9 1f 71 3f 5d 12 7f 3f 50 a7 78 3f
       0.9682044 0.9418941 0.99637395 0.971303
000230 2e 54 82 3f c3 e8 7f 3f ca 27 7d 3f 42 b9 7a 3f
       1.018194 0.9996454 0.9888884 0.9793893
000240 37 07 6e 3f 26 78 67 3f 4d ba 77 3f 96 7e 79 3f
       0.9297976 0.90417707 0.9676865 0.9745878
000250 b9 6d 75 3f c2 f6 81 3f 0b b3 85 3f c3 cf 77 3f
       0.9587055 1.015343 1.0445265 0.96801394
000260 25 63 72 3f 18 1e 75 3f 9a ac 7e 3f b5 54 72 3f
       0.9468253 0.95749044 0.9948212 0.946605
000270 18 2c 7b 3f 9d e8 82 3f c6 e2 7e 3f 56 0b 74 3f
       0.98114157 1.0227238 0.9956478 0.953298
000280 f5 28 85 3f 56 28 73 3f 9b 9d 6f 3f 9d 58 6a 3f
       1.0403124 0.9498342 0.9359986 0.91541463
000290 06 a6 80 3f c3 0b 77 3f 48 19 87 3f 5b 5d 7c 3f
       1.0050666 0.9650232 1.055459 0.9857995
0002a0 3b c9 81 3f 69 76 70 3f 65 0a 7a 3f 9b be 83 3f
       1.0139536 0.9393068 0.9767211 1.0292543
0002b0 21 56 7e 3f e9 f0 74 3f 9c c3 80 3f 63 a8 69 3f
       0.9935017 0.956801 1.0059695 0.9127256
0002c0 5c bc 7e 3f 1a 3c 7e 3f a1 3f 82 3f 8a 14 87 3f
       0.99506164 0.9931046 1.0175668 1.0553143
0002d0 4d 7a 81 3f 90 0d 84 3f 50 40 74 3f 8a 9a 6d 3f
       1.0115448 1.0316639 0.95410633 0.9281393
0002e0 96 62 81 3f 57 23 7e 3f 9c f8 7a 3f b3 fe 80 3f
       1.0108211 0.99272674 0.980356 1.0077728
0002f0 75 2d 8b 3f f6 51 83 3f ac ae 67 3f a6 d9 69 3f
       1.0873247 1.0259387 0.90500903 0.9134773
000300 52 c9 82 3f e9 51 81 3f c8 e3 86 3f 37 a0 7c 3f
       1.0217688 1.0103122 1.0538263 0.9868197
000310 7f 31 78 3f 6a 6a 73 3f 8f 76 75 3f 82 ee 75 3f
       0.96950525 0.9508425 0.9588403 0.9606706
000320 be 8a 7e 3f e8 db 83 3f f8 a5 74 3f 63 51 7f 3f
       0.99430454 1.0301485 0.9556575 0.9973356
000330 7d f8 82 3f ca 73 7b 3f 79 66 8c 3f b8 f2 79 3f
       1.0232083 0.98223555 1.0968772 0.97635984
000340 bb e8 74 3f bb 13 75 3f 5a b2 78 3f 6f e1 6a 3f
       0.9566762 0.9573323 0.9714714 0.91750234
000350 23 d3 83 3f 91 b7 6a 3f 10 85 86 3f f4 43 7b 3f
       1.0298809 0.9168635 1.0509357 0.98150563
000360 92 09 82 3f aa 8e 73 3f 85 72 82 3f b1 66 6c 3f
       1.0159171 0.95139563 1.0191199 0.92344195
000370 ea 2d 78 3f 53 db 6e 3f ff 7e 70 3f b0 0a 82 3f
       0.9694506 0.9330341 0.9394378 1.0159512
000380 10 9a 69 3f 87 34 78 3f 0f 75 72 3f c2 9f 84 3f
       0.91250706 0.9695515 0.9470987 1.0361254
000390 ce 31 6f 3f a5 40 6f 3f 72 d3 6a 3f 49 22 81 3f
       0.9343537 0.93458015 0.9172889 1.0088588
0003a0 fb 98 87 3f 2b 9e 6a 3f 82 ff 70 3f e8 23 7a 3f
       1.0593561 0.91647595 0.94139874 0.9771104
0003b0 28 fb 75 3f e8 db 6b 3f 9e 4a 83 3f 51 27 83 3f
       0.9608636 0.92132425 1.0257146 1.0246373
0003c0 f0 5a 78 3f a4 04 83 3f 60 47 7e 3f 71 4a 83 3f
       0.9701376 1.0235791 0.9932766 1.0257093
0003d0 28 6f 7c 3f 1a 31 79 3f 29 87 83 3f 14 87 77 3f
       0.9860711 0.9734055 1.0275623 0.9669049
0003e0 97 c7 6b 3f 9c 32 73 3f 97 24 76 3f 85 5b 75 3f
       0.92101425 0.949991 0.9614958 0.9584277
0003f0 8a 84 73 3f b2 1b 6e 3f 93 2a 83 3f c8 93 75 3f
       0.95124114 0.9301101 1.0247368 0.9592862

bidirectional/backward_lstm/lstm_cell_2/bias f4 [512]
000000 d8 21 11 3d 58 06 d1 3c 3f ba 18 3d 94 3f a6 bd
       0.035432667 0.02551572 0.037286993 -0.08117595
000010 de 27 f7 bb 1f 7d 83 3d 74 56 30 3e 3e a6 b4 bb
       -0.0075425943 0.06420349 0.17220479 -0.0055129817
000020 0c e8 0f 3d 00 de 8e b4 b5 07 25 3c cc 0c 1e bd
       0.035133407 -2.6611087e-07 0.010072638 -0.038586423
000030 8a c3 ba 3d 01 53 3e 3d 07 6d 5e 3d 6a ff e1 3c
       0.09119327 0.046465877 0.054303195 0.027587611
000040 06 98 92 3d 6b b6 b9 3d e7 62 ba 3c 4a 88 0d 3e
       0.071579024 0.090679966 0.022752238 0.13821521
000050 cc 0f 2d bc 58 00 e3 3d a4 54 92 3d ca 00 41 3e
       -0.010562848 0.1108405 0.0714505 0.18847957
000060 d6 cc 47 3d 7c ef b3 3d 10 d7 e1 3c 6c 15 cb 3d
       0.04877933 0.087859124 0.02756837 0.09916195
000070 65 aa 92 3d 2b 15 93 3d a1 a9 10 bc 4e f9 7d bc
       0.071614064 0.07181772 -0.008829505 -0.015501333
000080 1e b0 86 3b 86 89 ba 3c 87 17 f2 bd 3a ed 18 3c
       0.0041103503 0.022770654 -0.11820894 0.009333903
000090 cf 1b 3a 3b e7 15 9f 3d b1 1c b4 3d 9d 80 ad 3d
       0.0028397923 0.077678494 0.08794535 0.08471797
0000a0 02 df 61 3c 76 04 c5 bc cc 7b b1 3d 98 52 b4 3d
       0.013786079 -0.024049979 0.086661905 0.08804816
0000b0 53 f0 4c 3d f6 f5 15 bc 7f 0c e8 bc ab f3 14 3d
       0.05003388 -0.00915288 -0.028326271 0.036365192
0000c0 20 1b 1e 3d fd cb 80 bc 76 13 03 3d c0 c7 df 3d
       0.038600087 -0.01572227 0.03200098 0.10926771
0000d0 66 89 7d 3c 2f 88 10 3d fe 79 9a 3c db 8f f5 3d
       0.015474653 0.035286125 0.018856999 0.11990329
0000e0 39 eb 26 3d 0c e8 c5 3c e1 4c ec bc 5e 22 cd 3d
       0.04075167 0.0241585 -0.028845252 0.10016321
0000f0 e5 86 23 3e 82 18 88 3d b2 b5 2c 3e ab 29 9c 3d
       0.15969427 0.066452995 0.16866186 0.07625135
000100 1f 7f db 3c 38 9f 2e 3d d5 09 58 bc de f4 16 3d
       0.026794014 0.04263231 -0.013185938 0.036854617
000110 d1 24 a1 bc a2 26 57 3d 41 b9 77 3e 28 2b 86 bd
       -0.019670876 0.052527077 0.24191763 -0.065512
000120 6a 2b 1a 3d a0 8e 0d 3d 60 c4 6c bd 8d dd 80 bd
       0.03763906 0.034559846 -0.057804465 -0.062922575
000130 ed c5 ab 3d 7c 48 90 bd d2 32 23 3d b8 39 08 bc
       0.08387361 -0.07045075 0.039843388 -0.0083145425
000140 ff d3 b6 3b 0a b3 83 bb 3f e2 fa 3b 00 d4 47 3c
       0.005579471 -0.004019146 0.007656365 0.012196541
000150 6e 3d ae 3d 10 a6 f8 bc 06 31 7a 3d d7 3d ac 3c
       0.085078105 -0.030352622 0.06108191 0.021025581
000160 a8 24 eb bc 04 dd 4b 3d ba ec 7d 3d 91 32 09 bc
       -0.028704002 0.049771324 0.06199334 -0.008373872
000170 aa 02 70 ba 42 fb 6f 3d 75 b1 95 3d 4e 58 a1 3d
       -0.00091556704 0.058589227 0.07309238 0.07878171
000180 a0 aa fe 3c 7c 1c 18 3c 37 c3 9f 3d 6b 79 90 bc
       0.03108722 0.009284135 0.07800906 -0.017636022
000190 22 e8 b9 3d 02 44 28 3d a1 f4 d8 bb 83 eb 0d bc
       0.09077479 0.041080482 -0.006620959 -0.008662107
0001a0 b3 53 c6 bd 56 08 55 3e 1b a2 23 3d 30 9e db 3b
       -0.09683933 0.20803961 0.039949518 0.006702207
0001b0 59 ce 1c 3c b5 b0 cf 3c 33 42 eb bc b1 d6 d1 3c
       0.0095706815 0.025352815 -0.02871809 0.025615068
0001c0 61 c3 30 3c ef 05 99 3d e5 e0 76 3d 67 f7 bf 3c
       0.010788769 0.07471835 0.06027307 0.0234334
0001d0 1d 60 e8 3d e9 57 83 3d 14 f6 57 bc b4 85 6f bb
       0.11346457 0.06413252 -0.013181228 -0.00365482
0001e0 b3 88 2e 3d 6b ce 06 3e 16 0e db 3c 50 cd 70 3d
       0.042610835 0.1316468 0.026740115 0.05878955
0001f0 dc d0 dc 3d 7b ca 00 3e d7 f9 38 3d 4c 64 30 3e
       0.10782024 0.1257724 0.04516014 0.1722576
000200 14 13 80 3f a0 76 75 3f 44 bf 84 3f 0c 10 83 3f
       1.0005822 0.9588413 1.037087 1.0239272
000210 92 dd 78 3f f1 95 70 3f 06 3d 68 3f 63 7c 71 3f
       0.9721309 0.9397879 0.90718114 0.94330424
000220 87 3b 68 3f cf 0b 81 3f 7b ad 82 3f 23 ee 77 3f
       0.9071583 1.0081729 1.0209192 0.9684774
000230 5b aa 83 3f 4e 54 7b 3f 95 98 76 3f 54 54 71 3f
       1.0286363 0.98175514 0.9632657 0.942693
000240 71 6a 7d 3f 08 8e 79 3f f2 5d 80 3f 96 d6 67 3f
       0.9899054 0.9748235 1.002867 0.9056181
000250 9e 14 7b 3f fc 92 7a 3f 85 de 69 3f bd 05 6e 3f
       0.98078334 0.9788053 0.9135516 0.92977506
000260 66 78 67 3f c8 12 7a 3f ae ea 82 3f 2e e9 75 3f
       0.9041809 0.9768491 1.0227869 0.9605893
000270 fa 6d 77 3f 8f e8 7b 3f ea 59 82 3f 94 b3 85 3f
       0.96652186 0.9840173 1.018369 1.0445428
000280 3b 95 64 3f 86 09 7d 3f 71 e9 87 3f 0f 41 72 3f
       0.8929021 0.98842657 1.0618116 0.9463052
000290 b7 90 78 3f 65 6e 75 3f e8 55 6c 3f 9d b4 71 3f
       0.9709582 0.95871574 0.9231858 0.9441622
0002a0 65 7a 78 3f 45 1a 82 3f 03 51 6f 3f c9 d8 64 3f
       0.9706176 1.0164267 0.9348299 0.8939329
0002b0 8a ae 73 3f b8 7f 74 3f 84 4c 6a 3f 30 4d 80 3f
       0.951882 0.95507383 0.91523004 1.0023556
0002c0 9b eb 7f 3f d8 08 7c 3f f0 79 7a 3f 14 de 80 3f
       0.9996888 0.98450994 0.9784231 1.0067773
0002d0 91 62 6e 3f b3 70 6c 3f 1f bc 6d 3f 46 15 66 3f
       0.9311915 0.92359465 0.92865175 0.8987621
0002e0 71 6e 79 3f 0e 2f 7b 3f 65 12 7b 3f 43 71 68 3f
       0.97434145 0.98118675 0.9807494 0.90797824
0002f0 1f f8 73 3f 8e ad 73 3f 5d 5c 67 3f f4 84 73 3f
       0.9530048 0.951867 0.9037531 0.95124745
000300 49 17 8b 3f eb f8 8d 3f 04 c6 75 3f de 1c 7c 3f
       1.0866481 1.1091589 0.9600527 0.9848155
000310 17 9e 7e 3f eb 7e 7a 3f 1a 18 74 3f b1 4b 82 3f
       0.99459976 0.9784991 0.95349276 1.0179349
000320 69 7d 83 3f 47 7b 77 3f f1 7a 6c 3f a1 67 7a 3f
       1.0272647 0.9667248 0.92375094 0.97814375
000330 be 8c 67 3f 5b cb 80 3f c5 9e 6c 3f c1 2a 74 3f
       0.9044913 1.0062059 0.92429763 0.9537774
000340 c2 70 79 3f 73 cc 65 3f ed d1 83 3f 63 66 7f 3f
       0.9743768 0.8976509 1.0298439 0.99765605
000350 d8 84 5c 3f 09 60 7c 3f b4 52 7b 3f 1d 34 70 3f
       0.86140203 0.9858404 0.9817307 0.9382952
000360 54 92 80 3f c3 d8 69 3f d7 99 7a 3f 74 65 73 3f
       1.0044656 0.9134638 0.9789099 0.9507668
000370 f5 2e 76 3f 3f 2e 87 3f 50 fe 78 3f 71 3e 78 3f
       0.961654 1.0560988 0.9726305 0.9697028
000380 25 f0 76 3f ec 32 78 3f 9f e4 76 3f 64 db 82 3f
       0.9646018 0.969527 0.964426 1.0223203
000390 38 9a 72 3f 08 1c 7f 3f fd 85 78 3f 2b 6f 87 3f
       0.9476657 0.9965215 0.9707945 1.0580801
0003a0 0c 8c 75 3f 67 d7 75 3f 53 ac 89 3f a0 9b 70 3f
       0.9591682 0.960318 1.0755714 0.93987465
0003b0 7e 3b 72 3f 51 eb 78 3f 4e 35 81 3f 39 48 78 3f
       0.9462203 0.97234064 1.0094392 0.96985203
0003c0 16 21 7e 3f 8a 2a 81 3f 3e 42 8e 3f 68 04 86 3f
       0.99269235 1.0091107 1.1113966 1.0470095
0003d0 b8 49 7d 3f 9b fd 80 3f 8c 02 6c 3f 1f 93 7a 3f
       0.9894061 1.0077394 0.92191386 0.9788074
0003e0 a6 7a 75 3f a0 9c 7d 3f fa 81 80 3f 99 5e 7e 3f
       0.9589027 0.99067116 1.0039666 0.99363095
0003f0 b9 fc 71 3f fa ce 7b 3f b7 0d 76 3f 98 c9 6f 3f
       0.9452625 0.98362696 0.9611468 0.9366698

Conv2/bias f4 [64]
000000 68 8d 55 3d 72 48 ce bc a8 43 5b bc a8 27 f1 bb
       0.05213681 -0.025181029 -0.01338283 -0.0073594637
000010 ea 10 64 3b 5b 27 53 3d 58 d8 fb 3c 30 ed 0e bd
       0.003480012 0.051551204 0.03074281 -0.03489417
000020 f2 48 1c bc 18 9b 71 3c fa ef 97 bc 66 9f 83 3b
       -0.009538876 0.01474645 -0.018547047 0.0040168045
000030 1d ee b2 bc d9 49 8b bb ea 35 02 bd 06 fb 5c bc
       -0.021842057 -0.0042507467 -0.031789698 -0.013487583
000040 f8 89 f1 bc 9e 9f 2c bd 1b 9b 2c bd 06 e2 6c bc
       -0.029484734 -0.04214441 -0.042140108 -0.014458185
000050 91 b4 8c 3d ff 37 89 3d c5 fb 34 bc 8c 91 9d 3b
       0.06870378 0.067001335 -0.011046355 0.0048086103
000060 16 49 8e 3a 1a 9d 76 bc 61 44 90 3d 49 7d ce bb
       0.0010855522 -0.015052104 0.07044292 -0.0063015562
000070 99 bd 87 bc 8c 62 84 bc cc 0f 39 bc e8 f9 42 3d
       -0.0165699 -0.016160272 -0.01129527 0.04760161
000080 06 13 b1 3c b6 01 0a 3c 36 f6 4d 3d 66 e8 ee 3c
       0.021615516 0.0084232595 0.050283633 0.02916355
000090 bb 9a f8 bc 02 37 35 bd eb 95 a7 bc ed e6 61 bd
       -0.030347219 -0.044241913 -0.020457229 -0.05515187
0000a0 9d 35 19 bc c8 38 dd bc 83 0b e4 bb 72 2d d0 bc
       -0.009351161 -0.027004614 -0.00695938 -0.025412295
0000b0 05 da 1b bb 42 9c 0e bc f1 0f a7 bc 7d c7 02 bd
       -0.0023781073 -0.008704247 -0.020393344 -0.031928528
0000c0 70 73 2f bc d1 53 5f bc 8d 7e 70 bc ad 82 b2 bc
       -0.010708675 -0.013630823 -0.01467861 -0.021790827
0000d0 55 00 14 bd 87 cd 7f 3c d9 fb 42 bc 65 76 84 bc
       -0.03613313 0.015612966 -0.0119008655 -0.016169736
0000e0 4b f0 09 bb bc 61 07 bc e9 12 f0 3d cb d0 db 3c
       -0.0021047767 -0.008263048 0.11722357 0.026832959
0000f0 35 28 12 3d 69 0f 0d bd fd a7 75 bc 81 25 b5 bb
       0.035682876 -0.034438524 -0.014993665 -0.0055281525

Conv1/bias f4 [32]
000000 3e 39 7d 3c 9a 14 53 3e 6d 0f c6 bd be a1 56 bd
       0.015455542 0.20613328 -0.09670911 -0.052400343
000010 cc 2e e2 bd 68 c6 9b 3d ad bb b9 3d ae 00 95 bd
       -0.11044082 0.07606202 0.090689994 -0.0727552
000020 c2 b1 01 be 60 63 88 bd aa 57 38 bd a7 e9 87 3c
       -0.12665465 -0.06659579 -0.045005478 0.016590906
000030 aa 4c ce bd 86 cd 7f 3e 60 09 a5 3d cf 16 19 3d
       -0.10073216 0.24980745 0.08058429 0.037375268
000040 68 10 e9 bd 23 77 57 3e 10 31 f6 3d df 0d af bd
       -0.11380082 0.21041541 0.12021077 -0.085475676
000050 3c 35 be bd 59 96 1a be 3c 9c b8 bd 93 72 e3 bd
       -0.092874974 -0.15096416 -0.09014174 -0.11105838
000060 f5 53 6a bd 70 86 0f be 08 83 80 3d 85 83 b1 3d
       -0.057208974 -0.14016128 0.06274992 0.086676635
000070 50 25 ad 3e 2a 73 f9 3d 34 a5 08 3e 89 d6 9a bc
       0.3381753 0.12180169 0.1334427 -0.018901126

std.constant15 i1 [64, 768] scale=0.004279457 zero_point=0
000000 0d ee fa 05 f8 fc ef f7 05 0d 0b 0c 01 08 0f fe
       0.05563294 -0.07703023 -0.025676742 0.021397285 -0.034235656 -0.017117828 -0.07275077 -0.038515113 0.021397285 0.05563294 0.047074027 0.051353484 0.004279457 0.034235656 0.064191855 -0.008558914
000010 09 fb fd 0e 11 f4 fb 0d 03 15 f1 0e ea 09 f9 fe
       0.038515113 -0.021397285 -0.012838371 0.0599124 0.07275077 -0.051353484 -0.021397285 0.05563294 0.012838371 0.0898686 -0.064191855 0.0599124 -0.094148055 0.038515113 -0.0299562 -0.008558914
000020 ed ef ee 10 08 07 ef fa f9 0e 12 f9 08 f9 f7 ed
       -0.08130968 -0.07275077 -0.07703023 0.06847131 0.034235656 0.0299562 -0.07275077 -0.025676742 -0.0299562 0.0599124 0.07703023 -0.0299562 0.034235656 -0.0299562 -0.038515113 -0.08130968
000030 ed 11 08 05 00 fb 0f fc fc fc f1 ee fc ef fa ec
       -0.08130968 0.07275077 0.034235656 0.021397285 0.0 -0.021397285 0.064191855 -0.017117828 -0.017117828 -0.017117828 -0.064191855 -0.07703023 -0.017117828 -0.07275077 -0.025676742 -0.08558914
000040 06 f4 f6 f5 10 ee 09 08 f8 0e fe f1 08 11 f9 ed
       0.025676742 -0.051353484 -0.04279457 -0.047074027 0.06847131 -0.07703023 0.038515113 0.034235656 -0.034235656 0.0599124 -0.008558914 -0.064191855 0.034235656 0.07275077 -0.0299562 -0.08130968
000050 ef 0e f3 0d 13 04 05 ff f4 ef 0c 0c 00 ef f8 00
       -0.07275077 0.0599124 -0.05563294 0.05563294 0.08130968 0.017117828 0.021397285 -0.004279457 -0.051353484 -0.07275077 0.051353484 0.051353484 0.0 -0.07275077 -0.034235656 0.0
000060 0a f3 0f fc 02 06 0b f2 fb ef fd 13 f0 0c 12 ef
       0.04279457 -0.05563294 0.064191855 -0.017117828 0.008558914 0.025676742 0.047074027 -0.0599124 -0.021397285 -0.07275077 -0.012838371 0.08130968 -0.06847131 0.051353484 0.07703023 -0.07275077
000070 f0 0a 06 05 fd f2 11 f6 fa 02 fe 00 0f fe f9 ee
       -0.06847131 0.04279457 0.025676742 0.021397285 -0.012838371 -0.0599124 0.07275077 -0.04279457 -0.025676742 0.008558914 -0.008558914 0.0 0.064191855 -0.008558914 -0.0299562 -0.07703023
000080 03 04 f4 05 ee f0 ec ef f8 0d ed f8 f4 0d 08 0a
       0.012838371 0.017117828 -0.051353484 0.021397285 -0.07703023 -0.06847131 -0.08558914 -0.07275077 -0.034235656 0.05563294 -0.08130968 -0.034235656 -0.051353484 0.05563294 0.034235656 0.04279457
000090 07 fd fe 05 f9 f5 f2 01 01 ed 0d 04 fd 0b eb ec
       0.0299562 -0.012838371 -0.008558914 0.021397285 -0.0299562 -0.047074027 -0.0599124 0.004279457 0.004279457 -0.08130968 0.05563294 0.017117828 -0.012838371 0.047074027 -0.0898686 -0.08558914
0000a0 f2 07 f0 01 0f fa 11 ed 06 fc 03 ff 0c 09 03 fd
       -0.0599124 0.0299562 -0.06847131 0.004279457 0.064191855 -0.025676742 0.07275077 -0.08130968 0.025676742 -0.017117828 0.012838371 -0.004279457 0.051353484 0.038515113 0.012838371 -0.012838371
0000b0 f6 05 10 ee 0c eb fb 03 f3 f4 05 f9 f0 0e 0d fd
       -0.04279457 0.021397285 0.06847131 -0.07703023 0.051353484 -0.0898686 -0.021397285 0.012838371 -0.05563294 -0.051353484 0.021397285 -0.0299562 -0.06847131 0.0599124 0.05563294 -0.012838371
0000c0 f9 f9 0d fc fe fd f3 0e 02 00 0d f1 07 02 f3 f2
       -0.0299562 -0.0299562 0.05563294 -0.017117828 -0.008558914 -0.012838371 -0.05563294 0.0599124 0.008558914 0.0 0.05563294 -0.064191855 0.0299562 0.008558914 -0.05563294 -0.0599124
0000d0 0a f8 f3 f0 02 f3 06 0f ee ec eb 10 fc 07 0b 08
       0.04279457 -0.034235656 -0.05563294 -0.06847131 0.008558914 -0.05563294 0.025676742 0.064191855 -0.07703023 -0.08558914 -0.0898686 0.06847131 -0.017117828 0.0299562 0.047074027 0.034235656
0000e0 f3 0b f7 09 06 f7 ec 08 0e 06 09 fb ed 04 fc 05
       -0.05563294 0.047074027 -0.038515113 0.038515113 0.025676742 -0.038515113 -0.08558914 0.034235656 0.0599124 0.025676742 0.038515113 -0.021397285 -0.08130968 0.017117828 -0.017117828 0.021397285
0000f0 0a 0e 04 fe f8 ea 0c 05 05 f2 fd 04 ee fa f5 11
       0.04279457 0.0599124 0.017117828 -0.008558914 -0.034235656 -0.094148055 0.051353484 0.021397285 0.021397285 -0.0599124 -0.012838371 0.017117828 -0.07703023 -0.025676742 -0.047074027 0.07275077

std.constant16 i1 [20, 128] scale=0.005649052 zero_point=0
000000 0e 14 1d fa df 0a f0 be eb 0b f3 2f 3e 31 20 fe
       0.07908673 0.112981044 0.16382252 -0.03389431 -0.18641871 0.056490522 -0.09038483 -0.37283742 -0.1186301 0.062139574 -0.073437676 0.26550546 0.35024124 0.27680355 0.18076967 -0.011298104
000010 e0 06 1b eb 01 eb fd 4a 1c db ff 1b e5 09 13 28
       -0.18076967 0.03389431 0.15252441 -0.1186301 0.005649052 -0.1186301 -0.016947156 0.41802984 0.15817346 -0.20901492 -0.005649052 0.15252441 -0.15252441 0.05084147 0.10733199 0.22596209
000020 11 06 ed d4 fb 02 eb 41 fe 06 0e 16 d8 0d 2a d5
       0.096033886 0.03389431 -0.10733199 -0.2485583 -0.028245261 0.011298104 -0.1186301 0.3671884 -0.011298104 0.03389431 0.07908673 0.12427915 -0.22596209 0.073437676 0.2372602 -0.24290924
000030 16 f6 da f0 06 d5 22 3f ce f2 e6 38 32 ce d6 3d
       0.12427915 -0.056490522 -0.21466398 -0.09038483 0.03389431 -0.24290924 0.19206777 0.35589027 -0.2824526 -0.07908673 -0.14687535 0.3163469 0.2824526 -0.2824526 -0.2372602 0.34459218
000040 4a e7 f2 a7 03 ef dd 00 fa c9 c5 38 0c 8d e2 e4
       0.41802984 -0.1412263 -0.07908673 -0.50276566 0.016947156 -0.096033886 -0.19771682 0.0 -0.03389431 -0.31069785 -0.33329406 0.3163469 0.06778862 -0.649641 -0.16947156 -0.15817346
000050 c6 b7 d2 b5 14 e8 38 4b e1 ac 25 0f 05 fb 41 c1
       -0.32764503 -0.4123808 -0.2598564 -0.4236789 0.112981044 -0.13557725 0.3163469 0.4236789 -0.17512062 -0.4745204 0.20901492 0.08473578 0.028245261 -0.028245261 0.3671884 -0.35589027
000060 d3 26 08 ec 0d 49 dd f2 23 ae 3a ed d9 a4 31 34
       -0.25420734 0.21466398 0.045192417 -0.112981044 0.073437676 0.4123808 -0.19771682 -0.07908673 0.19771682 -0.46322227 0.32764503 -0.10733199 -0.22031303 -0.5197128 0.27680355 0.2937507
000070 b8 da f4 e1 e1 d7 20 ff 04 fd 67 2a 39 f0 0f ce
       -0.40673175 -0.21466398 -0.06778862 -0.17512062 -0.17512062 -0.23161113 0.18076967 -0.005649052 0.022596208 -0.016947156 0.5818524 0.2372602 0.32199597 -0.09038483 0.08473578 -0.2824526
000080 fd d5 0c 01 31 02 f7 a8 0c ef ca 03 02 fe 2d 0a
       -0.016947156 -0.24290924 0.06778862 0.005649052 0.27680355 0.011298104 -0.05084147 -0.4971166 0.06778862 -0.096033886 -0.30504882 0.016947156 0.011298104 -0.011298104 0.25420734 0.056490522
000090 e3 e0 03 ea f6 ea 1c 34 c3 0f 1a 1d 1c e6 c9 a4
       -0.16382252 -0.18076967 0.016947156 -0.12427915 -0.056490522 -0.12427915 0.15817346 0.2937507 -0.34459218 0.08473578 0.14687535 0.16382252 0.15817346 -0.14687535 -0.31069785 -0.5197128
0000a0 0f d7 e8 06 12 ed f3 15 0e e5 07 d1 dd 2a b8 31
       0.08473578 -0.23161113 -0.13557725 0.03389431 0.10168294 -0.10733199 -0.073437676 0.1186301 0.07908673 -0.15252441 0.039543364 -0.26550546 -0.19771682 0.2372602 -0.40673175 0.27680355
0000b0 1b 20 e3 08 1f e3 0c d4 16 eb d9 2a df ea 22 0b
       0.15252441 0.18076967 -0.16382252 0.045192417 0.17512062 -0.16382252 0.06778862 -0.2485583 0.12427915 -0.1186301 -0.22031303 0.2372602 -0.18641871 -0.12427915 0.19206777 0.062139574
0000c0 f9 b8 d8 c1 14 33 16 f1 e8 07 cb 27 de 33 45 e2
       -0.039543364 -0.40673175 -0.22596209 -0.35589027 0.112981044 0.28810164 0.12427915 -0.08473578 -0.13557725 0.039543364 -0.29939976 0.22031303 -0.19206777 0.28810164 0.3897846 -0.16947156
0000d0 e6 cb 41 c9 fa 57 f4 44 e3 01 23 98 f7 0a fb f9
       -0.14687535 -0.29939976 0.3671884 -0.31069785 -0.03389431 0.49146754 -0.06778862 0.38413554 -0.16382252 0.005649052 0.19771682 -0.5875014 -0.05084147 0.056490522 -0.028245261 -0.039543364
0000e0 d7 2d fb 0d 35 ea d0 b7 3f b9 f0 1d 3b 2d 20 42
       -0.23161113 0.25420734 -0.028245261 0.073437676 0.29939976 -0.12427915 -0.2711545 -0.4123808 0.35589027 -0.4010827 -0.09038483 0.16382252 0.33329406 0.25420734 0.18076967 0.37283742
0000f0 34 e4 ed 09 1d 1b 3d d1 1d f9 e8 f8 28 bb e2 d9
       0.2937507 -0.15817346 -0.10733199 0.05084147 0.16382252 0.15252441 0.34459218 -0.26550546 0.16382252 -0.039543364 -0.13557725 -0.045192417 0.22596209 -0.3897846 -0.16947156 -0.22031303

std.constant17 f4 [32, 3, 3, 1]
000000 6d e5 48 bf 72 14 55 bd 84 2d 79 be 87 5b 2d 3f
       -0.78475076 -0.05202145 -0.24333769 0.67717785
000010 d8 a4 16 bf 0d d5 9e 3e e7 5d 02 be d8 a1 6b 3e
       -0.5884528 0.3102192 -0.12731133 0.23010957
000020 bf 3e f9 3e 90 d1 13 3f 33 b0 03 be 45 3a 16 bf
       0.48680684 0.5774164 -0.12860183 -0.5868266
000030 37 9b c8 be 8c 53 f7 be 0f c5 ab 3d 27 75 ae be
       -0.3918092 -0.4830593 0.08387195 -0.34073755
000040 11 d9 08 3f 9d 47 9a 3e d0 00 88 bf 9e ad de bd
       0.5345622 0.30132762 -1.0625248 -0.108729586
000050 a7 70 df 3e 45 46 16 3f 55 b2 70 3f 8c 14 46 3f
       0.43640634 0.5870097 0.94022113 0.773751
000060 1f 90 8b be 55 db 87 3e cf f1 1f bf 4c cb d1 bd
       -0.27258393 0.26534525 -0.62478346 -0.10243854
000070 49 54 1b 3e 10 d7 e6 3e cb 77 d3 bd 0d 64 55 bf
       0.15168871 0.45085955 -0.10325583 -0.8335579
000080 ce 02 3a 3f 7c d5 8e be e7 ba 35 bd 88 bf e8 3d
       0.7266053 -0.2789725 -0.044367697 0.11364657
000090 8c e1 26 3f d1 a6 1e 3e 0f ac 5f bf a9 5a 05 3f
       0.6518791 0.15493323 -0.87371916 0.5209146
0000a0 49 c6 f4 3d 9b d4 29 bf 53 45 08 3f 56 04 ae 3e
       0.119518824 -0.66340035 0.5323078 0.33987683
0000b0 fb 17 e1 bd 0b 58 98 be 04 4a 8a be b5 1d 3c 3f
       -0.10990902 -0.2975467 -0.27009594 0.7348283
0000c0 c7 3d a8 3e 2f 90 b7 bd 48 ab 04 bf d6 32 c1 bc
       0.32859632 -0.08963048 -0.51823854 -0.02358381
0000d0 2c a5 cf 3e 24 13 18 bf 38 d3 60 bf 64 0c 8a be
       0.40555704 -0.59404206 -0.87822294 -0.26962578
0000e0 b2 a7 e2 bd 13 65 1a bf f3 f5 bd 3e c1 8e ce be
       -0.110671416 -0.60310477 0.37101707 -0.40343288
0000f0 b2 40 1e 3f a4 91 ac 3e 57 8a ea 3e 81 a2 89 3f
       0.6181747 0.33704865 0.4580867 1.0752717
000100 08 bc 41 3e bd c1 58 bb b9 9d 7f 3f ba 73 1c bf
       0.18919384 -0.0033074461 0.9985004 -0.61114085
000110 66 02 4f be ea 28 8a bf 2e 5a 64 be 0f 2b 45 3e
       -0.20215759 -1.0793736 -0.22300026 0.19254707
000120 d2 be 6e 3e 0b 9e 45 3e b6 ca 9e 3e 1d f1 7f 3f
       0.2331498 0.1929857 0.3101403 0.99977285
000130 b2 d6 06 3f d4 16 90 3e 30 1f aa bd ac 6c 11 3f
       0.5267135 0.28142416 -0.0830673 0.56806445
000140 39 ee d4 be e3 03 fe 3e d5 1a fa 3e e8 b6 70 3d
       -0.41588 0.4961234 0.48848596 0.058768183
000150 8d 1f b5 be 20 97 cf 3e b7 51 b8 be c8 c1 8b bf
       -0.35375634 0.40544987 -0.35999843 -1.0918512
000160 bf c8 5c 3f 22 aa af bd 40 c8 c3 3e c6 5f 6b 3f
       0.86243814 -0.08577372 0.38238716 0.91943014
000170 62 97 6d be c5 a2 f2 3e dc 66 d4 be b4 37 13 3e
       -0.23202279 0.47389808 -0.41484725 0.14376718
000180 f3 6e 7b bf e2 d4 81 bf 5d 88 52 3f cd 27 65 bd
       -0.9821617 -1.0143092 0.82239324 -0.05594616
000190 ce 4a 41 3d 60 a8 3b 3f 0d ab 95 bf 44 26 24 bf
       0.04719048 0.73303795 -1.1692826 -0.6412089
0001a0 69 03 3f 3f 97 df 57 3d 82 60 1c bf 05 1e 49 3f
       0.7461458 0.052703466 -0.6108476 0.7856143
0001b0 3b 27 53 3f b6 bb e5 be d8 7e 45 3f ef 91 92 be
       0.82481736 -0.44869775 0.77146673 -0.28626963
0001c0 e5 47 32 3f 1f ef bc 3e 19 69 76 bd 6b ed 13 bd
       0.6964095 0.36901185 -0.060158823 -0.03611509
0001d0 cd 0c 25 bf 06 ba 3c bf e6 50 14 3e 73 1e 8e bd
       -0.6447266 -0.7372135 0.14483985 -0.069394015
0001e0 6b 34 4e bf f4 4e 61 3f 21 03 eb bd f9 2a 32 bf
       -0.80548733 0.880111 -0.11475206 -0.6959682
0001f0 51 f0 23 be 25 64 05 be 1d 35 b4 3d c9 39 92 3f
       -0.16009642 -0.13026483 0.08799193 1.1423885
000200 6b 89 94 be be e8 d9 be 27 47 1e 3f 38 03 94 be
       -0.29011092 -0.4256038 0.6182732 -0.28908706
000210 e6 f7 1f 3f 6d cc 92 bf f9 88 11 bf c4 fa e8 3e
       0.6248764 -1.1468636 -0.5684963 0.4550382
000220 b6 f8 2c be 14 90 ff be a1 96 22 3f bc 3c 40 bf
       -0.1689175 -0.4991461 0.6351109 -0.75092673
000230 30 e4 1b bf f8 55 fe 3d f9 5b da 3d 97 91 f9 3e
       -0.6089506 0.12418741 0.10662074 0.4874389
000240 45 ed a2 3e c2 31 e9 bd 72 a0 2c be e4 b8 ca be
       0.31821647 -0.11386444 -0.1685808 -0.39594185
000250 1c e0 b4 3d 89 f9 27 3f 6b 4d c2 3e b5 cb 81 3e
       0.08831808 0.65615135 0.3794969 0.2535073
000260 46 66 f8 3d 2e 41 c9 bc ce a8 55 bf c8 27 bc 3d
       0.12128882 -0.024567213 -0.834607 0.09187275
000270 89 24 fe be 77 a8 56 3f dc 1b 06 3d 59 4f be 3e
       -0.4963725 0.83850807 0.032741413 0.37169912
000280 96 b7 35 bd a7 bb c9 be 6f 95 9f 3e 13 4a a0 3e
       -0.044364534 -0.3940098 0.31168696 0.31306514
000290 a1 44 f9 3e b1 15 cf bd 8a 83 6b 3e 19 cc fe be
       0.48685172 -0.10111559 0.22999397 -0.4976509
0002a0 3c 3c 35 bf 20 fe dd 3d e2 8e e4 be 8a ba d7 3e
       -0.70795035 0.10839486 -0.4464026 0.42134506
0002b0 b4 66 42 bf 60 2a 71 be c4 72 26 3f f5 9a 6f bd
       -0.7593796 -0.23551321 0.6501887 -0.058497388
0002c0 61 a6 cc 3e 1a 25 1b 3f 18 2e d0 3e bb c1 49 3e
       0.39970687 0.6060349 0.40660167 0.19702809
0002d0 a8 34 b0 3e 0b 99 18 3f d4 81 95 3e 48 4c 24 3f
       0.34415174 0.59608525 0.29200613 0.64178896
0002e0 ab 5d d2 3e 2c a0 54 be 57 3c 8c 3d 4a 53 f8 3e
       0.41087088 -0.20764226 0.068474464 0.48501045
0002f0 da 76 96 3e 9b 76 dd 3e eb d2 a6 3d 44 8b 26 3f
       0.29387552 0.4325455 0.08145698 0.6505625
000300 17 c8 1d 3f 30 8e 4d bc bb 29 84 3e 67 92 f1 3e
       0.6163344 -0.012546107 0.25813088 0.4718201
000310 92 0f 28 be c6 4d 3e 3d 81 ae f5 3e e4 a7 8d be
       -0.1641219 0.04646089 0.47984698 -0.27667153
000320 a6 1a 20 bc c4 21 43 bf 7b 4f 26 3e 56 15 05 3f
       -0.0097719785 -0.762234 0.16241257 0.5198568
000330 84 f4 25 3f c6 b0 6c bf dc c9 d7 3e 84 28 b1 be
       0.64826226 -0.92457235 0.42146194 -0.34601223
000340 73 b4 6a be 12 f2 2a 3f 82 4d 07 3f cf 1b 82 3f
       -0.22920398 0.6677562 0.5285264 1.0164737
000350 89 5b 1b 3f 22 74 39 3f 23 8c 31 3e 22 18 3a bd
       0.60686547 0.7244283 0.17338614 -0.04543317
000360 1e 2a 21 3d f4 99 7d 3d 5c 3b 33 3d 52 00 5a 3f
       0.039346807 0.0619144 0.04375778 0.8515674
000370 43 4e 32 bf c4 9e 00 3e 3a 0c ce 3e 5f ef 98 bf
       -0.6965067 0.12560564 0.40243703 -1.194805
000380 9b dc 96 3e ee 57 81 be c5 0f 59 3d e7 39 f6 3e
       0.29465184 -0.25262398 0.052993555 0.4809105
000390 bf c3 d2 be d4 b4 82 3e b4 25 36 3d 0a 35 99 3e
       -0.41164967 0.25528586 0.04446955 0.29923278
0003a0 fd b4 38 3e 05 bf 1a 3f f3 5d 1a be 17 15 86 3e
       0.18037792 0.6044772 -0.15074901 0.26187965
0003b0 e2 94 56 bf 26 63 dc 3e 94 80 d4 be 1f 49 f3 be
       -0.8382093 0.43044394 -0.41504347 -0.47516724
0003c0 72 cc 36 3f bd 61 63 bb 68 63 51 3e 8f a9 60 bf
       0.7140571 -0.0034695708 0.20448077 -0.87758726
0003d0 ce 48 6d 3f 1a f7 9d bd d4 0c f2 3e 01 6f ba bd
       0.92689216 -0.077131465 0.47275412 -0.091032036
0003e0 7e 9e 47 bf 63 57 cc bd 2d 3c d6 be a8 15 00 3f
       -0.77976215 -0.09977605 -0.41842785 0.50033045
0003f0 3b b3 12 be 9c d3 81 bd 0a e3 23 3e e6 4c 14 3e
       -0.14326183 -0.063391894 0.16004577 0.1448246

std.constant18 i1 [64, 3, 3, 32]
000000 0b 5a df 15 fc 65 2a 20 e9 12 f4 07 02 30 41 3d
       11 90 -33 21 -4 101 42 32 -23 18 -12 7 2 48 65 61
000010 15 3c 46 fe da 12 02 e5 e0 f5 18 42 df 14 20 e3
       21 60 70 -2 -38 18 2 -27 -32 -11 24 66 -33 20 32 -29
000020 04 2a d7 eb e5 4f 27 cc 0f fc 0e 23 f4 dd 3e 42
       4 42 -41 -21 -27 79 39 -52 15 -4 14 35 -12 -35 62 66
000030 f0 74 7f ee ee fb 10 f9 f0 c6 1f 4d 10 34 1c 3c
       -16 116 127 -18 -18 -5 16 -7 -16 -58 31 77 16 52 28 60
000040 38 70 fe 1c f3 21 1c db fd fe 05 5b ea 2b 2b ef
       56 112 -2 28 -13 33 28 -37 -3 -2 5 91 -22 43 43 -17
000050 f8 36 2a e9 c7 fd d7 01 14 d2 13 4b 3a 34 f9 09
       -8 54 42 -23 -57 -3 -41 1 20 -46 19 75 58 52 -7 9
000060 0c 5d 1c 07 e0 19 14 ea e4 e7 0d 1d 00 36 06 23
       12 93 28 7 -32 25 20 -22 -28 -25 13 29 0 54 6 35
000070 ea 7a 01 e3 e2 02 d0 0b d6 fa 1f 4b 1e 3b 2b 23
       -22 122 1 -29 -30 2 -48 11 -42 -6 31 75 30 59 43 35
000080 21 4a f4 1a cd 0e f9 08 f1 0a fc 0c eb 1b 24 03
       33 74 -12 26 -51 14 -7 8 -15 10 -4 12 -21 27 36 3
000090 df 5c e3 f5 f5 f7 e4 d3 e8 cb 28 04 0a 35 50 02
       -33 92 -29 -11 -11 -9 -28 -45 -24 -53 40 4 10 53 80 2
0000a0 3f 1f e2 fc ec 18 1d f2 ef e5 0d 19 ef 41 df 26
       63 31 -30 -4 -20 24 29 -14 -17 -27 13 25 -17 65 -33 38
0000b0 d4 78 16 e0 f9 fc 2c e3 ff f0 01 45 25 3d 2c 04
       -44 120 22 -32 -7 -4 44 -29 -1 -16 1 69 37 61 44 4
0000c0 2b 38 e9 f5 0e 29 09 05 c6 f8 03 fb fc 25 27 fb
       43 56 -23 -11 14 41 9 5 -58 -8 3 -5 -4 37 39 -5
0000d0 e0 2b 38 01 e1 f4 1c bf ec df 2e 4a 42 28 34 25
       -32 43 56 1 -31 -12 28 -65 -20 -33 46 74 66 40 52 37
0000e0 11 24 e4 00 f1 1c 00 d1 ef fa e6 02 df c9 3d e5
       17 36 -28 0 -15 28 0 -47 -17 -6 -26 2 -33 -55 61 -27
0000f0 e1 3e 1f d7 e1 f4 2c e6 be 10 0f 27 f3 4d 4a 08
       -31 62 31 -41 -31 -12 44 -26 -66 16 15 39 -13 77 74 8
