Android/application/app/src/main/assets/OCR/ResidualRCNNLight/model.tflite (tflite, 704944 bytes, 78 tensors)

depthwise i1 [1, 3, 3, 128]
32 32 32 32 32 32 32 32
32 32 32 32 32 32 32 32
32 32 32 32 32 32 32 32
32 32 32 32 32 32 32 32
32 32 32 32 32 32 32 32
32 32 32 32 32 32 32 32
32 32 32 32 32 32 32 32
32 32 32 32 32 32 32 32
32 32 32 32 32 32 32 32
32 32 32 32 32 32 32 32
32 32 32 32 32 32 32 32
32 32 32 32 32 32 32 32
32 32 32 32 32 32 32 32
32 32 32 32 32 32 32 32
32 32 32 32 32 32 32 32
32 32 32 32 32 32 32 32
64 64 64 64 64 64 64 64
64 64 64 64 64 64 64 64
64 64 64 64 64 64 64 64
64 64 64 64 64 64 64 64
64 64 64 64 64 64 64 64
64 64 64 64 64 64 64 64
64 64 64 64 64 64 64 64
64 64 64 64 64 64 64 64
64 64 64 64 64 64 64 64
64 64 64 64 64 64 64 64
64 64 64 64 64 64 64 64
64 64 64 64 64 64 64 64
64 64 64 64 64 64 64 64
64 64 64 64 64 64 64 64
64 64 64 64 64 64 64 64
64 64 64 64 64 64 64 64
00000000: 2020 2020 2020 2020 2020 2020 2020 2020
00000010: 2020 2020 2020 2020 2020 2020 2020 2020
00000020: 2020 2020 2020 2020 2020 2020 2020 2020
00000030: 2020 2020 2020 2020 2020 2020 2020 2020
00000040: 2020 2020 2020 2020 2020 2020 2020 2020
00000050: 2020 2020 2020 2020 2020 2020 2020 2020
00000060: 2020 2020 2020 2020 2020 2020 2020 2020
00000070: 2020 2020 2020 2020 2020 2020 2020 2020
00000080: 4040 4040 4040 4040 4040 4040 4040 4040
00000090: 4040 4040 4040 4040 4040 4040 4040 4040
000000a0: 4040 4040 4040 4040 4040 4040 4040 4040
000000b0: 4040 4040 4040 4040 4040 4040 4040 4040
000000c0: 4040 4040 4040 4040 4040 4040 4040 4040
000000d0: 4040 4040 4040 4040 4040 4040 4040 4040
000000e0: 4040 4040 4040 4040 4040 4040 4040 4040
000000f0: 4040 4040 4040 4040 4040 4040 4040 4040

ResBlock2_ChannelScale_Convolution/Conv2D f4 [128]
0.0 0.0 0.0 0.0 0.0 0.0 0.0 0.0
0.0 0.0 0.0 0.0 0.0 0.0 0.0 0.0
0.0 0.0 0.0 0.0 0.0 0.0 0.0 0.0
0.0 0.0 0.0 0.0 0.0 0.0 0.0 0.0
0.0 0.0 0.0 0.0 0.0 0.0 0.0 0.0
0.0 0.0 0.0 0.0 0.0 0.0 0.0 0.0
0.0 0.0 0.0 0.0 0.0 0.0 0.0 0.0
0.0 0.0 0.0 0.0 0.0 0.0 0.0 0.0
0.0 0.0 0.0 0.0 0.0 0.0 0.0 0.0
0.0 0.0 0.0 0.0 0.0 0.0 0.0 0.0
0.0 0.0 0.0 0.0 0.0 0.0 0.0 0.0
0.0 0.0 0.0 0.0 0.0 0.0 0.0 0.0
0.0 0.0 0.0 0.0 0.0 0.0 0.0 0.0
0.0 0.0 0.0 0.0 0.0 0.0 0.0 0.0
0.0 0.0 0.0 0.0 0.0 0.0 0.0 0.0
0.0 0.0 0.0 0.0 0.0 0.0 0.0 0.0
00000000: 0000 0000 0000 0000 0000 0000 0000 0000
00000010: 0000 0000 0000 0000 0000 0000 0000 0000
00000020: 0000 0000 0000 0000 0000 0000 0000 0000
00000030: 0000 0000 0000 0000 0000 0000 0000 0000
00000040: 0000 0000 0000 0000 0000 0000 0000 0000
00000050: 0000 0000 0000 0000 0000 0000 0000 0000
00000060: 0000 0000 0000 0000 0000 0000 0000 0000
00000070: 0000 0000 0000 0000 0000 0000 0000 0000
00000080: 0000 0000 0000 0000 0000 0000 0000 0000
00000090: 0000 0000 0000 0000 0000 0000 0000 0000
000000a0: 0000 0000 0000 0000 0000 0000 0000 0000
000000b0: 0000 0000 0000 0000 0000 0000 0000 0000
000000c0: 0000 0000 0000 0000 0000 0000 0000 0000
000000d0: 0000 0000 0000 0000 0000 0000 0000 0000
000000e0: 0000 0000 0000 0000 0000 0000 0000 0000
000000f0: 0000 0000 0000 0000 0000 0000 0000 0000
00000100: 0000 0000 0000 0000 0000 0000 0000 0000
00000110: 0000 0000 0000 0000 0000 0000 0000 0000
00000120: 0000 0000 0000 0000 0000 0000 0000 0000
00000130: 0000 0000 0000 0000 0000 0000 0000 0000
00000140: 0000 0000 0000 0000 0000 0000 0000 0000
00000150: 0000 0000 0000 0000 0000 0000 0000 0000
00000160: 0000 0000 0000 0000 0000 0000 0000 0000
00000170: 0000 0000 0000 0000 0000 0000 0000 0000
00000180: 0000 0000 0000 0000 0000 0000 0000 0000
00000190: 0000 0000 0000 0000 0000 0000 0000 0000
000001a0: 0000 0000 0000 0000 0000 0000 0000 0000
000001b0: 0000 0000 0000 0000 0000 0000 0000 0000
000001c0: 0000 0000 0000 0000 0000 0000 0000 0000
000001d0: 0000 0000 0000 0000 0000 0000 0000 0000
000001e0: 0000 0000 0000 0000 0000 0000 0000 0000
000001f0: 0000 0000 0000 0000 0000 0000 0000 0000

ResBlock2_ChannelScale_Convolution/Conv2D1 i1 [128, 3, 3, 64]
-24 -25 -3 14 6 42 -15 -19
27 4 -61 7 -1 36 -64 -22
-34 -30 7 7 7 7 9 1
-18 10 -50 -26 -9 -22 17 -39
23 9 -9 -34 3 -25 31 -52
-11 -20 18 7 25 -60 13 -18
-127 37 0 16 -29 -9 -30 24
24 -8 21 2 -12 -20 21 -19
-45 -39 -21 17 17 7 10 -49
4 7 -48 -17 -10 19 -17 -47
-56 -10 -32 -10 10 26 -10 -46
-21 -10 -38 10 -10 -74 20 -3
4 -4 -34 -26 37 -58 21 -6
5 23 -14 -6 21 -29 -15 -24
-86 9 2 47 9 -38 -5 16
32 -12 24 -27 -15 7 -9 4
-54 0 2 34 2 1 -3 11
20 -2 -9 -37 -19 13 27 -41
-55 -17 -41 -22 18 19 -10 -68
-13 -55 6 36 20 -70 -13 37
19 6 -29 -9 28 -20 -9 41
36 24 -20 -26 2 -34 -27 -27
9 -5 16 1 3 -11 0 23
-3 -21 11 -19 5 3 11 17
-10 -30 9 12 9 26 0 -32
1 -10 -50 28 12 -13 -36 22
-9 -29 26 6 -15 2 20 -20
7 19 -34 -5 5 -27 15 -50
12 12 -4 13 -6 21 36 -42
15 20 -28 8 -17 -45 -28 -28
-53 -33 2 8 -51 1 -2 5
-12 -5 9 34 -10 -38 15 -37
00000000: e8e7 fd0e 062a f1ed 1b04 c307 ff24 c0ea
00000010: dee2 0707 0707 0901 ee0a cee6 f7ea 11d9
00000020: 1709 f7de 03e7 1fcc f5ec 1207 19c4 0dee
00000030: 8125 0010 e3f7 e218 18f8 1502 f4ec 15ed
00000040: d3d9 eb11 1107 0acf 0407 d0ef f613 efd1
00000050: c8f6 e0f6 0a1a f6d2 ebf6 da0a f6b6 14fd
00000060: 04fc dee6 25c6 15fa 0517 f2fa 15e3 f1e8
00000070: aa09 022f 09da fb10 20f4 18e5 f107 f704
00000080: ca00 0222 0201 fd0b 14fe f7db ed0d 1bd7
00000090: c9ef d7ea 1213 f6bc f3c9 0624 14ba f325
000000a0: 1306 e3f7 1cec f729 2418 ece6 02de e5e5
000000b0: 09fb 1001 03f5 0017 fdeb 0bed 0503 0b11
000000c0: f6e2 090c 091a 00e0 01f6 ce1c 0cf3 dc16
000000d0: f7e3 1a06 f102 14ec 0713 defb 05e5 0fce
000000e0: 0c0c fc0d fa15 24d6 0f14 e408 efd3 e4e4
000000f0: cbdf 0208 cd01 fe05 f4fb 0922 f6da 0fdb

ResBlock2_Conv2_Convolution/Conv2D i1 [64, 3, 3, 64]
17 -10 -6 -43 -1 -20 13 -56
-9 -11 -18 13 23 9 -9 -39
-3 8 16 12 16 28 -25 -23
22 -15 -6 17 22 19 7 -8
-27 14 -14 -3 26 26 -37 39
14 -27 -43 10 -15 16 -32 3
-13 19 -3 30 -19 28 17 -2
-15 -1 -4 5 8 -16 2 9
0 -14 22 -15 -1 -6 26 8
-9 4 -40 29 27 11 11 -2
-32 39 0 32 -15 44 -5 -13
27 -44 -11 -39 14 7 -12 5
13 13 -22 18 22 -28 -47 25
10 -16 -18 11 26 17 -24 6
7 -23 6 5 -5 2 -40 -23
-16 18 -13 29 0 -12 2 28
-2 2 9 5 -2 -13 11 24
3 -23 11 -6 7 8 9 -11
3 19 -16 39 -14 10 -4 5
-15 -41 -23 -15 -7 38 8 -1
21 0 -4 18 29 -41 -9 -21
-11 -3 -5 8 -3 -20 -6 10
23 -5 18 -8 -3 10 5 -28
-44 14 -5 23 -20 -1 4 9
11 -1 -45 -16 11 -34 -5 8
1 -16 -10 17 19 9 -20 -29
-17 -2 4 -15 9 -2 -19 22
7 -40 9 2 8 17 22 -10
-11 -21 -14 -17 -7 -5 -4 22
1 -24 -10 19 -32 -17 -8 -22
-9 -19 27 26 14 28 -11 4
2 -2 17 11 -1 6 25 -17
00000000: 11f6 fad5 ffec 0dc8 f7f5 ee0d 1709 f7d9
00000010: fd08 100c 101c e7e9 16f1 fa11 1613 07f8
00000020: e50e f2fd 1a1a db27 0ee5 d50a f110 e003
00000030: f313 fd1e ed1c 11fe f1ff fc05 08f0 0209
00000040: 00f2 16f1 fffa 1a08 f704 d81d 1b0b 0bfe
00000050: e027 0020 f12c fbf3 1bd4 f5d9 0e07 f405
00000060: 0d0d ea12 16e4 d119 0af0 ee0b 1a11 e806
00000070: 07e9 0605 fb02 d8e9 f012 f31d 00f4 021c
00000080: fe02 0905 fef3 0b18 03e9 0bfa 0708 09f5
00000090: 0313 f027 f20a fc05 f1d7 e9f1 f926 08ff
000000a0: 1500 fc12 1dd7 f7eb f5fd fb08 fdec fa0a
000000b0: 17fb 12f8 fd0a 05e4 d40e fb17 ecff 0409
000000c0: 0bff d3f0 0bde fb08 01f0 f611 1309 ece3
000000d0: effe 04f1 09fe ed16 07d8 0902 0811 16f6
000000e0: f5eb f2ef f9fb fc16 01e8 f613 e0ef f8ea
000000f0: f7ed 1b1a 0e1c f504 02fe 110b ff06 19ef

ResBlock2_Conv1_Convolution/Conv2D i1 [64, 3, 3, 64]
52 2 22 17 -16 -68 -20 -10
30 -64 -32 5 -19 -98 31 -12
-117 -61 25 22 -24 12 23 21
-10 -16 8 6 -35 6 -18 -3
37 19 -65 10 2 11 8 -44
-30 2 -27 -4 32 60 42 -50
29 14 33 20 2 6 -3 -11
4 11 18 39 19 -6 -66 -34
14 39 7 -46 8 -31 29 -20
-21 -88 8 34 -4 -14 12 33
19 -57 -8 -11 3 -22 -5 5
-1 22 -12 -13 -15 40 -2 -19
32 12 -33 3 37 13 28 -28
9 -9 -11 40 23 6 41 -20
28 35 -1 12 -22 38 2 -28
-2 -5 3 1 -4 -17 -37 -18
36 11 4 27 -37 37 -15 1
33 -36 -81 65 -33 -7 -12 19
40 -20 -20 1 17 -36 -3 37
-12 16 55 18 -31 12 -29 20
-15 -8 -82 5 48 24 5 3
12 13 33 11 18 -41 3 16
-44 12 6 5 4 -41 -6 -41
56 17 30 -39 -16 -8 13 16
39 -33 24 -19 24 -16 -7 6
24 -25 -37 -29 10 -106 -14 7
-127 -46 19 24 6 -71 86 5
-14 8 31 2 -49 13 10 -16
44 -35 -97 -11 51 0 -12 45
-39 0 -12 17 7 -1 -29 -27
-57 38 -15 -7 45 0 -33 48
31 31 3 15 -16 12 -38 -61
00000000: 3402 1611 f0bc ecf6 1ec0 e005 ed9e 1ff4
00000010: 8bc3 1916 e80c 1715 f6f0 0806 dd06 eefd
00000020: 2513 bf0a 020b 08d4 e202 e5fc 203c 2ace
00000030: 1d0e 2114 0206 fdf5 040b 1227 13fa bede
00000040: 0e27 07d2 08e1 1dec eba8 0822 fcf2 0c21
00000050: 13c7 f8f5 03ea fb05 ff16 f4f3 f128 feed
00000060: 200c df03 250d 1ce4 09f7 f528 1706 29ec
00000070: 1c23 ff0c ea26 02e4 fefb 0301 fcef dbee
00000080: 240b 041b db25 f101 21dc af41 dff9 f413
00000090: 28ec ec01 11dc fd25 f410 3712 e10c e314
000000a0: f1f8 ae05 3018 0503 0c0d 210b 12d7 0310
000000b0: d40c 0605 04d7 fad7 3811 1ed9 f0f8 0d10
000000c0: 27df 18ed 18f0 f906 18e7 dbe3 0a96 f207
000000d0: 81d2 1318 06b9 5605 f208 1f02 cf0d 0af0
000000e0: 2cdd 9ff5 3300 f42d d900 f411 07ff e3e5
000000f0: c726 f1f9 2d00 df30 1f1f 030f f00c dac3

depthwise1 f4 [1, 3, 3, 64]
0.0625 0.0625 0.0625 0.0625 0.0625 0.0625 0.0625 0.0625
0.0625 0.0625 0.0625 0.0625 0.0625 0.0625 0.0625 0.0625
0.0625 0.0625 0.0625 0.0625 0.0625 0.0625 0.0625 0.0625
0.0625 0.0625 0.0625 0.0625 0.0625 0.0625 0.0625 0.0625
0.0625 0.0625 0.0625 0.0625 0.0625 0.0625 0.0625 0.0625
0.0625 0.0625 0.0625 0.0625 0.0625 0.0625 0.0625 0.0625
0.0625 0.0625 0.0625 0.0625 0.0625 0.0625 0.0625 0.0625
0.0625 0.0625 0.0625 0.0625 0.0625 0.0625 0.0625 0.0625
0.125 0.125 0.125 0.125 0.125 0.125 0.125 0.125
0.125 0.125 0.125 0.125 0.125 0.125 0.125 0.125
0.125 0.125 0.125 0.125 0.125 0.125 0.125 0.125
0.125 0.125 0.125 0.125 0.125 0.125 0.125 0.125
0.125 0.125 0.125 0.125 0.125 0.125 0.125 0.125
0.125 0.125 0.125 0.125 0.125 0.125 0.125 0.125
0.125 0.125 0.125 0.125 0.125 0.125 0.125 0.125
0.125 0.125 0.125 0.125 0.125 0.125 0.125 0.125
0.0625 0.0625 0.0625 0.0625 0.0625 0.0625 0.0625 0.0625
0.0625 0.0625 0.0625 0.0625 0.0625 0.0625 0.0625 0.0625
0.0625 0.0625 0.0625 0.0625 0.0625 0.0625 0.0625 0.0625
0.0625 0.0625 0.0625 0.0625 0.0625 0.0625 0.0625 0.0625
0.0625 0.0625 0.0625 0.0625 0.0625 0.0625 0.0625 0.0625
0.0625 0.0625 0.0625 0.0625 0.0625 0.0625 0.0625 0.0625
0.0625 0.0625 0.0625 0.0625 0.0625 0.0625 0.0625 0.0625
0.0625 0.0625 0.0625 0.0625 0.0625 0.0625 0.0625 0.0625
0.125 0.125 0.125 0.125 0.125 0.125 0.125 0.125
0.125 0.125 0.125 0.125 0.125 0.125 0.125 0.125
0.125 0.125 0.125 0.125 0.125 0.125 0.125 0.125
0.125 0.125 0.125 0.125 0.125 0.125 0.125 0.125
0.125 0.125 0.125 0.125 0.125 0.125 0.125 0.125
0.125 0.125 0.125 0.125 0.125 0.125 0.125 0.125
0.125 0.125 0.125 0.125 0.125 0.125 0.125 0.125
0.125 0.125 0.125 0.125 0.125 0.125 0.125 0.125
00000000: 0000 803d 0000 803d 0000 803d 0000 803d
00000010: 0000 803d 0000 803d 0000 803d 0000 803d
00000020: 0000 803d 0000 803d 0000 803d 0000 803d
00000030: 0000 803d 0000 803d 0000 803d 0000 803d
00000040: 0000 803d 0000 803d 0000 803d 0000 803d
00000050: 0000 803d 0000 803d 0000 803d 0000 803d
00000060: 0000 803d 0000 803d 0000 803d 0000 803d
00000070: 0000 803d 0000 803d 0000 803d 0000 803d
00000080: 0000 803d 0000 803d 0000 803d 0000 803d
00000090: 0000 803d 0000 803d 0000 803d 0000 803d
000000a0: 0000 803d 0000 803d 0000 803d 0000 803d
000000b0: 0000 803d 0000 803d 0000 803d 0000 803d
000000c0: 0000 803d 0000 803d 0000 803d 0000 803d
000000d0: 0000 803d 0000 803d 0000 803d 0000 803d
000000e0: 0000 803d 0000 803d 0000 803d 0000 803d
000000f0: 0000 803d 0000 803d 0000 803d 0000 803d
00000100: 0000 003e 0000 003e 0000 003e 0000 003e
00000110: 0000 003e 0000 003e 0000 003e 0000 003e
00000120: 0000 003e 0000 003e 0000 003e 0000 003e
00000130: 0000 003e 0000 003e 0000 003e 0000 003e
00000140: 0000 003e 0000 003e 0000 003e 0000 003e
00000150: 0000 003e 0000 003e 0000 003e 0000 003e
00000160: 0000 003e 0000 003e 0000 003e 0000 003e
00000170: 0000 003e 0000 003e 0000 003e 0000 003e
00000180: 0000 003e 0000 003e 0000 003e 0000 003e
00000190: 0000 003e 0000 003e 0000 003e 0000 003e
000001a0: 0000 003e 0000 003e 0000 003e 0000 003e
000001b0: 0000 003e 0000 003e 0000 003e 0000 003e
000001c0: 0000 003e 0000 003e 0000 003e 0000 003e
000001d0: 0000 003e 0000 003e 0000 003e 0000 003e
000001e0: 0000 003e 0000 003e 0000 003e 0000 003e
000001f0: 0000 003e 0000 003e 0000 003e 0000 003e
00000200: 0000 803d 0000 803d 0000 803d 0000 803d
00000210: 0000 803d 0000 803d 0000 803d 0000 803d
00000220: 0000 803d 0000 803d 0000 803d 0000 803d
00000230: 0000 803d 0000 803d 0000 803d 0000 803d
00000240: 0000 803d 0000 803d 0000 803d 0000 803d
00000250: 0000 803d 0000 803d 0000 803d 0000 803d
00000260: 0000 803d 0000 803d 0000 803d 0000 803d
00000270: 0000 803d 0000 803d 0000 803d 0000 803d
00000280: 0000 803d 0000 803d 0000 803d 0000 803d
00000290: 0000 803d 0000 803d 0000 803d 0000 803d
000002a0: 0000 803d 0000 803d 0000 803d 0000 803d
000002b0: 0000 803d 0000 803d 0000 803d 0000 803d
000002c0: 0000 803d 0000 803d 0000 803d 0000 803d
000002d0: 0000 803d 0000 803d 0000 803d 0000 803d
000002e0: 0000 803d 0000 803d 0000 803d 0000 803d
000002f0: 0000 803d 0000 803d 0000 803d 0000 803d
00000300: 0000 003e 0000 003e 0000 003e 0000 003e
00000310: 0000 003e 0000 003e 0000 003e 0000 003e
00000320: 0000 003e 0000 003e 0000 003e 0000 003e
00000330: 0000 003e 0000 003e 0000 003e 0000 003e
00000340: 0000 003e 0000 003e 0000 003e 0000 003e
00000350: 0000 003e 0000 003e 0000 003e 0000 003e
00000360: 0000 003e 0000 003e 0000 003e 0000 003e
00000370: 0000 003e 0000 003e 0000 003e 0000 003e
00000380: 0000 003e 0000 003e 0000 003e 0000 003e
00000390: 0000 003e 0000 003e 0000 003e 0000 003e
000003a0: 0000 003e 0000 003e 0000 003e 0000 003e
000003b0: 0000 003e 0000 003e 0000 003e 0000 003e
000003c0: 0000 003e 0000 003e 0000 003e 0000 003e
000003d0: 0000 003e 0000 003e 0000 003e 0000 003e
000003e0: 0000 003e 0000 003e 0000 003e 0000 003e
000003f0: 0000 003e 0000 003e 0000 003e 0000 003e

ResBlock1_ChannelScale_Convolution/Conv2D f4 [64]
0.0 0.0 0.0 0.0 0.0 0.0 0.0 0.0
0.0 0.0 0.0 0.0 0.0 0.0 0.0 0.0
0.0 0.0 0.0 0.0 0.0 0.0 0.0 0.0
0.0 0.0 0.0 0.0 0.0 0.0 0.0 0.0
0.0 0.0 0.0 0.0 0.0 0.0 0.0 0.0
0.0 0.0 0.0 0.0 0.0 0.0 0.0 0.0
0.0 0.0 0.0 0.0 0.0 0.0 0.0 0.0
0.0 0.0 0.0 0.0 0.0 0.0 0.0 0.0
00000000: 0000 0000 0000 0000 0000 0000 0000 0000
00000010: 0000 0000 0000 0000 0000 0000 0000 0000
00000020: 0000 0000 0000 0000 0000 0000 0000 0000
00000030: 0000 0000 0000 0000 0000 0000 0000 0000
00000040: 0000 0000 0000 0000 0000 0000 0000 0000
00000050: 0000 0000 0000 0000 0000 0000 0000 0000
00000060: 0000 0000 0000 0000 0000 0000 0000 0000
00000070: 0000 0000 0000 0000 0000 0000 0000 0000
00000080: 0000 0000 0000 0000 0000 0000 0000 0000
00000090: 0000 0000 0000 0000 0000 0000 0000 0000
000000a0: 0000 0000 0000 0000 0000 0000 0000 0000
000000b0: 0000 0000 0000 0000 0000 0000 0000 0000
000000c0: 0000 0000 0000 0000 0000 0000 0000 0000
000000d0: 0000 0000 0000 0000 0000 0000 0000 0000
000000e0: 0000 0000 0000 0000 0000 0000 0000 0000
000000f0: 0000 0000 0000 0000 0000 0000 0000 0000

ResBlock1_ChannelScale_Convolution/Conv2D1 i1 [64, 3, 3, 32]
-46 -11 17 16 98 5 -2 14
-48 -2 2 2 28 -32 -123 23
56 47 -31 -7 -1 -25 34 -12
-42 -5 -26 1 34 -9 -25 -70
-20 -1 -32 -8 -30 11 -36 1
2 25 10 -22 6 -12 -17 53
11 -119 -14 10 -11 30 66 19
-20 1 30 18 5 -14 -18 -45
1 -1 -11 -74 -12 25 -7 72
44 16 2 -18 -16 12 21 -27
-61 31 2 42 -16 -46 21 -57
3 -8 9 -10 35 -5 -5 -24
-23 4 -17 13 -31 25 -9 -44
-16 -3 4 -8 11 -7 -112 34
26 -94 -27 -46 0 25 7 31
-1 -8 14 14 -21 -10 -18 -52
26 14 -42 -41 -127 21 -35 18
20 -3 12 -5 -4 -10 14 -3
-80 -53 -3 -1 5 42 9 3
-2 11 46 -7 -30 1 -47 0
9 5 9 -88 20 13 -3 23
13 -68 -3 -8 -40 5 -18 -66
7 93 3 -14 -13 -58 23 -100
4 24 -9 -40 -13 -7 -6 -31
-9 26 -41 24 -40 7 7 -23
-2 17 24 29 -9 0 -41 3
7 -86 -51 8 5 27 10 -18
7 16 34 11 -5 -8 -9 -21
20 16 -2 -28 -29 11 0 0
6 -4 14 18 0 -13 12 -24
-43 -3 -14 -5 -6 9 4 -108
-8 13 -4 -20 8 2 -1 8
00000000: d2f5 1110 6205 fe0e d0fe 0202 1ce0 8517
00000010: 382f e1f9 ffe7 22f4 d6fb e601 22f7 e7ba
00000020: ecff e0f8 e20b dc01 0219 0aea 06f4 ef35
00000030: 0b89 f20a f51e 4213 ec01 1e12 05f2 eed3
00000040: 01ff f5b6 f419 f948 2c10 02ee f00c 15e5
00000050: c31f 022a f0d2 15c7 03f8 09f6 23fb fbe8
00000060: e904 ef0d e119 f7d4 f0fd 04f8 0bf9 9022
00000070: 1aa2 e5d2 0019 071f fff8 0e0e ebf6 eecc
00000080: 1a0e d6d7 8115 dd12 14fd 0cfb fcf6 0efd
00000090: b0cb fdff 052a 0903 fe0b 2ef9 e201 d100
000000a0: 0905 09a8 140d fd17 0dbc fdf8 d805 eebe
000000b0: 075d 03f2 f3c6 179c 0418 f7d8 f3f9 fae1
000000c0: f71a d718 d807 07e9 fe11 181d f700 d703
000000d0: 07aa cd08 051b 0aee 0710 220b fbf8 f7eb
000000e0: 1410 fee4 e30b 0000 06fc 0e12 00f3 0ce8
000000f0: d5fd f2fb fa09 0494 f80d fcec 0802 ff08

ResBlock1_Conv2_Convolution/Conv2D i1 [32, 3, 3, 32]
-40 -16 -83 -73 -32 -86 -45 -26
-59 -67 -52 -15 -92 7 -20 -29
-35 -53 -62 -37 -44 -100 -63 -43
-6 -75 -52 -20 10 -93 -76 23
-40 -11 -26 -66 22 -38 -30 -44
-76 -29 -61 -8 -47 22 -44 -53
-45 -53 -47 -4 -16 -54 -33 -48
-6 -45 -33 -73 62 -63 -101 13
-18 9 39 -74 66 58 0 -46
12 21 -82 6 46 58 8 -127
-25 16 69 79 21 -38 35 -19
-3 3 -41 -109 58 8 -70 56
5 -29 -33 -68 -9 -60 6 -18
-45 -47 -43 -28 -18 12 -40 -13
-28 -9 -75 -14 -52 -51 -38 -46
-52 -35 -2 6 -31 -4 -38 20
2 -27 -40 -65 6 -51 8 -11
-42 -18 -28 -4 14 23 -25 -55
-27 10 -29 20 1 -18 8 -35
-11 8 -23 -14 -18 33 -67 -52
66 25 17 -70 20 0 0 26
38 17 -72 -8 48 30 -47 -31
10 42 61 100 41 20 41 53
-34 27 -53 -42 21 49 -78 31
17 -65 22 -82 -45 -12 -25 -9
12 19 -77 5 18 17 -2 -43
16 29 -64 -29 -56 -30 -21 -15
27 -4 -25 -24 -26 79 -62 -23
19 -23 -8 -74 -18 20 -19 26
38 18 -18 16 17 -13 36 -35
32 75 -15 3 15 39 16 25
35 43 -51 -36 -10 53 -73 -35
00000000: d8f0 adb7 e0aa d3e6 c5bd ccf1 a407 ece3
00000010: ddcb c2db d49c c1d5 fab5 ccec 0aa3 b417
00000020: d8f5 e6be 16da e2d4 b4e3 c3f8 d116 d4cb
00000030: d3cb d1fc f0ca dfd0 fad3 dfb7 3ec1 9b0d
00000040: ee09 27b6 423a 00d2 0c15 ae06 2e3a 0881
00000050: e710 454f 15da 23ed fd03 d793 3a08 ba38
00000060: 05e3 dfbc f7c4 06ee d3d1 d5e4 ee0c d8f3
00000070: e4f7 b5f2 cccd dad2 ccdd fe06 e1fc da14
00000080: 02e5 d8bf 06cd 08f5 d6ee e4fc 0e17 e7c9
00000090: e50a e314 01ee 08dd f508 e9f2 ee21 bdcc
000000a0: 4219 11ba 1400 001a 2611 b8f8 301e d1e1
000000b0: 0a2a 3d64 2914 2935 de1b cbd6 1531 b21f
000000c0: 11bf 16ae d3f4 e7f7 0c13 b305 1211 fed5
000000d0: 101d c0e3 c8e2 ebf1 1bfc e7e8 e64f c2e9
000000e0: 13e9 f8b6 ee14 ed1a 2612 ee10 11f3 24dd
000000f0: 204b f103 0f27 1019 232b cddc f635 b7dd

ResBlock1_Conv1_Convolution/Conv2D i1 [32, 3, 3, 32]
-6 5 -1 -2 2 4 10 7
-3 6 -9 -4 4 -1 11 -7
0 12 -6 -41 -6 4 17 -4
8 -3 14 -6 5 2 0 6
-19 3 -1 15 1 6 -19 14
-2 3 -2 4 -2 3 -35 -20
1 7 4 -13 -7 2 -13 -4
-9 -3 -11 0 -16 5 4 1
-5 1 5 -3 5 3 -2 -8
-1 12 21 8 -6 4 -10 7
-2 -3 3 21 7 -1 5 -2
18 5 -20 0 9 0 8 4
-37 1 -2 0 -1 10 8 11
0 2 -59 0 0 -2 1 14
-4 0 -4 -27 0 -3 11 -21
1 -4 18 -1 2 0 -7 -7
127 -3 -10 -3 -5 -1 -19 0
6 -8 -10 -5 2 -1 -26 1
0 -18 -6 -12 3 -2 -9 -19
-20 0 -4 -4 -19 4 -11 2
-25 -2 6 -2 1 3 9 -10
2 3 13 -4 -1 -2 -3 2
9 -5 -8 11 2 -5 15 -18
6 1 -13 1 2 1 -4 0
-11 -4 1 6 1 -7 15 6
3 15 -15 1 11 -6 19 -3
-8 3 1 -15 -5 7 -6 16
-4 -5 18 0 24 3 0 8
-17 -1 5 2 2 -7 -12 -2
-3 -10 5 -2 -2 -3 -12 -7
-3 -14 -1 4 3 -3 -6 24
-25 3 0 -1 -17 5 -13 10
00000000: fa05 fffe 0204 0a07 fd06 f7fc 04ff 0bf9
00000010: 000c fad7 fa04 11fc 08fd 0efa 0502 0006
00000020: ed03 ff0f 0106 ed0e fe03 fe04 fe03 ddec
00000030: 0107 04f3 f902 f3fc f7fd f500 f005 0401
00000040: fb01 05fd 0503 fef8 ff0c 1508 fa04 f607
00000050: fefd 0315 07ff 05fe 1205 ec00 0900 0804
00000060: db01 fe00 ff0a 080b 0002 c500 00fe 010e
00000070: fc00 fce5 00fd 0beb 01fc 12ff 0200 f9f9
00000080: 7ffd f6fd fbff ed00 06f8 f6fb 02ff e601
00000090: 00ee faf4 03fe f7ed ec00 fcfc ed04 f502
000000a0: e7fe 06fe 0103 09f6 0203 0dfc fffe fd02
000000b0: 09fb f80b 02fb 0fee 0601 f301 0201 fc00
000000c0: f5fc 0106 01f9 0f06 030f f101 0bfa 13fd
000000d0: f803 01f1 fb07 fa10 fcfb 1200 1803 0008
000000e0: efff 0502 02f9 f4fe fdf6 05fe fefd f4f9
000000f0: fdf2 ff04 03fd fa18 e703 00ff ef05 f30a

ChannelUp_Convolution/Conv2D f4 [32]
0.0 0.0 0.0 0.0 0.0 0.0 0.0 0.0
0.0 0.0 0.0 0.0 0.0 0.0 0.0 0.0
0.0 0.0 0.0 0.0 0.0 0.0 0.0 0.0
0.0 0.0 0.0 0.0 0.0 0.0 0.0 0.0
00000000: 0000 0000 0000 0000 0000 0000 0000 0000
00000010: 0000 0000 0000 0000 0000 0000 0000 0000
00000020: 0000 0000 0000 0000 0000 0000 0000 0000
00000030: 0000 0000 0000 0000 0000 0000 0000 0000
00000040: 0000 0000 0000 0000 0000 0000 0000 0000
00000050: 0000 0000 0000 0000 0000 0000 0000 0000
00000060: 0000 0000 0000 0000 0000 0000 0000 0000
00000070: 0000 0000 0000 0000 0000 0000 0000 0000

ChannelUp_Convolution/Conv2D1 f4 [32, 3, 3, 3]
-0.30572954 0.4094427 0.40296677 -0.35239503 -0.05050903 0.44545 0.047608443 -0.6847813
0.3985768 -0.53771687 0.40051168 -0.056134786 0.008448828 -0.056306936 -0.17969868 0.3904694
-0.42332703 0.06481236 -0.07534266 0.29499885 -0.51544726 0.35131535 0.23593621 -0.4330845
0.49679643 -0.09009972 -0.09232537 0.17772886 -0.022809196 0.22321601 -0.34586778 -0.35497335
-0.30015075 -0.029683068 0.25306082 0.07281232 0.18667634 -0.29514515 0.19062054 -0.045809347
-0.7084272 -0.18085487 -0.27795118 -0.34733653 -0.17360978 0.010966397 -0.18778707 -0.051779293
0.08624331 -0.61706144 -0.08145129 -0.0776135 -0.6551836 -0.09313024 -0.099739805 -0.27552995
0.39557877 0.24968256 -0.680689 -0.029444957 0.37041852 -0.53423375 0.17626707 -0.13767353
0.18117237 0.2662177 0.18065983 0.21968983 -0.30562577 0.60684836 0.038266566 -0.2834033
-0.63381714 0.29616615 0.15791391 -0.52274674 0.45806485 -0.2603538 0.019615773 0.31077594
-0.1321552 -0.074316755 -0.32434288 -0.30811062 -0.19477546 -0.21146947 -0.20831086 -0.10053491
0.21586245 0.10998386 -0.44359735 -0.15198168 -0.122122645 -0.1358501 -0.087231226 -0.39967728
0.015696565 0.38114366 -0.26265433 0.15366708 -0.030232219 0.081130765 0.20164265 0.10052664
-0.044039793 0.1849878 0.3958993 0.21307534 -0.3180946 -0.12236647 -0.23994368 -0.25844017
-0.13087676 -0.0059031774 -0.22468543 -0.22076814 -0.14020526 -0.16617224 -0.30570444 -0.30985856
-0.24179885 -0.0946891 -0.09420893 -0.15766011 -0.075034596 -0.17749214 -0.11176062 -0.1761734
-0.10937617 -0.0001261828 -0.18716411 -0.12659511 -0.19115186 -0.10414245 -0.2003964 -0.19791712
0.090205304 -0.063629515 -0.5680758 -0.3413028 -0.24129805 -0.36258298 0.021786299 -0.08541317
-0.036139965 -0.0780489 -0.16439086 -0.12969455 -0.22974113 -0.22551046 -0.17511801 -0.2672249
-0.008379872 -0.121544145 0.1637456 0.0757774 -0.06867945 -0.009314606 -0.021653263 -0.09818709
0.08608159 0.46753228 0.2793932 0.3470755 0.13651533 0.013504166 0.44593388 0.05242936
0.29793558 0.6418977 0.48635426 -0.15301716 -0.26420024 -0.43330875 -0.264088 -0.5353592
-0.14591826 0.011976054 -0.21707772 0.097627625 -0.27291423 -0.1860291 -0.29044765 -0.14791794
-0.23706056 -0.2215267 0.24491751 -0.14442894 0.28546542 0.067933 0.27696478 -0.15307474
0.026131207 0.37869182 -0.4148853 0.14060856 0.21839252 -0.17985447 -0.10695191 -0.08842085
-0.05308715 -0.39490563 -0.300512 -0.24968041 -0.017384056 0.01848511 -0.024307873 0.008977638
-0.1925514 -0.17611215 -0.3913544 -0.45714897 -0.41286 0.19743592 0.10787689 0.47197878
-0.001606332 -0.13857731 -0.09730691 -0.20745516 -0.094875835 -0.08523858 -0.05107234 -0.19017702
-0.07224966 -0.25198793 -0.068362646 -0.026180709 -0.09390397 -0.18810101 -0.2134909 -0.09887761
-0.048789497 -0.23165438 -0.15535396 -0.07472688 -0.008409544 -0.17257811 -0.09625794 -0.07726736
-0.002476102 -0.17058033 -0.10390128 0.1549367 -0.25949484 0.045489814 -0.13896433 0.19610561
0.0117205875 0.29038206 0.18917237 0.119988196 -0.6788128 -0.42142433 -0.23623163 -0.4772738
00000000: 9588 9cbe 79a2 d13e a951 ce3e 1f6d b4be
00000010: 8fe2 4ebd 0612 e43e 1201 433d d44d 2fbf
00000020: 4212 cc3e d0a7 09bf de0f cd3e 97ed 65bd
00000030: f46c 0a3c 1aa2 66bd ee02 38be 9beb c73e
00000040: 52be d8be 58bc 843d 414d 9abd 170a 973e
00000050: 5af4 03bf 9bdf b33e 4399 713e 40bd ddbe
00000060: 1a5c fe3e 3486 b8bd 1515 bdbd 8efe 353e
00000070: 5ada babc bd92 643e 9515 b1be 11bf b5be
00000080: 5cad 99be e829 f3bc 3091 813e a01e 953d
00000090: 1528 3f3e 441d 97be 0832 433e 95a2 3bbd
000000a0: 7c5b 35bf 0532 39be 9e4f 8ebe 18d6 b1be
000000b0: c3c6 31be 67ac 333c 414b 40be 8616 54bd
000000c0: 55a0 b03d bdf7 1dbf efcf a6bd d4f3 9ebd
000000d0: 1dba 27bf 11bb bebd 6244 ccbd 4312 8dbe
000000e0: 4d89 ca3e c9ac 7f3e a241 2ebf 8d36 f1bc
000000f0: 7fa7 bd3e 8bc3 08bf 5b7f 343e 4afa 0cbe
00000100: 4085 393e b04d 883e e4fe 383e 5ff6 603e
00000110: fb7a 9cbe 6a5a 1b3f 67bd 1c3d 3d1a 91be
00000120: d741 22bf 17a3 973e 2fb4 213e bbd2 05bf
00000130: 7a87 ea3e 184d 85be 42b1 a03c 061e 9f3e
00000140: b153 07be 6233 98bd 4510 a6be adc0 9dbe
00000150: 3873 47be 748b 58be 714f 55be 3fe5 cdbd
00000160: 0c0b 5d3e 383f e13d 311f e3be 16a1 1bbe
00000170: 701b fabd 4a1c 0bbe 49a6 b2bd 80a2 ccbe
00000180: 1596 803c 4325 c33e a17a 86be e75a 1d3e
00000190: 8fa9 f7bc e327 a63d 697b 4e3e e9e0 cd3d
000001a0: 1263 34bd 716d 3d3e 50b3 ca3e 6c30 5a3e
000001b0: 4cdd a2be 469b fabd ccb3 75be 4552 84be
000001c0: 8f04 06be 716f c1bb f013 66be 0b11 62be
000001d0: f891 0fbe 0e29 2abe 4b85 9cbe c8a5 9ebe
000001e0: 1e9a 77be 5cec c1bd 9df0 c0bd a771 21be
000001f0: bdab 99bd 80c0 35be c0e2 e4bd cd66 34be
00000200: 9d00 e0bd f04f 04b9 f3a7 3fbe 26a2 01be
00000210: 50bd 43be a348 d5bd b734 4dbe c9aa 4abe
00000220: 8fbd b83d 3150 82bd 6a6d 11bf 3ebf aebe
00000230: d616 77be 7aa4 b9be 2e79 b23c 1aed aebd
00000240: 8007 14bd 1ad8 9fbd 1456 28be a6ce 04be
00000250: 4241 6bbe 37ec 66be 2352 33be b4d1 88be
00000260: bb4b 09bc 23ec f8bd edac 273e 2e31 9b3d
00000270: d0a7 8cbd 4a9c 18bc 2f62 b1bc 5016 c9bd
00000280: 8b4b b03d 6460 ef3e a00c 8f3e e1b3 b13e
00000290: adca 0b3e 9440 5d3c 7251 e43e 2bc0 563d
000002a0: 038b 983e 6853 243f 6d03 f93e 88b0 1cbe
000002b0: 4145 87be a5da ddbe 8b36 87be 4d0d 09bf
000002c0: 996b 15be 3637 443c 9f49 5ebe fef0 c73d
000002d0: 6abb 8bbe 6a7e 3ebe 8eb5 94be cd77 17be
000002e0: 01c0 72be e5d7 62be a8cb 7a3e 2ee5 13be
000002f0: 8628 923e 7520 8b3d 54ce 8d3e a0bf 1cbe
00000300: 1d11 d63c e5e3 c13e d96b d4be b1fb 0f3e
00000310: 4aa2 5f3e c52b 38be 9a09 dbbd fe15 b5bd
00000320: e971 59bd 1231 cabe b5dc 99be 39ac 7fbe
00000330: 0269 8ebc 166e 973c 4e21 c7bc f116 133c
00000340: 322c 45be be56 34be 9b5f c8be 6e0f eabe
00000350: 6362 d3be a42c 4a3e 8fee dc3d 34a7 f13e
00000360: 8f8b d2ba 36e7 0dbe d848 c7bd 206f 54be
00000370: 434e c2bd 9191 aebd 3b31 51bd c4bd 42be
00000380: a1f7 93bd 9004 81be b701 8cbd ed78 d6bc
00000390: ba50 c0bd 8d9d 40be 5c9d 5abe 5880 cabd
000003a0: 7fd7 47bd ce36 6dbe 1c15 1fbe 680a 99bd
000003b0: 2fc8 09bc 51b8 30be e222 c5bd 5a3e 9ebd
000003c0: 1946 22bb 9cac 2ebe 32ca d4bd baa7 1e3e
000003d0: 82dc 84be 8753 3a3d aa4c 0ebe e9cf 483e
000003e0: b507 403c f5ac 943e 67b6 413e 5fbc f53d
000003f0: adc6 2dbf eec4 d7be b4e6 71be 3b5d f4be

DenseOut/bias f4 [38]
-2.4469547 -0.02260536 -0.1515699 -0.05575625 -0.07979975 0.09196191 -0.034660924 0.04304624
-0.19670853 -0.19196084 -0.07285286 -0.11508536 -0.10753297 -0.1103673 -0.28352645 -0.05012311
0.022072786 -0.08023103 -0.1226793 0.09766912 0.19305429 -0.15704565 0.025388047 -0.050115682
-0.08039689 -0.13657479 0.029478546 -0.21034886 -0.17232206 0.075356334 0.14222503 -0.06932672
-0.13708757 -0.026210578 0.07201776 -0.07650704 0.118954815 0.4705422
00000000: e89a 1cc0 e02e b9bc 2435 1bbe aa60 64bd
00000010: 0d6e a3bd 8756 bc3d 9df8 0dbd 4151 303d
00000020: f66d 49be 6291 44be e133 95bd e0b1 ebbd
00000030: 3f3a dcbd 4008 e2bd 612a 91be e44d 4dbd
00000040: fdd1 b43c 2b50 a4bd 493f fbbd bf06 c83d
00000050: 06b0 453e 93d0 20be 98fa cf3c 1a46 4dbd
00000060: 20a7 a4bd 43da 0bbe fe7c f13c b165 57be
00000070: 3275 30be 6c54 9a3d 70a3 113e 2bfb 8dbd
00000080: af60 0cbe 91b7 d6bc 0c7e 933d b9af 9cbd
00000090: 959e f33d e8ea f03e

Dense1/bias f4 [64]
0.030336838 0.050145447 0.0073610293 -0.02142395 0.10012609 0.016037745 -0.0028959026 -0.029724682
0.036521405 0.021450471 0.04766225 0.018980192 0.009328686 0.08538045 0.060207013 0.037374627
0.083833516 0.0115808295 0.024091827 -0.036944564 -0.0021416969 0.10670455 0.08932232 0.10027693
-0.036280636 0.037679885 0.101889476 0.014203831 0.016002275 0.1557537 0.11211618 0.025168922
-0.034636643 -0.013866169 -0.055898096 0.017255127 0.11323228 0.071218275 0.02427749 -0.023801645
0.046802912 0.08354615 0.08418443 0.01228877 0.02986595 0.006670318 0.061231274 0.009098337
0.07323669 -0.04962833 -0.0160413 0.026717378 0.061348766 -0.030080492 -0.03509377 0.08080389
0.093575224 0.008178569 -0.0004353529 0.011236975 -0.019521844 0.058806855 0.114494465 0.03035895
00000000: f684 f83c 5065 4d3d ca34 f13b 4881 afbc
00000010: e80e cd3d 9761 833c 2fc9 3dbb 2d81 f3bc
00000020: 7897 153d e6b8 af3c 7e39 433d 597c 9b3c
00000030: 58d7 183c f2db ae3d a19b 763d 2316 193d
00000040: e8b0 ab3d 85bd 3d3c 395c c53c 2f53 17bd
00000050: b65b 0cbb ea87 da3d 9fee b63d fe5d cd3d
00000060: 019b 14bd 3956 1a3d 6eab d03d 2fb7 683c
00000070: 3417 833c e67d 1f3e 2b9d e53d 0e2f ce3c
00000080: 27df 0dbd ee2e 63bc 67f5 64bd a05a 8d3c
00000090: 53e6 e73d e3da 913d 96e1 c63c abfb c2bc
000000a0: 69b4 3f3d 3e1a ab3d e368 ac3d d656 493c
000000b0: 70a9 f43c af92 da3b a5cd 7a3d 3111 153c
000000c0: 1efd 953d 1347 4bbd 0b69 83bc 67de da3c
000000d0: d848 7b3d 5d6b f6bc 7cbe 0fbd 837c a53d
000000e0: 5ea4 bf3d 68ff 053c 1440 e4b9 4a1b 383c
000000f0: 46ec 9fbc 75df 703d 137c ea3d 55b3 f83c

ChannelUp_BatchNorm/FusedBatchNormV3 f4 [32]
14.685269 25.138094 13.332858 5.3084474 28.985132 32.127987 3.1978204 15.351835
24.465654 10.405943 9.615461 25.527353 33.218372 21.122568 4.5237584 3.5903802
11.126482 13.562295 21.760626 0.29504836 1.4395595 18.31887 34.47376 10.612196
12.642479 32.088356 0.5133828 17.588486 1.910421 30.339106 0.18943998 22.121784
00000000: ddf6 6a41 d11a c941 6353 5541 cdde a940
00000010: 8de1 e741 0f83 0042 17a9 4c40 1ea1 7541
00000020: a9b9 c341 be7e 2641 eed8 1941 0538 cc41
00000030: 9ddf 0442 05fb a841 a1c2 9040 cac8 6540
00000040: 1206 3241 29ff 5841 c315 ae41 9410 973e
00000050: 7c43 b83f 0c8d 9241 21e5 0942 8ecb 2941
00000060: 9847 4a41 7a5a 0042 0e6d 033f 38b5 8c41
00000070: ad88 f43f 7db6 f241 8efc 413e 6af9 b041

ChannelUp_BatchNorm/FusedBatchNormV31 f4 [32]
-0.31175324 0.02551259 -0.30780864 -0.025987322 0.0070881997 0.001201858 -0.0144378655 0.0012018445
-0.0008168783 -0.008586259 -0.0021127448 3.634143e-05 0.0011069187 -0.0051983725 -0.010737534 -0.048834868
-0.16807246 0.0030261532 0.007469801 -0.025139958 -0.038142495 -0.34228775 0.0006685448 -0.006940149
0.010025128 -0.0024507535 -0.03609875 -0.42169294 -0.028178148 -0.22787826 -0.033382565 -0.004015724
00000000: 1f9e 9fbe c7ff d03c 1899 9dbe 5de3 d4bc
00000010: 2144 e83b aa87 9d3a cc8c 6cbc 3687 9d3a
00000020: c623 56ba 61ad 0cbc fa75 0abb 506d 1838
00000030: 0716 913a 1c57 aabb 7bec 2fbc 1207 48bd
00000040: 301b 2cbe 6d52 463b 3cc5 f43b 50f2 cdbc
00000050: 4e3b 1cbd 5740 afbe 4841 2f3a 306a e3bb
00000060: 6f40 243c d29c 20bb 48dc 13bd 23e8 d7be
00000070: dcd5 e6bc eb58 69be 28bc 08bd 5696 83bb

std.constant i1 [128, 128] scale=0.01854362 zero_point=0
0.6490267 0.2966979 0.42650324 0.6490267 0.24106705 0.2966979 0.11126172 0.6675703
0.092718095 0.389416 -0.72320116 0.18543619 -0.31524155 -0.55630857 0.07417448 0.37087238
0.07417448 -0.5748522 -0.22252344 -0.22252344 0.61193943 0.31524155 0.35232878 -0.18543619
0.9642682 -0.4821341 -0.01854362 0.01854362 0.18543619 -0.61193943 0.05563086 -0.6675703
-0.11126172 0.07417448 -0.5748522 0.0 0.22252344 -0.42650324 -1.0198991 0.70465755
-0.31524155 -0.31524155 -0.5006777 -0.40795964 -0.2966979 -0.01854362 -0.11126172 -0.25961068
0.25961068 0.03708724 -0.16689257 0.4635905 -0.40795964 0.9457246 0.6490267 0.16689257
-0.05563086 0.2966979 -0.14834896 -0.16689257 0.27815428 0.24106705 0.27815428 0.72320116
-0.01854362 -0.16689257 -0.389416 -1.0013554 -0.55630857 -0.4635905 -0.03708724 -0.14834896
-0.05563086 -0.31524155 -0.22252344 0.14834896 -0.03708724 -0.37087238 1.0013554 -0.27815428
-0.27815428 -0.20397982 -0.53776497 0.5748522 0.03708724 0.27815428 0.092718095 -0.72320116
0.12980534 0.11126172 0.40795964 0.092718095 -0.18543619 -0.51922137 0.70465755 0.07417448
-0.24106705 -0.27815428 0.33378515 0.31524155 0.14834896 0.03708724 -0.03708724 0.55630857
-0.22252344 0.61193943 -0.18543619 -0.24106705 0.40795964 -0.20397982 0.12980534 0.4821341
-0.24106705 0.07417448 -0.389416 -0.092718095 -0.16689257 0.5006777 0.87155014 -0.03708724
0.33378515 0.53776497 0.01854362 0.2966979 0.31524155 -0.25961068 -0.68611395 -0.27815428
0.22252344 0.89009374 -0.18543619 -0.31524155 -0.092718095 0.89009374 0.40795964 0.53776497
0.01854362 -0.33378515 -0.05563086 0.0 -0.6490267 0.18543619 -0.4821341 0.61193943
-0.14834896 -0.44504687 -0.5748522 -0.25961068 0.07417448 0.5748522 0.01854362 -0.61193943
0.389416 0.24106705 -0.8530065 -0.18543619 -0.40795964 -0.092718095 -0.389416 -0.03708724
-0.24106705 0.22252344 -0.16689257 -0.092718095 -0.6304831 -0.44504687 -0.24106705 0.2966979
0.092718095 -0.37087238 0.4821341 -0.51922137 -0.092718095 0.389416 -0.20397982 0.25961068
-1.0755299 0.42650324 0.05563086 -0.5748522 0.11126172 0.53776497 -0.03708724 -0.12980534
-0.03708724 0.31524155 0.14834896 -0.03708724 -0.37087238 0.11126172 0.07417448 0.389416
-0.2966979 -0.6675703 0.2966979 0.53776497 0.12980534 -0.40795964 -0.51922137 0.55630857
0.25961068 0.01854362 -0.03708724 0.4821341 -0.07417448 -0.01854362 0.33378515 -0.40795964
-0.42650324 -0.40795964 0.37087238 0.44504687 -0.12980534 0.778832 0.55630857 -0.22252344
0.70465755 0.25961068 0.11126172 0.18543619 0.40795964 0.20397982 -0.25961068 -0.89009374
0.2966979 -0.44504687 0.35232878 0.31524155 -0.18543619 0.07417448 -0.35232878 -0.389416
0.72320116 -0.12980534 0.0 -0.16689257 -0.25961068 0.05563086 -0.90863734 0.22252344
0.90863734 0.07417448 -0.05563086 0.12980534 -0.40795964 -0.18543619 0.05563086 0.22252344
0.16689257 -0.05563086 0.11126172 -0.22252344 -0.33378515 -0.14834896 0.092718095 0.16689257
00000000: 2310 1723 0d10 0624 0515 d90a efe2 0414
00000010: 04e1 f4f4 2111 13f6 34e6 ff01 0adf 03dc
00000020: fa04 e100 0ce9 c926 efef e5ea f0ff faf2
00000030: 0e02 f719 ea33 2309 fd10 f8f7 0f0d 0f27
00000040: fff7 ebca e2e7 fef8 fdef f408 feec 36f1
00000050: f1f5 e31f 020f 05d9 0706 1605 f6e4 2604
00000060: f3f1 1211 0802 fe1e f421 f6f3 16f5 071a
00000070: f304 ebfb f71b 2ffe 121d 0110 11f2 dbf1
00000080: 0c30 f6ef fb30 161d 01ee fd00 dd0a e621
00000090: f8e8 e1f2 041f 01df 150d d2f6 eafb ebfe
000000a0: f30c f7fb dee8 f310 05ec 1ae4 fb15 f50e
000000b0: c617 03e1 061d fef9 fe11 08fe ec06 0415
000000c0: f0dc 101d 07ea e41e 0e01 fe1a fcff 12ea
000000d0: e9ea 1418 f92a 1ef4 260e 060a 160b f2d0
000000e0: 10e8 1311 f604 edeb 27f9 00f7 f203 cf0c
000000f0: 3104 fd07 eaf6 030c 09fd 06f4 eef8 0509

std.constant1 i1 [128, 128] scale=0.016735869 zero_point=0
0.56901956 -0.20083043 -0.066943474 0.3179815 -0.71964234 0.7363782 0.502076 -0.28450978
-0.2677739 0.0 -0.033471737 -0.71964234 -0.9539445 0.38492498 0.56901956 0.2175663
-0.18409455 -0.55228364 0.35145324 -0.016735869 -0.20083043 0.251038 0.016735869 0.100415215
0.4183967 -0.9037369 -0.46860433 -0.6694347 -0.40166086 0.48534018 -0.60249126 0.8200576
0.55228364 0.18409455 -0.16735868 0.23430216 -0.5857554 -1.1045673 1.1882466 -0.18409455
0.251038 -0.033471737 0.2677739 -0.15062281 0.11715108 0.60249126 0.08367934 -0.20083043
-0.050207607 0.100415215 -0.18409455 0.5355478 0.2175663 0.30124563 0.38492498 0.11715108
-0.56901956 -0.251038 0.4351326 -0.15062281 0.20083043 0.13388695 0.033471737 0.30124563
-0.3179815 -0.8367934 0.2175663 0.8200576 0.13388695 0.30124563 -1.2049825 0.15062281
0.4183967 -0.502076 -0.16735868 0.0 0.100415215 0.46860433 0.16735868 -0.15062281
0.48534018 0.4351326 0.9037369 0.08367934 0.5355478 1.271926 0.3681891 0.7865858
-0.33471736 0.066943474 0.60249126 0.2175663 0.16735868 -0.15062281 -0.18409455 0.2677739
0.08367934 -0.28450978 0.2677739 0.3179815 0.8535293 -0.48534018 -0.51881194 -0.4351326
-0.11715108 -0.5857554 -0.5355478 0.0 -0.5355478 -0.2175663 0.066943474 0.93720865
0.5857554 0.38492498 -0.20083043 0.2175663 1.1045673 -0.6526989 0.5355478 -0.38492498
0.066943474 0.2175663 0.6694347 -1.0710956 0.3681891 -0.68617064 0.0 0.502076
0.16735868 0.033471737 1.0878315 0.33471736 0.5857554 -0.40166086 0.016735869 0.56901956
-0.4351326 -0.20083043 -0.3179815 -0.016735869 -0.35145324 -1.907889 0.7029065 0.20083043
-0.066943474 0.35145324 -0.3681891 -0.251038 0.16735868 0.502076 0.033471737 -0.9037369
0.68617064 -0.20083043 0.30124563 0.4351326 -0.635963 -0.502076 -0.08367934 -0.40166086
0.2175663 0.2677739 1.020888 -0.15062281 -0.08367934 -0.6526989 0.5355478 0.066943474
0.066943474 -0.71964234 -0.15062281 0.23430216 0.20083043 -0.38492498 0.2677739 0.100415215
0.16735868 -0.11715108 -0.3681891 -0.3681891 0.050207607 0.3179815 0.3681891 -0.56901956
0.18409455 0.066943474 -0.11715108 -0.28450978 -0.35145324 0.251038 -0.033471737 1.020888
-0.48534018 0.33471736 0.68617064 -0.7029065 0.050207607 -0.40166086 -0.30124563 0.15062281
0.2175663 -0.15062281 0.20083043 -0.51881194 -0.46860433 -0.55228364 -0.38492498 -0.066943474
0.2677739 0.3179815 -0.4351326 0.050207607 -0.11715108 0.20083043 -0.6192271 0.45186844
0.15062281 -0.35145324 0.4351326 -0.46860433 -0.16735868 -0.15062281 0.050207607 -0.7029065
-0.251038 -0.30124563 -0.28450978 0.68617064 0.3179815 0.18409455 0.38492498 0.35145324
-0.050207607 0.48534018 -0.2175663 0.066943474 1.2049825 0.16735868 0.48534018 -0.48534018
-0.016735869 -0.20083043 0.40166086 -0.15062281 -0.8702652 0.11715108 0.0 0.502076
-0.18409455 0.2677739 0.7029065 -0.033471737 0.066943474 0.16735868 0.46860433 0.050207607
00000000: 22f4 fc13 d52c 1eef f000 fed5 c717 220d
00000010: f5df 15ff f40f 0106 19ca e4d8 e81d dc31
00000020: 210b f60e ddbe 47f5 0ffe 10f7 0724 05f4
00000030: fd06 f520 0d12 1707 def1 1af7 0c08 0212
00000040: edce 0d31 0812 b809 19e2 f600 061c 0af7
00000050: 1d1a 3605 204c 162f ec04 240d 0af7 f510
00000060: 05ef 1013 33e3 e1e6 f9dd e000 e0f3 0438
00000070: 2317 f40d 42d9 20e9 040d 28c0 16d7 001e
00000080: 0a02 4114 23e8 0122 e6f4 edff eb8e 2a0c
00000090: fc15 eaf1 0a1e 02ca 29f4 121a dae2 fbe8
000000a0: 0d10 3df7 fbd9 2004 04d5 f70e 0ce9 1006
000000b0: 0af9 eaea 0313 16de 0b04 f9ef eb0f fe3d
000000c0: e314 29d6 03e8 ee09 0df7 0ce1 e4df e9fc
000000d0: 1013 e603 f90c db1b 09eb 1ae4 f6f7 03d6
000000e0: f1ee ef29 130b 1715 fd1d f304 480a 1de3
000000f0: fff4 18f7 cc07 001e f510 2afe 040a 1c03

std.constant2 i1 [128, 128] scale=0.018394891 zero_point=0
-0.68061095 -0.1839489 0.38629273 -0.018394891 0.2207387 0.47826716 -0.47826716 -0.14715913
0.14715913 0.2207387 0.018394891 0.34950292 -0.09197445 0.27592337 -0.7174007 0.11036935
-0.2207387 0.018394891 0.12876424 -0.1839489 -0.11036935 -0.31271315 0.33110803 -0.23913358
-0.018394891 0.4414774 -0.4230825 -0.055184674 -0.09197445 0.25752848 -0.036789782 0.2023438
0.27592337 0.14715913 -0.29431826 -0.16555402 0.2207387 0.14715913 -0.25752848 -0.073579565
0.51505697 0.29431826 -0.38629273 0.11036935 -0.2207387 -0.34950292 0.23913358 0.0
0.2023438 0.2207387 -0.09197445 -0.66221607 -0.4046876 -0.6070314 -0.33110803 0.036789782
0.12876424 -0.29431826 0.11036935 -0.25752848 0.09197445 0.09197445 0.16555402 0.4230825
-0.2023438 -0.036789782 0.16555402 0.1839489 0.1839489 0.12876424 0.1839489 -0.036789782
0.16555402 0.018394891 -0.036789782 -0.8645599 -0.09197445 -0.23913358 -0.38629273 0.34950292
0.0 0.25752848 0.018394891 0.11036935 0.23913358 -0.33110803 0.055184674 -0.12876424
0.4414774 0.1839489 -0.073579565 -0.09197445 0.036789782 -0.55184674 0.16555402 0.1839489
-0.2023438 -0.34950292 -0.23913358 -0.33110803 -0.16555402 0.3678978 0.073579565 0.29431826
0.25752848 -0.2207387 0.09197445 0.09197445 0.055184674 0.33110803 -0.036789782 -0.38629273
-0.4230825 -0.31271315 0.33110803 0.34950292 0.2023438 0.018394891 -0.11036935 -0.055184674
0.073579565 -0.29431826 -0.018394891 0.34950292 -0.09197445 0.31271315 0.14715913 -0.073579565
0.29431826 -1.3796169 0.2023438 0.25752848 -0.2207387 0.45987228 0.79098034 0.16555402
0.14715913 -0.14715913 0.2023438 0.1839489 0.23913358 0.2207387 -0.3678978 0.4414774
-0.23913358 -0.018394891 0.12876424 -0.8093752 0.2207387 0.49666205 0.073579565 -0.11036935
0.25752848 0.1839489 -0.93813944 0.073579565 0.6438212 -0.2207387 0.25752848 0.38629273
-0.77258545 -0.12876424 -0.2207387 -0.45987228 0.23913358 -0.2023438 -0.27592337 0.25752848
0.6070314 -0.45987228 0.55184674 0.47826716 0.018394891 0.018394891 0.14715913 0.6070314
-0.33110803 0.12876424 0.51505697 0.8645599 0.2207387 0.8645599 -0.11036935 -0.34950292
0.33110803 0.93813944 0.2207387 -0.09197445 -0.51505697 0.12876424 0.018394891 -0.47826716
0.27592337 -0.11036935 0.4046876 0.23913358 0.055184674 -0.11036935 -0.4414774 0.4230825
0.11036935 -0.055184674 0.09197445 1.6003555 -0.036789782 -0.4414774 0.11036935 -0.09197445
-0.055184674 -0.11036935 0.12876424 0.2207387 -0.29431826 -0.036789782 -0.055184674 -0.055184674
0.33110803 0.66221607 0.55184674 0.9565343 0.45987228 0.14715913 -0.29431826 -0.1839489
0.33110803 0.073579565 -0.79098034 0.57024163 -1.011719 -0.4046876 0.8645599 -0.073579565
0.38629273 -0.11036935 0.23913358 0.29431826 -0.25752848 0.12876424 -0.5886365 -0.27592337
-0.018394891 0.073579565 -0.27592337 0.3678978 -0.49666205 0.09197445 -0.34950292 0.45987228
0.055184674 -0.12876424 -0.38629273 0.1839489 0.1839489 -0.2023438 -0.073579565 0.16555402
00000000: dbf6 15ff 0c1a e6f8 080c 0113 fb0f d906
00000010: f401 07f6 faef 12f3 ff18 e9fd fb0e fe0b
00000020: 0f08 f0f7 0c08 f2fc 1c10 eb06 f4ed 0d00
00000030: 0b0c fbdc eadf ee02 07f0 06f2 0505 0917
00000040: f5fe 090a 0a07 0afe 0901 fed1 fbf3 eb13
00000050: 000e 0106 0dee 03f9 180a fcfb 02e2 090a
00000060: f5ed f3ee f714 0410 0ef4 0505 0312 feeb
00000070: e9ef 1213 0b01 fafd 04f0 ff13 fb11 08fc
00000080: 10b5 0b0e f419 2b09 08f8 0b0a 0d0c ec18
00000090: f3ff 07d4 0c1b 04fa 0e0a cd04 23f4 0e15
000000a0: d6f9 f4e7 0df5 f10e 21e7 1e1a 0101 0821
000000b0: ee07 1c2f 0c2f faed 1233 0cfb e407 01e6
000000c0: 0ffa 160d 03fa e817 06fd 0557 fee8 06fb
000000d0: fdfa 070c f0fe fdfd 1224 1e34 1908 f0f6
000000e0: 1204 d51f c9ea 2ffc 15fa 0d10 f207 e0f1
000000f0: ff04 f114 e505 ed19 03f9 eb0a 0af5 fc09

std.constant3 i1 [128, 128] scale=0.020910533 zero_point=0
0.0627316 0.20910533 0.46003172 0.29274747 -0.16728427 0.5645844 0.1881948 -0.041821066
-0.020910533 0.5436739 -0.39730012 -0.1254632 0.0627316 0.23001586 -0.60640544 -0.041821066
0.27183694 -0.23001586 -0.27183694 -0.020910533 0.39730012 0.0627316 -0.23001586 -0.23001586
0.08364213 -0.27183694 0.46003172 -0.77368975 -0.29274747 -0.1881948 -0.020910533 -0.2509264
0.14637373 0.5436739 -0.14637373 -0.1881948 0.08364213 -0.1254632 -0.313658 0.29274747
-0.041821066 -0.1254632 -0.08364213 0.0627316 -0.16728427 0.0627316 -0.1881948 -0.5436739
0.14637373 -0.20910533 0.0627316 0.6900476 -0.1254632 0.60640544 0.14637373 -0.6900476
-0.3763896 -0.20910533 -0.39730012 -0.313658 -0.14637373 -0.41821066 0.16728427 0.48094225
0.29274747 -0.6482265 0.08364213 -0.14637373 0.66913706 -0.7109581 -0.08364213 0.5645844
-0.3763896 -0.104552664 0.104552664 0.14637373 0.35547906 -0.5018528 0.8782424 0.0
-0.313658 0.46003172 0.0 0.1254632 0.29274747 0.20910533 -0.08364213 -0.5436739
-0.1881948 -0.104552664 0.4391212 0.1254632 0.33456853 -0.041821066 0.313658 0.2509264
-0.313658 0.23001586 0.39730012 0.3763896 0.29274747 -0.3763896 -0.1881948 -0.313658
0.020910533 -0.35547906 -0.48094225 -0.29274747 -0.29274747 0.3763896 -0.020910533 0.5645844
0.23001586 -0.1254632 -0.3763896 -0.5227633 0.627316 0.104552664 0.23001586 0.313658
-0.313658 0.08364213 0.313658 0.16728427 -0.0627316 -0.020910533 0.041821066 0.4391212
0.08364213 0.7318687 0.0627316 -0.1254632 -1.2337215 0.48094225 -0.27183694 0.940974
0.33456853 0.35547906 0.08364213 0.27183694 0.6482265 0.6900476 -0.5436739 0.041821066
-0.35547906 -0.2509264 0.1881948 -0.48094225 -0.1254632 0.5018528 -0.2509264 -0.7318687
-0.5645844 0.3763896 -0.23001586 -0.66913706 0.23001586 0.08364213 -0.46003172 0.2509264
0.0 -0.33456853 0.041821066 0.2509264 -0.48094225 -0.27183694 -0.1881948 -0.0627316
0.16728427 0.1881948 0.16728427 0.9618845 -0.041821066 -0.0627316 0.16728427 1.3591846
-0.5436739 0.0 0.5645844 -0.08364213 0.5436739 0.23001586 0.5645844 -0.313658
-0.7109581 -0.020910533 0.4391212 0.27183694 -0.16728427 0.627316 0.66913706 -0.27183694
0.33456853 -0.020910533 0.041821066 0.20910533 0.7109581 -0.041821066 -0.5018528 0.39730012
-0.5436739 -0.6900476 0.20910533 0.33456853 0.1254632 0.313658 -0.5018528 -0.104552664
-0.3763896 0.3763896 0.35547906 0.020910533 -0.89915293 0.0 0.48094225 0.104552664
0.0 -0.1881948 0.16728427 0.20910533 0.5018528 -0.1881948 -0.29274747 -0.041821066
-0.7109581 -0.041821066 -1.3173636 -0.35547906 -1.0664372 -0.6482265 0.66913706 0.60640544
0.5645844 0.39730012 0.35547906 0.5436739 -0.48094225 0.1254632 -0.3763896 0.041821066
0.0 -0.1881948 -0.0627316 -0.0627316 -0.4391212 -0.313658 -0.7109581 -0.104552664
0.0 -0.5018528 0.1254632 0.14637373 -0.1881948 -0.58549494 -0.1254632 0.23001586
00000000: 030a 160e f81b 09fe ff1a edfa 030b e3fe
00000010: 0df5 f3ff 1303 f5f5 04f3 16db f2f7 fff4
00000020: 071a f9f7 04fa f10e fefa fc03 f803 f7e6
00000030: 07f6 0321 fa1d 07df eef6 edf1 f9ec 0817
00000040: 0ee1 04f9 20de fc1b eefb 0507 11e8 2a00
00000050: f116 0006 0e0a fce6 f7fb 1506 10fe 0f0c
00000060: f10b 1312 0eee f7f1 01ef e9f2 f212 ff1b
00000070: 0bfa eee7 1e05 0b0f f104 0f08 fdff 0215
00000080: 0423 03fa c517 f32d 1011 040d 1f21 e602
00000090: eff4 09e9 fa18 f4dd e512 f5e0 0b04 ea0c
000000a0: 00f0 020c e9f3 f7fd 0809 082e fefd 0841
000000b0: e600 1bfc 1a0b 1bf1 deff 150d f81e 20f3
000000c0: 10ff 020a 22fe e813 e6df 0a10 060f e8fb
000000d0: ee12 1101 d500 1705 00f7 080a 18f7 f2fe
000000e0: defe c1ef cde1 201d 1b13 111a e906 ee02
000000f0: 00f7 fdfd ebf1 defb 00e8 0607 f7e4 fa0b

std.constant4 f4 [128]
-0.48215714 -0.6958927 -0.62501866 -1.0202053 -0.6667769 -0.4604207 -0.20208105 -1.406522
-1.2977293 -0.39636278 -0.02353074 -0.95759904 -0.6145783 -0.40512028 -0.3543212 -0.3609198
-0.63642657 -0.24860202 -0.5476929 -0.44178066 -0.5356666 -0.7093004 -0.6667164 -0.3918847
-0.36078218 -1.0757433 -0.1600042 -0.47582003 -0.30433324 -0.3796615 -0.44613948 -0.57698023
-0.78940386 -0.41528684 -0.26737103 -0.65687704 -0.29271168 -0.67527026 -0.79031354 -0.25857225
0.0075796368 -0.6222192 -0.20673497 -1.1694825 -0.12855385 -0.8180357 -0.67240506 -0.19186196
-0.3501841 -0.42357382 -0.31385702 -0.93524665 -0.22574091 -0.84596497 -1.0215738 -0.31092557
-0.7230797 -0.6969367 -1.3477781 -0.21321923 -0.14863954 -0.5304105 -0.34400725 -0.534194
-0.30932924 -0.5619855 -0.40727332 -0.52008396 -0.44187552 -0.5664458 -0.696758 -0.3043193
-0.54357916 -0.18480603 -0.46524107 -0.635599 -0.48320457 -0.7304255 -0.29607108 -0.60805416
-0.37373838 -0.12920953 -0.5899469 -0.369964 -0.91557646 -0.19173948 -0.17945239 -0.72104913
-0.28299153 -0.2346925 -0.4955613 -0.3323851 -0.56020504 -0.25283435 -0.33670035 -0.36750492
-0.30123165 -1.0603758 -0.9679123 -0.38834572 -0.44287068 -0.26313013 -0.42210248 -0.6901409
-0.5161706 -0.38402933 -0.6616338 -0.8159607 -0.23983575 -0.38768867 -0.5881113 -0.25843662
-0.4257896 -0.06270218 -0.20903468 -0.37547088 -0.6929263 -0.51578176 -0.32502964 -0.5965971
-0.44260666 -0.8413724 -0.5616748 -0.36930618 -0.3812626 -0.16428734 -0.5945031 -0.5351104
00000000: 4ddd f6be 0626 32bf 3901 20bf 1696 82bf
00000010: e4b1 2abf 43bc ebbe 56ee 4ebe ea08 b4bf
00000020: fe1b a6bf 10f0 cabe 8ac3 c0bc 3625 75bf
00000030: 0155 1dbf ed6b cfbe 9769 b5be 7bca b8be
00000040: daec 22bf 8791 7ebe 9a35 0cbf 1331 e2be
00000050: 7221 09bf b694 35bf edad 2abf 1da5 c8be
00000060: 71b8 b8be f5b1 89bf 24d8 23be af9e f3be
00000070: 91d1 9bbe fe62 c2be 656c e4be fab4 13bf
00000080: 5f16 4abf 7aa0 d4be dbe4 88be 1829 28bf
00000090: 4ede 95be 83de 2cbf fd51 4abf 9563 84be
000000a0: 9a5e f83b c249 1fbf 55b2 53be 9ab1 95bf
000000b0: 9fa3 03be ca6a 51bf bd22 2cbf 7677 44be
000000c0: 554b b3be abde d8be deb1 a0be 536c 6fbf
000000d0: a028 67be 2991 58bf eec2 82bf a331 9fbe
000000e0: c01b 39bf 726a 32bf fe83 acbf 2456 5abe
000000f0: f734 18be fcc8 07bf b821 b0be f0c0 08bf
00000100: 6760 9ebe 48de 0fbf 2186 d0be 3924 05bf
00000110: 823d e2be 9802 11bf bb5e 32bf bdcf 9bbe
00000120: 0128 0bbf cb3d 3dbe 1434 eebe 9eb6 22bf
00000130: 9766 f7be 2afd 3abf a196 97be 70a9 1bbf
00000140: a35a bfbe 814f 04be c306 17bf ec6b bdbe
00000150: 3863 6abf 5b57 44be 5ec2 37be ad96 38bf
00000160: 44e4 90be 3b53 70be 36ba fdbe 612e aabe
00000170: 9969 0fbf 8173 81be fd63 acbe 9b29 bcbe
00000180: 093b 9abe 65ba 87bf 1ac9 77bf 40d5 c6be
00000190: f2bf e2be feb8 86be d11d d8be 13ad 30bf
000001a0: c223 04bf 7e9f c4be d560 29bf cde2 50bf
000001b0: 8197 75be 217f c6be 768e 16bf ce51 84be
000001c0: 1801 dabe 006a 80bd 300d 56be b83d c0be
000001d0: 9e63 31bf 460a 04bf 496a a6be 96ba 18bf
000001e0: 579d e2be 2e64 57bf ebc9 0fbf b315 bdbe
000001f0: da34 c3be f13a 28be 5b31 18bf fffc 08bf
