Android/application/app/src/main/assets/OCR/ResidualCRNN/model.tflite (tflite, 653712 bytes, 72 tensors)

Dense2/bias f4 [38]
0	0xbfcc1b5e	-1.5945852
1	0xbbd0606a	-0.0063591497
2	0x3dfa754d	0.122294046
3	0x3dd6fb57	0.10497158
4	0xbe53214a	-0.20618168
5	0x3dd09503	0.10184672
6	0xbc5b5c4a	-0.013388703
7	0xbd41129f	-0.0471369
8	0x3d7066ec	0.058691904
9	0xbc3be224	-0.01146749
10	0x3db823a8	0.08991176
11	0xbe0a6295	-0.13514169
12	0xbdc13ddc	-0.09435627
13	0xbded2f8e	-0.11581336
14	0xbbc31c48	-0.005954299
15	0xbd261bab	-0.04055373
16	0x3bf4ec56	0.0074744625
17	0x3e344f9b	0.17608492
18	0x3aa1e6bc	0.0012352089
19	0x3cec58c2	0.028850917
20	0x3e1f49c1	0.15555479
21	0xbcfc5015	-0.030799905
22	0xbd828568	-0.063731015
23	0xbd18cc05	-0.037303943
24	0xbd1f54ba	-0.03889916
25	0xbd05e0dd	-0.03268515
26	0xbdda2eee	-0.106534824
27	0xbbec1430	-0.007204555
28	0x3c57f9b1	0.01318209
29	0xbd41ea93	-0.047342848
30	0xbd2f46ef	-0.042792257
31	0x3cc85634	0.024455167
32	0x3ce4e4d1	0.02794114
33	0xbd95b58c	-0.07310018
34	0xbdb40920	-0.08790803
35	0xbade67a2	-0.0016968141
36	0x3c08f599	0.008359336
37	0xbd507e4c	-0.050901696

Dense1/bias f4 [64]
0	0xbe58eae5	-0.21183355
1	0xbb8dbb9a	-0.0043253424
2	0x3c607bfb	0.013701434
3	0xbd6e59a3	-0.058190953
4	0x3e7d14a6	0.24714908
5	0x3e2ca1fe	0.1685867
6	0x3e1ec9be	0.15506646
7	0x3e2c5392	0.16828755
8	0xbdeb9171	-0.1150235
9	0xbd7f5452	-0.062336273
10	0xbe877cb8	-0.2646234
11	0xbe620292	-0.22071293
12	0xbde301f7	-0.11084359
13	0x3d299553	0.041402172
14	0x3d04d106	0.032425903
15	0xbe9c7a1c	-0.30561912
16	0xbd9d02b6	-0.07666533
17	0x3e9ade79	0.30247858
18	0xbea85a92	-0.328816
19	0x3db37a4b	0.0876356
20	0xbda0c9d0	-0.07850993
21	0x3dfad139	0.12246937
22	0x3e23987c	0.15976137
23	0xbe0eafd5	-0.13934262
24	0x3e052fb3	0.13006477
25	0xbe296977	-0.16544138
26	0xbe7a3784	-0.2443524
27	0xbd59e002	-0.053192146
28	0xba8da09e	-0.0010805314
29	0xbda9d519	-0.08292598
30	0xbe178f7a	-0.14800826
31	0x3e23c73a	0.15993968
32	0x3d4c91f3	0.049943876
33	0xbe02cb12	-0.12772778
34	0x3d2bb309	0.041918788
35	0x3caaad23	0.020834511
36	0x3d5cdd80	0.053922176
37	0x3de1582a	0.11003144
38	0xbb9fdcd9	-0.004878622
39	0xba11beb8	-0.00055597303
40	0xbe7179bc	-0.23581594
41	0xbd9a25a6	-0.07526712
42	0x3ca05446	0.019571435
43	0xbe4e6a55	-0.2015775
44	0xbdea6f5f	-0.114470236
45	0x3eb07fa4	0.34472382
46	0x3e3a5f0c	0.1820032
47	0x3d0c51eb	0.03425781
48	0x3d9727d0	0.073806405
49	0x3c8b18cb	0.016979596
50	0xbd68c3ef	-0.05682748
51	0xbdd5d1df	-0.1044042
52	0xbd0b8567	-0.03406277
53	0x3d851eea	0.06500037
54	0xbddb116c	-0.10696682
55	0xbdc844a0	-0.09778714
56	0x3db72804	0.08943179
57	0xbe08ef94	-0.13372642
58	0xbdf1c031	-0.11804236
59	0xbce8b4cd	-0.028406525
60	0x3d63c978	0.055612057
61	0xbd293dcb	-0.041318696
62	0xbd918fdb	-0.071075164
63	0xbdf07664	-0.11741331

std.constant9 f4 [32]
0	0x417eda1d	15.92825
1	0x40d294a6	6.5806456
2	0x41a9c7c1	21.222536
3	0x4104cc51	8.299882
4	0x41ff5414	31.916054
5	0x3f125acd	0.571698
6	0x420d33f2	35.300728
7	0x41d898f4	27.074684
8	0x40a0e10f	5.027473
9	0x40d4b726	6.647357
10	0x4106aaca	8.416697
11	0x41a85e55	21.04606
12	0x40302053	2.751973
13	0x40e1de24	7.058367
14	0x40e9cdc8	7.30637
15	0x41591f9f	13.57022
16	0x411febcb	9.995067
17	0x3f1c86b8	0.61143064
18	0x411409c1	9.252381
19	0x40e72371	7.2230763
20	0x4085cca6	4.1812315
21	0x41b5aa32	22.708103
22	0x4159b5fb	13.606929
23	0x3e9834aa	0.2972768
24	0x4057722a	3.366343
25	0x41a70a70	20.880096
26	0x41195a50	9.584549
27	0x40cea5ee	6.457755
28	0x41d3e1eb	26.485312
29	0x40cb6391	6.355904
30	0x41925ee8	18.29634
31	0x4114aa51	9.291581

std.constant10 f4 [32]
0	0xbe211e5e	-0.1573424
1	0xbe0d69c1	-0.13809873
2	0x3cee433c	0.029084794
3	0xbeb453be	-0.3522014
4	0xbb4f005f	-0.0031585915
5	0xbd4cf87c	-0.05004166
6	0x3e950c89	0.29111126
7	0xbb727072	-0.0036993292
8	0xbecc2331	-0.398706
9	0xbe3748c0	-0.17898846
10	0xbd36cb56	-0.04462751
11	0xbc912e2b	-0.01772221
12	0x3c2832ea	0.010266045
13	0xbc943b18	-0.018094584
14	0xbe89ab77	-0.2688863
15	0xbeae4bdc	-0.3404225
16	0xbec22b6f	-0.37923762
17	0xbd6e0ea0	-0.058119416
18	0xbe02cb66	-0.12772903
19	0xbed30710	-0.41216326
20	0x3d5021f6	0.050813638
21	0xbbc10d8d	-0.005891508
22	0x3b302f74	0.0026883753
23	0xbc712ec0	-0.014720619
24	0x3add66b0	0.0016891565
25	0x3c1c7c0c	0.009551059
26	0x3cc875ba	0.024470199
27	0xbcade040	-0.021225095
28	0x3c228bf8	0.009921066
29	0xbe10f64d	-0.14156456
30	0x3b4c63d8	0.0031187441
31	0x3c0fbf84	0.008773688

std.constant11 i1 [128, 128] scale=0.01446851 zero_point=0
0	0x11	0.24596466
1	0xf4	-0.17362212
2	0xda	-0.5498034
3	0xfd	-0.04340553
4	0xe3	-0.41958678
5	0x2d	0.65108293
6	0xee	-0.26043317
7	0x26	0.5498034
8	0x08	0.11574808
9	0xff	-0.01446851
10	0x00	0.0
11	0x14	0.28937018
12	0xff	-0.01446851
13	0x1b	0.39064977
14	0xfc	-0.05787404
15	0xf4	-0.17362212
16	0x0c	0.17362212
17	0x07	0.10127957
18	0x20	0.4629923
19	0x09	0.13021658
20	0xf0	-0.23149616
21	0xec	-0.28937018
22	0x0b	0.15915361
23	0x07	0.10127957
24	0x1c	0.4051183
25	0x11	0.24596466
26	0xf6	-0.14468509
27	0xbe	-0.95492166
28	0xfa	-0.08681106
29	0xf9	-0.10127957
30	0xf5	-0.15915361
31	0x04	0.05787404
32	0xf9	-0.10127957
33	0xfa	-0.08681106
34	0xd4	-0.63661444
35	0xf0	-0.23149616
36	0xf1	-0.21702765
37	0x05	0.072342545
38	0xea	-0.31830722
39	0x21	0.47746083
40	0x03	0.04340553
41	0x17	0.3327757
42	0x00	0.0
43	0xf6	-0.14468509
44	0x1e	0.4340553
45	0xf0	-0.23149616
46	0xf1	-0.21702765
47	0xe5	-0.39064977
48	0x15	0.3038387
49	0x14	0.28937018
50	0x01	0.01446851
51	0xfb	-0.072342545
52	0xea	-0.31830722
53	0x0e	0.20255914
54	0xfb	-0.072342545
55	0xf0	-0.23149616
56	0xed	-0.2749017
57	0x05	0.072342545
58	0x11	0.24596466
59	0x1b	0.39064977
60	0xe3	-0.41958678
61	0x0c	0.17362212
62	0xe1	-0.4485238
63	0x0e	0.20255914
64	0x2b	0.6221459
65	0x13	0.2749017
66	0xf4	-0.17362212
67	0xee	-0.26043317
68	0xf2	-0.20255914
69	0xfb	-0.072342545
70	0x06	0.08681106
71	0xfe	-0.02893702
72	0x13	0.2749017
73	0x1e	0.4340553
74	0xd7	-0.5932089
75	0xf1	-0.21702765
76	0xfc	-0.05787404
77	0x11	0.24596466
78	0x10	0.23149616
79	0x0d	0.18809062
80	0xf7	-0.13021658
81	0xef	-0.24596466
82	0xfa	-0.08681106
83	0x02	0.02893702
84	0xff	-0.01446851
85	0xe3	-0.41958678
86	0x1a	0.37618124
87	0xf2	-0.20255914
88	0x27	0.56427187
89	0x1d	0.41958678
90	0x0e	0.20255914
91	0x09	0.13021658
92	0xed	-0.2749017
93	0x1c	0.4051183
94	0x0d	0.18809062
95	0xfb	-0.072342545
96	0xd7	-0.5932089
97	0x09	0.13021658
98	0x2b	0.6221459
99	0x17	0.3327757
100	0xef	-0.24596466
101	0xf2	-0.20255914
102	0x23	0.50639784
103	0xec	-0.28937018
104	0xe3	-0.41958678
105	0xfd	-0.04340553
106	0xfc	-0.05787404
107	0xd9	-0.56427187
108	0x15	0.3038387
109	0x09	0.13021658
110	0x16	0.31830722
111	0x01	0.01446851
112	0xfb	-0.072342545
113	0xf3	-0.18809062
114	0xf6	-0.14468509
115	0xe3	-0.41958678
116	0x0a	0.14468509
117	0xf4	-0.17362212
118	0xd9	-0.56427187
119	0x04	0.05787404
120	0x05	0.072342545
121	0xed	-0.2749017
122	0x0e	0.20255914
123	0xe0	-0.4629923
124	0x04	0.05787404
125	0xef	-0.24596466
126	0x2b	0.6221459
127	0x1c	0.4051183
128	0x0f	0.21702765
129	0x1a	0.37618124
130	0xe6	-0.37618124
131	0xf4	-0.17362212
132	0x0c	0.17362212
133	0x25	0.5353349
134	0xf1	-0.21702765
135	0xe3	-0.41958678
136	0xf6	-0.14468509
137	0x02	0.02893702
138	0x00	0.0
139	0xff	-0.01446851
140	0x07	0.10127957
141	0xf8	-0.11574808
142	0xf5	-0.15915361
143	0xef	-0.24596466
144	0xeb	-0.3038387
145	0x0a	0.14468509
146	0x13	0.2749017
147	0xe5	-0.39064977
148	0xe7	-0.36171275
149	0xcc	-0.7523625
150	0xe5	-0.39064977
151	0xff	-0.01446851
152	0x11	0.24596466
153	0x10	0.23149616
154	0xea	-0.31830722
155	0xfb	-0.072342545
156	0xe4	-0.4051183
157	0x0f	0.21702765
158	0xe4	-0.4051183
159	0xef	-0.24596466
160	0x00	0.0
161	0x13	0.2749017
162	0xe3	-0.41958678
163	0x00	0.0
164	0xf5	-0.15915361
165	0x01	0.01446851
166	0xe2	-0.4340553
167	0x15	0.3038387
168	0x1e	0.4340553
169	0x09	0.13021658
170	0x09	0.13021658
171	0x04	0.05787404
172	0x10	0.23149616
173	0xf2	-0.20255914
174	0xf3	-0.18809062
175	0x04	0.05787404
176	0xdf	-0.47746083
177	0x03	0.04340553
178	0x00	0.0
179	0x0f	0.21702765
180	0x1d	0.41958678
181	0x0e	0.20255914
182	0xf0	-0.23149616
183	0xea	-0.31830722
184	0xe5	-0.39064977
185	0x0f	0.21702765
186	0x02	0.02893702
187	0x05	0.072342545
188	0xea	-0.31830722
189	0x01	0.01446851
190	0xf0	-0.23149616
191	0x08	0.11574808
192	0xf9	-0.10127957
193	0xef	-0.24596466
194	0x2f	0.68002
195	0xfb	-0.072342545
196	0x0d	0.18809062
197	0xf5	-0.15915361
198	0x0e	0.20255914
199	0xff	-0.01446851
200	0x09	0.13021658
201	0x24	0.52086633
202	0xfa	-0.08681106
203	0xee	-0.26043317
204	0x12	0.26043317
205	0x0f	0.21702765
206	0xf7	-0.13021658
207	0xd6	-0.6076774
208	0xf9	-0.10127957
209	0xf3	-0.18809062
210	0xe0	-0.4629923
211	0xfd	-0.04340553
212	0xda	-0.5498034
213	0xfe	-0.02893702
214	0xe7	-0.36171275
215	0x08	0.11574808
216	0x0d	0.18809062
217	0x1d	0.41958678
218	0x17	0.3327757
219	0x0c	0.17362212
220	0x0c	0.17362212
221	0x11	0.24596466
222	0x15	0.3038387
223	0xf5	-0.15915361
224	0x04	0.05787404
225	0xfe	-0.02893702
226	0x11	0.24596466
227	0x0e	0.20255914
228	0x11	0.24596466
229	0xf8	-0.11574808
230	0x1e	0.4340553
231	0xfb	-0.072342545
232	0xda	-0.5498034
233	0x15	0.3038387
234	0x07	0.10127957
235	0xf7	-0.13021658
236	0x1b	0.39064977
237	0xfe	-0.02893702
238	0x23	0.50639784
239	0x01	0.01446851
240	0xfa	-0.08681106
241	0xfc	-0.05787404
242	0xfb	-0.072342545
243	0xf6	-0.14468509
244	0xf1	-0.21702765
245	0x01	0.01446851
246	0xf2	-0.20255914
247	0x13	0.2749017
248	0xf8	-0.11574808
249	0xf1	-0.21702765
250	0x10	0.23149616
251	0xee	-0.26043317
252	0x1a	0.37618124
253	0x02	0.02893702
254	0xfe	-0.02893702
255	0x18	0.34724423

std.constant12 i1 [128, 128] scale=0.016263146 zero_point=0
0	0x11	0.2764735
1	0xfd	-0.048789438
2	0x0e	0.22768405
3	0xe8	-0.3903155
4	0xf9	-0.113842025
5	0xf1	-0.2439472
6	0xf8	-0.13010517
7	0xfb	-0.081315726
8	0xf4	-0.19515775
9	0x27	0.6342627
10	0x19	0.40657866
11	0x05	0.081315726
12	0x11	0.2764735
13	0xf7	-0.14636831
14	0x0a	0.16263145
15	0xdd	-0.5692101
16	0x2d	0.73184156
17	0x15	0.34152606
18	0x01	0.016263146
19	0x12	0.29273662
20	0x28	0.6505258
21	0xfb	-0.081315726
22	0x07	0.113842025
23	0xfc	-0.065052584
24	0xef	-0.2764735
25	0x15	0.34152606
26	0xf3	-0.2114209
27	0x17	0.37405235
28	0xfe	-0.032526292
29	0x04	0.065052584
30	0x09	0.14636831
31	0xed	-0.30899978
32	0x15	0.34152606
33	0xf3	-0.2114209
34	0x32	0.8131573
35	0x19	0.40657866
36	0x1e	0.4878944
37	0xf0	-0.26021034
38	0xf6	-0.16263145
39	0x07	0.113842025
40	0xcb	-0.86194676
41	0xfb	-0.081315726
42	0xe3	-0.47163123
43	0x10	0.26021034
44	0x16	0.35778922
45	0x18	0.3903155
46	0xf4	-0.19515775
47	0x0c	0.19515775
48	0xf4	-0.19515775
49	0x03	0.048789438
50	0xe9	-0.37405235
51	0xf7	-0.14636831
52	0xef	-0.2764735
53	0xe9	-0.37405235
54	0x04	0.065052584
55	0x00	0.0
56	0x0e	0.22768405
57	0xe6	-0.4228418
58	0x00	0.0
59	0xef	-0.2764735
60	0x08	0.13010517
61	0xe5	-0.43910494
62	0x14	0.3252629
63	0xe3	-0.47163123
64	0x11	0.2764735
65	0x03	0.048789438
66	0x01	0.016263146
67	0xd6	-0.6830521
68	0xfc	-0.065052584
69	0x07	0.113842025
70	0x04	0.065052584
71	0x0a	0.16263145
72	0xee	-0.29273662
73	0x1e	0.4878944
74	0xff	-0.016263146
75	0xf7	-0.14636831
76	0xf6	-0.16263145
77	0x05	0.081315726
78	0xf3	-0.2114209
79	0x05	0.081315726
80	0x09	0.14636831
81	0x42	1.0733676
82	0xeb	-0.34152606
83	0xe5	-0.43910494
84	0xf7	-0.14636831
85	0xf5	-0.17889461
86	0x13	0.30899978
87	0x13	0.30899978
88	0x10	0.26021034
89	0xfb	-0.081315726
90	0x0e	0.22768405
91	0xf3	-0.2114209
92	0x0e	0.22768405
93	0xea	-0.35778922
94	0x15	0.34152606
95	0xf8	-0.13010517
96	0xe3	-0.47163123
97	0xf1	-0.2439472
98	0xed	-0.30899978
99	0x09	0.14636831
100	0xf3	-0.2114209
101	0x1a	0.4228418
102	0x11	0.2764735
103	0x11	0.2764735
104	0xf6	-0.16263145
105	0x0c	0.19515775
106	0xf9	-0.113842025
107	0x0a	0.16263145
108	0xf7	-0.14636831
109	0xf1	-0.2439472
110	0xf4	-0.19515775
111	0x0b	0.17889461
112	0xf9	-0.113842025
113	0x0c	0.19515775
114	0xf7	-0.14636831
115	0xe9	-0.37405235
116	0x09	0.14636831
117	0x06	0.097578876
118	0x07	0.113842025
119	0x05	0.081315726
120	0xf8	-0.13010517
121	0xf2	-0.22768405
122	0x08	0.13010517
123	0x19	0.40657866
124	0xef	-0.2764735
125	0xe6	-0.4228418
126	0xfa	-0.097578876
127	0xec	-0.3252629
128	0x03	0.048789438
129	0xfc	-0.065052584
130	0xd3	-0.73184156
131	0xe7	-0.40657866
132	0xff	-0.016263146
133	0xfa	-0.097578876
134	0xfc	-0.065052584
135	0x0a	0.16263145
136	0x0f	0.2439472
137	0xfe	-0.032526292
138	0xfa	-0.097578876
139	0xf1	-0.2439472
140	0x16	0.35778922
141	0x09	0.14636831
142	0x01	0.016263146
143	0xee	-0.29273662
144	0xf9	-0.113842025
145	0xfd	-0.048789438
146	0xff	-0.016263146
147	0x00	0.0
148	0x1a	0.4228418
149	0xed	-0.30899978
150	0xfd	-0.048789438
151	0x04	0.065052584
152	0x0b	0.17889461
153	0xfd	-0.048789438
154	0x07	0.113842025
155	0xe1	-0.50415754
156	0x19	0.40657866
157	0x24	0.58547324
158	0x0f	0.2439472
159	0xf1	-0.2439472
160	0xf5	-0.17889461
161	0xee	-0.29273662
162	0x10	0.26021034
163	0x26	0.61799955
164	0xf8	-0.13010517
165	0xd6	-0.6830521
166	0xf3	-0.2114209
167	0xe8	-0.3903155
168	0xdd	-0.5692101
169	0xea	-0.35778922
170	0xf1	-0.2439472
171	0x13	0.30899978
172	0xea	-0.35778922
173	0xf4	-0.19515775
174	0x1a	0.4228418
175	0x01	0.016263146
176	0xf7	-0.14636831
177	0x12	0.29273662
178	0xd9	-0.6342627
179	0xf9	-0.113842025
180	0xfd	-0.048789438
181	0xfd	-0.048789438
182	0xeb	-0.34152606
183	0xe5	-0.43910494
184	0xeb	-0.34152606
185	0xc0	-1.0408413
186	0xf1	-0.2439472
187	0x12	0.29273662
188	0x07	0.113842025
189	0x15	0.34152606
190	0xf6	-0.16263145
191	0x00	0.0
192	0x11	0.2764735
193	0x10	0.26021034
194	0x05	0.081315726
195	0xdd	-0.5692101
196	0xf8	-0.13010517
197	0xee	-0.29273662
198	0xf3	-0.2114209
199	0x14	0.3252629
200	0x1d	0.47163123
201	0xe9	-0.37405235
202	0xe6	-0.4228418
203	0xfc	-0.065052584
204	0x02	0.032526292
205	0xf7	-0.14636831
206	0xf0	-0.26021034
207	0x19	0.40657866
208	0xee	-0.29273662
209	0xf7	-0.14636831
210	0x1c	0.4553681
211	0xfd	-0.048789438
212	0xec	-0.3252629
213	0xfc	-0.065052584
214	0x06	0.097578876
215	0xfe	-0.032526292
216	0x15	0.34152606
217	0x1e	0.4878944
218	0x0d	0.2114209
219	0x15	0.34152606
220	0x0d	0.2114209
221	0xef	-0.2764735
222	0x01	0.016263146
223	0x03	0.048789438
224	0xde	-0.552947
225	0xf9	-0.113842025
226	0xfb	-0.081315726
227	0xf7	-0.14636831
228	0xf0	-0.26021034
229	0x05	0.081315726
230	0x25	0.6017364
231	0x05	0.081315726
232	0xfb	-0.081315726
233	0x0b	0.17889461
234	0x11	0.2764735
235	0xee	-0.29273662
236	0x0f	0.2439472
237	0xf8	-0.13010517
238	0xfc	-0.065052584
239	0x02	0.032526292
240	0xe9	-0.37405235
241	0x0d	0.2114209
242	0xf2	-0.22768405
243	0xf7	-0.14636831
244	0x1f	0.50415754
245	0xe3	-0.47163123
246	0x19	0.40657866
247	0x0d	0.2114209
248	0x0a	0.16263145
249	0x10	0.26021034
250	0x1e	0.4878944
251	0xfd	-0.048789438
252	0x09	0.14636831
253	0xef	-0.2764735
254	0xf9	-0.113842025
255	0xe5	-0.43910494

std.constant13 i1 [128, 128] scale=0.012291112 zero_point=0
0	0xc8	-0.6883023
1	0xf4	-0.14749335
2	0xf4	-0.14749335
3	0x01	0.012291112
4	0x0f	0.18436667
5	0x07	0.086037785
6	0xf9	-0.086037785
7	0x15	0.25811335
8	0x0f	0.18436667
9	0x1e	0.36873335
10	0x06	0.073746674
11	0xfa	-0.073746674
12	0xf6	-0.12291112
13	0xf9	-0.086037785
14	0x0e	0.17207557
15	0xf2	-0.17207557
16	0xf5	-0.13520223
17	0xf1	-0.18436667
18	0xf2	-0.17207557
19	0xe2	-0.36873335
20	0xfe	-0.024582224
21	0x02	0.024582224
22	0xe7	-0.3072778
23	0xfe	-0.024582224
24	0x12	0.22124001
25	0x11	0.20894891
26	0x26	0.46706226
27	0xf9	-0.086037785
28	0xff	-0.012291112
29	0xf7	-0.11062001
30	0xe6	-0.3195689
31	0xf7	-0.11062001
32	0x04	0.049164448
33	0xf3	-0.15978445
34	0xeb	-0.25811335
35	0x14	0.24582224
36	0x1b	0.33186004
37	0x06	0.073746674
38	0xd6	-0.5162267
39	0xf8	-0.098328896
40	0x00	0.0
41	0x06	0.073746674
42	0x09	0.11062001
43	0xfc	-0.049164448
44	0x18	0.2949867
45	0x19	0.3072778
46	0x00	0.0
47	0x04	0.049164448
48	0xfa	-0.073746674
49	0x0e	0.17207557
50	0x01	0.012291112
51	0x03	0.036873337
52	0x07	0.086037785
53	0x16	0.27040446
54	0xf1	-0.18436667
55	0x0b	0.13520223
56	0xfb	-0.06145556
57	0xff	-0.012291112
58	0x09	0.11062001
59	0x02	0.024582224
60	0x19	0.3072778
61	0xfd	-0.036873337
62	0x12	0.22124001
63	0xec	-0.24582224
64	0x11	0.20894891
65	0x14	0.24582224
66	0x09	0.11062001
67	0x00	0.0
68	0x24	0.44248003
69	0x02	0.024582224
70	0x09	0.11062001
71	0xf1	-0.18436667
72	0x01	0.012291112
73	0xf5	-0.13520223
74	0xe1	-0.38102448
75	0x03	0.036873337
76	0x06	0.073746674
77	0xf1	-0.18436667
78	0x04	0.049164448
79	0xe4	-0.34415114
80	0xea	-0.27040446
81	0xdb	-0.45477113
82	0x1c	0.34415114
83	0xf1	-0.18436667
84	0xeb	-0.25811335
85	0x15	0.25811335
86	0xe2	-0.36873335
87	0xf6	-0.12291112
88	0xff	-0.012291112
89	0x0b	0.13520223
90	0x1a	0.3195689
91	0xfb	-0.06145556
92	0x06	0.073746674
93	0x10	0.19665779
94	0x06	0.073746674
95	0xff	-0.012291112
96	0x0d	0.15978445
97	0x16	0.27040446
98	0x0f	0.18436667
99	0xfc	-0.049164448
100	0xf8	-0.098328896
101	0xf7	-0.11062001
102	0x17	0.28269556
103	0xfe	-0.024582224
104	0xf0	-0.19665779
105	0x06	0.073746674
106	0xfa	-0.073746674
107	0xe9	-0.28269556
108	0x39	0.7005934
109	0xe9	-0.28269556
110	0x0f	0.18436667
111	0xf2	-0.17207557
112	0xf1	-0.18436667
113	0xff	-0.012291112
114	0xf9	-0.086037785
115	0xe8	-0.2949867
116	0xee	-0.22124001
117	0xf2	-0.17207557
118	0x08	0.098328896
119	0xfb	-0.06145556
120	0x1f	0.38102448
121	0x0f	0.18436667
122	0x0d	0.15978445
123	0xfe	-0.024582224
124	0xfa	-0.073746674
125	0xfb	-0.06145556
126	0x06	0.073746674
127	0x19	0.3072778
128	0x03	0.036873337
129	0xf2	-0.17207557
130	0x08	0.098328896
131	0x12	0.22124001
132	0x03	0.036873337
133	0xf8	-0.098328896
134	0x1e	0.36873335
135	0x00	0.0
136	0x0a	0.12291112
137	0xfe	-0.024582224
138	0x34	0.6391378
139	0xfa	-0.073746674
140	0xfc	-0.049164448
141	0x13	0.23353113
142	0xe1	-0.38102448
143	0xef	-0.20894891
144	0x05	0.06145556
145	0x1a	0.3195689
146	0x2e	0.5653911
147	0x05	0.06145556
148	0x07	0.086037785
149	0xf1	-0.18436667
150	0x07	0.086037785
151	0x1a	0.3195689
152	0xf9	-0.086037785
153	0xf6	-0.12291112
154	0xf5	-0.13520223
155	0x3b	0.7251756
156	0x01	0.012291112
157	0xfd	-0.036873337
158	0x0d	0.15978445
159	0x22	0.41789782
160	0xfe	-0.024582224
161	0x27	0.47935337
162	0x25	0.45477113
163	0xee	-0.22124001
164	0x04	0.049164448
165	0x09	0.11062001
166	0x01	0.012291112
167	0x00	0.0
168	0xff	-0.012291112
169	0x16	0.27040446
170	0xe3	-0.35644224
171	0x0c	0.14749335
172	0x13	0.23353113
173	0xff	-0.012291112
174	0x01	0.012291112
175	0xfd	-0.036873337
176	0xeb	-0.25811335
177	0xf2	-0.17207557
178	0xf9	-0.086037785
179	0x0a	0.12291112
180	0xf8	-0.098328896
181	0xf7	-0.11062001
182	0xfd	-0.036873337
183	0x0c	0.14749335
184	0x29	0.5039356
185	0xfc	-0.049164448
186	0x07	0.086037785
187	0xf4	-0.14749335
188	0xe1	-0.38102448
189	0xf7	-0.11062001
190	0x04	0.049164448
191	0x05	0.06145556
192	0xe3	-0.35644224
193	0x10	0.19665779
194	0x04	0.049164448
195	0xfb	-0.06145556
196	0xfd	-0.036873337
197	0x0f	0.18436667
198	0xf3	-0.15978445
199	0xf8	-0.098328896
200	0xe6	-0.3195689
201	0x0f	0.18436667
202	0x1f	0.38102448
203	0xf8	-0.098328896
204	0x02	0.024582224
205	0xd4	-0.5408089
206	0x03	0.036873337
207	0x0b	0.13520223
208	0x0d	0.15978445
209	0x03	0.036873337
210	0x07	0.086037785
211	0xe6	-0.3195689
212	0x13	0.23353113
213	0x2e	0.5653911
214	0x10	0.19665779
215	0x19	0.3072778
216	0xef	-0.20894891
217	0xf2	-0.17207557
218	0xd8	-0.49164447
219	0x09	0.11062001
220	0x1a	0.3195689
221	0xec	-0.24582224
222	0x0e	0.17207557
223	0x05	0.06145556
224	0x19	0.3072778
225	0xdc	-0.44248003
226	0xf6	-0.12291112
227	0xef	-0.20894891
228	0x0c	0.14749335
229	0x03	0.036873337
230	0xf8	-0.098328896
231	0xf4	-0.14749335
232	0x0b	0.13520223
233	0x07	0.086037785
234	0xf2	-0.17207557
235	0x2e	0.5653911
236	0x0d	0.15978445
237	0xff	-0.012291112
238	0xfe	-0.024582224
239	0x0a	0.12291112
240	0xfa	-0.073746674
241	0x0d	0.15978445
242	0x0c	0.14749335
243	0x13	0.23353113
244	0x14	0.24582224
245	0x33	0.62684673
246	0xfb	-0.06145556
247	0xf2	-0.17207557
248	0x07	0.086037785
249	0xf4	-0.14749335
250	0xfd	-0.036873337
251	0xfc	-0.049164448
252	0x12	0.22124001
253	0xf0	-0.19665779
254	0x0a	0.12291112
255	0xf0	-0.19665779

std.constant14 i1 [128, 128] scale=0.015096208 zero_point=0
0	0x01	0.015096208
1	0xf5	-0.16605829
2	0xfa	-0.090577245
3	0x05	0.07548104
4	0x09	0.13586587
5	0xfc	-0.060384832
6	0xec	-0.30192417
7	0xf2	-0.21134691
8	0x1b	0.40759763
9	0x0f	0.22644313
10	0x00	0.0
11	0x0d	0.1962507
12	0xe9	-0.3472128
13	0xff	-0.015096208
14	0xf4	-0.18115449
15	0xe9	-0.3472128
16	0x15	0.31702036
17	0xf2	-0.21134691
18	0x0c	0.18115449
19	0x11	0.25663555
20	0xff	-0.015096208
21	0x09	0.13586587
22	0xea	-0.33211657
23	0xf3	-0.1962507
24	0xea	-0.33211657
25	0x01	0.015096208
26	0x08	0.120769665
27	0xdd	-0.5283673
28	0xec	-0.30192417
29	0xff	-0.015096208
30	0xf0	-0.24153933
31	0xf1	-0.22644313
32	0xf6	-0.15096208
33	0x0c	0.18115449
34	0x0b	0.16605829
35	0x06	0.090577245
36	0xf7	-0.13586587
37	0x02	0.030192416
38	0xf0	-0.24153933
39	0x09	0.13586587
40	0x09	0.13586587
41	0x08	0.120769665
42	0x10	0.24153933
43	0x05	0.07548104
44	0x07	0.105673455
45	0xed	-0.28682795
46	0x06	0.090577245
47	0x0f	0.22644313
48	0x11	0.25663555
49	0xf1	-0.22644313
50	0xf7	-0.13586587
51	0xfc	-0.060384832
52	0x10	0.24153933
53	0x01	0.015096208
54	0x04	0.060384832
55	0xf6	-0.15096208
56	0x0c	0.18115449
57	0xfe	-0.030192416
58	0xfd	-0.045288622
59	0xfd	-0.045288622
60	0xf4	-0.18115449
61	0x14	0.30192417
62	0x0d	0.1962507
63	0x01	0.015096208
64	0x22	0.5132711
65	0xe7	-0.3774052
66	0x02	0.030192416
67	0xfc	-0.060384832
68	0x22	0.5132711
69	0xfc	-0.060384832
70	0x05	0.07548104
71	0xfd	-0.045288622
72	0xfd	-0.045288622
73	0xfa	-0.090577245
74	0xd6	-0.6340407
75	0xf3	-0.1962507
76	0xfe	-0.030192416
77	0x12	0.27173173
78	0x22	0.5132711
79	0xfd	-0.045288622
80	0x0d	0.1962507
81	0x0a	0.15096208
82	0xf2	-0.21134691
83	0xf0	-0.24153933
84	0xff	-0.015096208
85	0x07	0.105673455
86	0x0d	0.1962507
87	0x0e	0.21134691
88	0xfc	-0.060384832
89	0x02	0.030192416
90	0x06	0.090577245
91	0xf5	-0.16605829
92	0xfc	-0.060384832
93	0x11	0.25663555
94	0xf5	-0.16605829
95	0x03	0.045288622
96	0x02	0.030192416
97	0x01	0.015096208
98	0x01	0.015096208
99	0x02	0.030192416
100	0x09	0.13586587
101	0xec	-0.30192417
102	0x12	0.27173173
103	0xf9	-0.105673455
104	0xf3	-0.1962507
105	0xff	-0.015096208
106	0xf3	-0.1962507
107	0xfc	-0.060384832
108	0x0f	0.22644313
109	0xd6	-0.6340407
110	0x07	0.105673455
111	0x01	0.015096208
112	0xfe	-0.030192416
113	0x10	0.24153933
114	0x0a	0.15096208
115	0xf0	-0.24153933
116	0x04	0.060384832
117	0x04	0.060384832
118	0xf8	-0.120769665
119	0x0c	0.18115449
120	0x0b	0.16605829
121	0xe6	-0.3925014
122	0x09	0.13586587
123	0x02	0.030192416
124	0xf0	-0.24153933
125	0xfc	-0.060384832
126	0xfd	-0.045288622
127	0x08	0.120769665
128	0x19	0.3774052
129	0x00	0.0
130	0xf2	-0.21134691
131	0xf8	-0.120769665
132	0xf6	-0.15096208
133	0x14	0.30192417
134	0x1f	0.46798244
135	0xf4	-0.18115449
136	0xf8	-0.120769665
137	0xfd	-0.045288622
138	0x02	0.030192416
139	0x31	0.7397142
140	0xf7	-0.13586587
141	0xf8	-0.120769665
142	0xf4	-0.18115449
143	0xdd	-0.5283673
144	0x10	0.24153933
145	0xfe	-0.030192416
146	0x04	0.060384832
147	0xe3	-0.43779004
148	0x10	0.24153933
149	0xff	-0.015096208
150	0x0f	0.22644313
151	0x07	0.105673455
152	0x1d	0.43779004
153	0xf9	-0.105673455
154	0xf8	-0.120769665
155	0x36	0.81519526
156	0xfe	-0.030192416
157	0x02	0.030192416
158	0x1a	0.3925014
159	0xef	-0.25663555
160	0x00	0.0
161	0x02	0.030192416
162	0x19	0.3774052
163	0x05	0.07548104
164	0xe5	-0.40759763
165	0xe4	-0.42269382
166	0xf3	-0.1962507
167	0xfe	-0.030192416
168	0xee	-0.27173173
169	0xfd	-0.045288622
170	0x02	0.030192416
171	0xf0	-0.24153933
172	0x01	0.015096208
173	0xef	-0.25663555
174	0x04	0.060384832
175	0x15	0.31702036
176	0xfd	-0.045288622
177	0xd6	-0.6340407
178	0xef	-0.25663555
179	0x14	0.30192417
180	0xe7	-0.3774052
181	0xd0	-0.72461796
182	0xff	-0.015096208
183	0x04	0.060384832
184	0xd2	-0.6944256
185	0x05	0.07548104
186	0xf9	-0.105673455
187	0xdf	-0.49817488
188	0x0f	0.22644313
189	0x05	0.07548104
190	0x0b	0.16605829
191	0x08	0.120769665
192	0xef	-0.25663555
193	0x2a	0.6340407
194	0x06	0.090577245
195	0x04	0.060384832
196	0x0d	0.1962507
197	0x01	0.015096208
198	0xf8	-0.120769665
199	0x29	0.6189445
200	0x16	0.33211657
201	0xfc	-0.060384832
202	0x0a	0.15096208
203	0x03	0.045288622
204	0x06	0.090577245
205	0x17	0.3472128
206	0xfe	-0.030192416
207	0x16	0.33211657
208	0xdd	-0.5283673
209	0xfd	-0.045288622
210	0x04	0.060384832
211	0x02	0.030192416
212	0xe6	-0.3925014
213	0x0a	0.15096208
214	0x21	0.49817488
215	0xf8	-0.120769665
216	0xef	-0.25663555
217	0xfd	-0.045288622
218	0x0f	0.22644313
219	0xff	-0.015096208
220	0x05	0.07548104
221	0xeb	-0.31702036
222	0x0c	0.18115449
223	0xe8	-0.36230898
224	0xee	-0.27173173
225	0xe6	-0.3925014
226	0xe2	-0.45288625
227	0xfe	-0.030192416
228	0xdb	-0.5585597
229	0xf4	-0.18115449
230	0xf8	-0.120769665
231	0x07	0.105673455
232	0x12	0.27173173
233	0x0a	0.15096208
234	0xeb	-0.31702036
235	0x17	0.3472128
236	0x08	0.120769665
237	0xe6	-0.3925014
238	0x17	0.3472128
239	0xf7	-0.13586587
240	0xec	-0.30192417
241	0x0f	0.22644313
242	0xff	-0.015096208
243	0x02	0.030192416
244	0xe7	-0.3774052
245	0xfc	-0.060384832
246	0x07	0.105673455
247	0x18	0.36230898
248	0x0f	0.22644313
249	0x14	0.30192417
250	0x0c	0.18115449
251	0xf8	-0.120769665
252	0x12	0.27173173
253	0x03	0.045288622
254	0xeb	-0.31702036
255	0x01	0.015096208

std.constant15 f4 [128]
0	0xbefb3d5c	-0.4907025
1	0xbe6198a7	-0.22030888
2	0xbf33deaf	-0.70261663
3	0xbdaca434	-0.08429757
4	0xbea4049f	-0.32034776
5	0xbe3030f6	-0.17206177
6	0xbe9ff495	-0.3124129
7	0xbe579277	-0.21051966
8	0xbe8326ea	-0.25615627
9	0xbe840794	-0.25787032
10	0xbe88d4a8	-0.26724744
11	0xbf0b62e0	-0.54447746
12	0xbdd3bda3	-0.10338905
13	0xbe9cd013	-0.30627498
14	0xbd1191a3	-0.03553928
15	0xbe94ee37	-0.29087994
16	0xbe05ba19	-0.13059272
17	0xbf1d904f	-0.6154832
18	0xbe5baadc	-0.21451896
19	0xbeb6a62b	-0.3567365
20	0xbe5ce990	-0.21573472
21	0xbe59bba4	-0.21262985
22	0xbe70f930	-0.23532557
23	0xbe5a6bb2	-0.21330145
24	0xbe8de09d	-0.2771043
25	0x3b48cd14	0.0030639814
26	0xbf30a1f2	-0.6899711
27	0xbf2ec45b	-0.68268365
28	0xbeb91f06	-0.36156482
29	0xbf0a6930	-0.54066753
30	0xbee201a7	-0.44141886
31	0x3c85ed57	0.016348524
32	0xbeb4c8dc	-0.35309494
33	0xbd32eaf0	-0.043681085
34	0xbe72e735	-0.23721011
35	0xbe489fb5	-0.19592173
36	0xbf01034c	-0.50395656
37	0x3e1cc90b	0.15311067
38	0xbdb958aa	-0.090501145
39	0xbef21ec0	-0.47289085
40	0xbe552453	-0.20814638
41	0xbecb9b5f	-0.39766976
42	0xbef4e2d0	-0.47829294
43	0xbe911563	-0.2833663
44	0xbe2d4971	-0.16922547
45	0xbe95571f	-0.2916803
46	0xbcebdbe2	-0.028791372
47	0xbec622c6	-0.38698405
48	0xbe5a514e	-0.21320078
49	0xbe9168d7	-0.284003
50	0xbf4ef729	-0.80845886
51	0xbe922dab	-0.28550467
52	0xbe18e660	-0.14931631
53	0xbf19220e	-0.5981759
54	0xbe3fd835	-0.1873482
55	0x3c9883ab	0.018617472
56	0xbeaea10b	-0.3410724
57	0xbf699cd8	-0.9125495
58	0xbec8b597	-0.39201042
59	0x3d81d78f	0.06339943
60	0xbf1eff62	-0.62108433
61	0xbf05543e	-0.5208167
62	0xbc19dc1f	-0.00939086
63	0xbec07100	-0.37586212
64	0xbd60556a	-0.054768957
65	0xbc54547f	-0.012959599
66	0xbe868e88	-0.26280618
67	0xbe9a94a7	-0.30191538
68	0xbf9eb784	-1.2399755
69	0xbeb990b1	-0.36243203
70	0xbeed9635	-0.4640366
71	0xbdd61978	-0.104540765
72	0xbdd0e3e0	-0.10199714
73	0xbe805800	-0.2506714
74	0xbd4bda6e	-0.049768858
75	0xbe841ccf	-0.2580323
76	0xbd63d58a	-0.05562357
77	0xbddc7761	-0.10764957
78	0xbf0b9d9b	-0.5453736
79	0xbe90a09d	-0.28247538
80	0xbe827869	-0.2548249
81	0xbe1c2f75	-0.15252478
82	0xbd574529	-0.05255619
83	0xbeb7f4d9	-0.3592899
84	0xbcc5ec5a	-0.024160553
85	0xbe829ba0	-0.25509357
86	0xbe7725c7	-0.24135505
87	0xbec89451	-0.39175656
88	0xbe81a3e4	-0.2532035
89	0xbf568dd0	-0.8381014
90	0xbebbb2ad	-0.36659756
91	0x3d847292	0.06467165
92	0xbee1bb77	-0.44088337
93	0xbe2e5aa6	-0.17026767
94	0xbe4e231e	-0.20130584
95	0xbe6b4d45	-0.22978695
96	0x3e3224af	0.17396806
97	0xbde5717e	-0.112032875
98	0x3e0d26cc	0.13784331
99	0xbf078ee1	-0.5295239
100	0xbf4194fb	-0.7561795
101	0xbeff5ea3	-0.4987689
102	0xbef511e5	-0.47865215
103	0xbc48108a	-0.0122109745
104	0xbed78d9a	-0.4210022
105	0xbed17388	-0.40908456
106	0xbe9cc04a	-0.30615455
107	0xbf0ca4e5	-0.5493911
108	0xbde03888	-0.109482825
109	0xbf40776d	-0.7518223
110	0xbf1798d7	-0.5921759
111	0xbf29b7eb	-0.6629626
112	0xbe8eb7b1	-0.2787452
113	0xbebcfb41	-0.36910442
114	0xbe99f13d	-0.30066863
115	0x3e5295ff	0.20565031
116	0xbeac8508	-0.33695245
117	0xbeb7914c	-0.3585304
118	0xbec41a8c	-0.38301504
119	0xbe5e5709	-0.21712889
120	0xbe6fe6ea	-0.2342793
121	0xbf093951	-0.5360308
122	0xbea914ce	-0.33023685
123	0xbdded3be	-0.1088023
124	0xbea76829	-0.32696655
125	0xbe590fee	-0.21197483
126	0xbe725873	-0.23666553
127	0xbeb22f5c	-0.34801757

std.constant16 f4 [128]
0	0x3f3fc2a4	0.74906373
1	0x3f3c318f	0.7351312
2	0x3f9b389d	1.2126652
3	0x3f32c719	0.6983505
4	0x3f500dbd	0.8127096
5	0x3fa9ac07	1.3255624
6	0x3f0e6831	0.55627733
7	0x3f1b6219	0.6069656
8	0x3f07db2f	0.5306882
9	0x3f47d14c	0.78053737
10	0x3f1cbbc2	0.61223996
11	0x3f1b9e40	0.60788345
12	0x3f86eb2e	1.0540521
13	0x3f3bc519	0.7334762
14	0x3f840a39	1.031562
15	0x3f3222f9	0.69584614
16	0x3fa79d78	1.3094931
17	0x3f9753f0	1.1822491
18	0x3f3774d0	0.71662617
19	0x3f653e9a	0.8954865
20	0x3f524486	0.8213581
21	0x3f530a7f	0.8243789
22	0x3f4442f5	0.7666467
23	0x3f4f2939	0.80922276
24	0x3f3cdb4b	0.73772115
25	0x3f2313bf	0.63702005
26	0x3f06b06a	0.52612936
27	0x3f9d0c7b	1.2269434
28	0x3f2b4d23	0.66914576
29	0x3f4d94b7	0.80305046
30	0x3f377ae6	0.71671903
31	0x3f389bd4	0.72112775
32	0x3f5937c0	0.8485069
33	0x3f87cc95	1.0609308
34	0x3f46d5b6	0.77669847
35	0x3f84eb84	1.0384374
36	0x3f2cd302	0.6750947
37	0x3f93059a	1.1486084
38	0x3f39e234	0.72610784
39	0x3f8f06b2	1.1173918
40	0x3f30a7d6	0.690061
41	0x3f15c079	0.58496815
42	0x3f273095	0.65308505
43	0x3f529e16	0.8227247
44	0x3f645a71	0.892005
45	0x3f2925d6	0.6607336
46	0x3f257f16	0.6464704
47	0x3f4d4757	0.8018698
48	0x3f21e06f	0.63233083
49	0x3f3e8568	0.7442231
50	0x3f9280d6	1.1445568
51	0x3f8a124a	1.0786831
52	0x3f779862	0.9671689
53	0x3f3435be	0.70394504
54	0x3f22a31e	0.6353015
55	0x3f37ef6f	0.7184972
56	0x3f52b184	0.8230212
57	0x3fa4cc78	1.2874899
58	0x3f29e9ee	0.66372573
59	0x3f24daec	0.6439655
60	0x3f0fc5e4	0.5616133
61	0x3f70c7cc	0.94054866
62	0x3f508054	0.81445813
63	0x3f6fe14f	0.9370317
64	0x3f56ace5	0.83857566
65	0x3f3de9fa	0.74185145
66	0x3f8492e0	1.0357323
67	0x3f92264e	1.141794
68	0x3fa718db	1.305446
69	0x3f63ef37	0.8903689
70	0x3f1e7feb	0.6191394
71	0x3f3e595b	0.74355096
72	0x3f5d8aa0	0.8653965
73	0x3f1b6995	0.6070798
74	0x3f3add40	0.7299385
75	0x3f9dd75f	1.2331351
76	0x3f599f65	0.8500884
77	0x3f3ea648	0.74472475
78	0x3f310cd4	0.691602
79	0x3f53ca8e	0.8273095
80	0x3f6826e0	0.9068432
81	0x3f4b199d	0.7933596
82	0x3f6e0721	0.9297963
83	0x3f0e4a9b	0.5558259
84	0x3f444a0d	0.7667549
85	0x3f36855f	0.7129726
86	0x3f55f1e9	0.8357225
87	0x3f377253	0.7165882
88	0x3f12f905	0.57411224
89	0x3f9a6885	1.2063147
90	0x3f42527f	0.7590713
91	0x3f8a9696	1.0827205
92	0x3f143a9c	0.5790193
93	0x3f56cb72	0.8390418
94	0x3f587d9e	0.84566677
95	0x3f9f7c7a	1.2459862
96	0x3f6c99b3	0.92422026
97	0x3f328777	0.6973795
98	0x3f513ec2	0.81736386
99	0x3f6205f0	0.8829031
100	0x3f3cbe62	0.73728
101	0x3f3b043f	0.73053354
102	0x3f7ec1b9	0.9951435
103	0x3f7546aa	0.9581095
104	0x3f526a69	0.8219362
105	0x3f2821a0	0.6567631
106	0x3ec56644	0.38554585
107	0x3f92dd31	1.1473752
108	0x3f8c83b6	1.0977695
109	0x3fae03d1	1.3594915
110	0x3f575e73	0.84128493
111	0x3f921bf7	1.1414784
112	0x3f2ef3a6	0.6834053
113	0x3f4cb231	0.799594
114	0x3f3ffada	0.74992144
115	0x3f1c74a8	0.61115503
116	0x3f4949a0	0.7862797
117	0x3f3d5be3	0.73968333
118	0x3f1580f6	0.58399904
119	0x3f3e48d8	0.743299
120	0x3f4deef6	0.8044275
121	0x3f15f44c	0.5857589
122	0x3f5ea6e8	0.8697343
123	0x3f19bf84	0.60057855
124	0x3f6729a5	0.9029792
125	0x3f3abbab	0.7294261
126	0x3f36a0a4	0.7133887
127	0x3f23a762	0.6392728

std.constant17 f4 [128]
0	0x3e62f8eb	0.22165267
1	0x3e60d232	0.21955183
2	0xbe56e571	-0.20985962
3	0x3e8c7beb	0.27438292
4	0xbdaa1ea8	-0.083066285
5	0xbd4b35df	-0.049611922
6	0x3e47b601	0.19503023
7	0x3dd44f4c	0.10366687
8	0xbd211053	-0.03932221
9	0xbd6da981	-0.05802298
10	0x3de40ea5	0.11135606
11	0x3cdcc4cf	0.026949314
12	0xbe5b787b	-0.21432678
13	0x3e5b42f2	0.21412256
14	0xbe790b0c	-0.2432062
15	0x3b732cc6	0.0037105544
16	0xbeb58e1d	-0.35459986
17	0xbdec300b	-0.11532601
18	0x3d1fcd8c	0.039014384
19	0x3daf5bbc	0.08562419
20	0x3e7dfd68	0.24803698
21	0xbd4997e1	-0.04921711
22	0xbe41cd7b	-0.18926041
23	0xbde3330c	-0.11093721
24	0x3e8ce519	0.27518538
25	0xbd9425cc	-0.07233772
26	0x3d9bdcf6	0.07610504
27	0xbd2a41b6	-0.041566573
28	0xbdd9bb02	-0.10631372
29	0x3e1a1e4e	0.15050623
30	0x3e0baa9d	0.13639303
31	0x3cdc922c	0.026925169
32	0xbd66e9b0	-0.056375206
33	0x3f279166	0.65456235
34	0x3e55c417	0.20875584
35	0xbdcc55ce	-0.099773034
36	0x3cd90405	0.026491174
37	0x3eb84597	0.35990593
38	0x3caabd9f	0.020842372
39	0xbd001abb	-0.031275492
40	0x3d0c10d4	0.034195736
41	0xbeb3c2d1	-0.3510957
42	0xbd17f302	-0.037096985
43	0xbe574d7c	-0.21025652
44	0xbd99488d	-0.07484541
45	0x3de67290	0.1125232
46	0x3e930d88	0.2872126
47	0xbe43ddd0	-0.19127584
48	0x3e4c1af9	0.19932164
49	0xbe8ff3f7	-0.28115818
50	0x3d0f33f7	0.034961667
51	0xbc8fa9d1	-0.01753703
52	0x3e104970	0.14090514
53	0x3e3441ee	0.17603275
54	0x3e98ae56	0.29820508
55	0x3eccd270	0.400043
56	0x3bc9ac31	0.00615456
57	0xbe5dfa10	-0.21677423
58	0x3e2da34b	0.16956823
59	0xbe33d56b	-0.17561881
60	0xbe317564	-0.17329937
61	0xbca81bb5	-0.020521024
62	0x3da15823	0.07878139
63	0x3e8a670f	0.27031752
64	0xbddd34f1	-0.108011134
65	0xbdaff273	-0.085911654
66	0xbde55476	-0.1119775
67	0xbe4f7a03	-0.20261388
68	0xbb37c0a4	-0.0028038407
69	0xbdc05136	-0.0939049
70	0x3b67f096	0.0035391203
71	0xbde5980b	-0.112106405
72	0xbe5d722b	-0.21625583
73	0x3dcf50c9	0.101228304
74	0xbe1f1cb9	-0.155383
75	0xbcd96a6b	-0.026540002
76	0xbe74442b	-0.23854129
77	0xbe14ad37	-0.14519201
78	0x3cb9bee2	0.022674028
79	0xbcc31a85	-0.023816356
80	0xbdb684a9	-0.08912022
81	0x3e2aff5e	0.16698977
82	0x3e6ae629	0.22939362
83	0x3d3f7fa8	0.0467526
84	0x3ef4b22c	0.47792184
85	0x3ca74494	0.020418443
86	0xbd7614b0	-0.060078323
87	0x3d188457	0.037235584
88	0xbefa4069	-0.48877266
89	0xbe52f7ef	-0.20602392
90	0xbd97cf18	-0.07412547
91	0x3ea7f4d3	0.32803974
92	0xbd82248e	-0.063546285
93	0x3de28392	0.11060251
94	0xbe6ac4ab	-0.22926585
95	0x3e532889	0.20620932
96	0x3e838765	0.25689235
97	0xbe46b7f6	-0.19406113
98	0xbeee5f98	-0.46557307
99	0x3e239c23	0.1597753
100	0x3e58f2f9	0.21186437
101	0xbd20b1cb	-0.039232057
102	0x3d96e225	0.073673524
103	0x3dc16795	0.09443585
104	0x3deeb95b	0.116564475
105	0xbe1979b9	-0.1498784
106	0xbdf1c94d	-0.11805973
107	0x3d4e2e4d	0.050337125
108	0x3ebe540e	0.37173504
109	0x3eb67a4c	0.3564018
110	0xbda4cfe5	-0.08047465
111	0x3da70edf	0.08157133
112	0xbe452abf	-0.19254588
113	0xbe29411e	-0.16528746
114	0x3d8214ba	0.063516095
115	0x3ebecee1	0.3726721
116	0xbd6aeb87	-0.057353523
117	0xbd926990	-0.07149041
118	0xbd9d1944	-0.07670835
119	0xbe85e9a3	-0.26154813
120	0x3d7a2fc0	0.061080694
121	0x3d080b20	0.033213735
122	0x3df4ef8b	0.11959752
123	0xbbdebd51	-0.0067974706
124	0x3ea8ad7b	0.32944855
125	0xbd08154e	-0.033223443
126	0x3e5d5b81	0.21616937
127	0x3c739ef2	0.0148694385

std.constant18 f4 [128]
0	0xbe520e41	-0.2051325
1	0xbe0172a4	-0.12641388
2	0xbe60e30e	-0.21961614
3	0xbe819554	-0.2530924
4	0xbe83ebab	-0.25765738
5	0xbdcf9482	-0.101357475
6	0xbdf0370a	-0.11729248
7	0xbe7ad2ed	-0.24494524
8	0xbe940a48	-0.28914094
9	0xbdb2a1a5	-0.087222375
10	0xbe2bfbbb	-0.16795246
11	0xbd862d05	-0.065515555
12	0xbe29549c	-0.16536182
13	0xbde67f54	-0.11254755
14	0xbead2a2b	-0.33821234
15	0xbe926680	-0.28593826
16	0xbe24cab0	-0.16092944
17	0xbe30b2db	-0.17255728
18	0xbef5ad30	-0.47983694
19	0xbeaea421	-0.34109595
20	0xbdb11803	-0.08647158
21	0xbe925b89	-0.2858546
22	0xbe2d791c	-0.16940731
23	0xbe8f5e4b	-0.28001627
24	0xbd3e8731	-0.046515647
25	0x3df42007	0.11920171
26	0xbee378cd	-0.444281
27	0xbf00cc02	-0.5031129
28	0xbec1806d	-0.37793294
29	0xbec15fdd	-0.3776845
30	0xbe0d4cef	-0.13798879
31	0xbe3e596b	-0.18588798
32	0xbe4d57f6	-0.20053086
33	0xbe095737	-0.13412176
34	0xbe507d2a	-0.20360246
35	0xbe26c64d	-0.16286583
36	0xbe268b40	-0.16264057
37	0xbbf85497	-0.0075784433
38	0xbe941676	-0.28923386
39	0x3d48a75c	0.04898773
40	0xbe23e0fa	-0.1600379
41	0xbf00ddaf	-0.5033826
42	0xbe400467	-0.1875168
43	0xbeb5d58d	-0.3551449
44	0xbe6b5494	-0.22981483
45	0xbeb3045d	-0.34964266
46	0xbe54eaad	-0.20792647
47	0xbe5993f6	-0.21247849
48	0xbe627c3d	-0.22117706
49	0xbebbbd30	-0.36667776
50	0xbe8edbe1	-0.2790213
51	0xbca847c7	-0.020542039
52	0xbebb0fc1	-0.36535457
53	0xbe27b18d	-0.16376324
54	0xbe5de60a	-0.21669784
55	0x3d970a6a	0.07375033
56	0xbe28f055	-0.1649793
57	0x3df301eb	0.118656
58	0xbdabd886	-0.08390908
59	0x3dfa43e6	0.12219982
60	0xbeb50d88	-0.35361886
61	0xbe48f220	-0.19623613
62	0xbc6be3ea	-0.014397601
63	0xbe231fd7	-0.15930115
64	0x3d8f4349	0.069952555
65	0xbe637aba	-0.22214785
66	0xbf1a020d	-0.6015938
67	0xbe630853	-0.22171144
68	0xbea43aa4	-0.3207599
69	0xbea921b9	-0.3303354
70	0xbec091c3	-0.37611207
71	0xbdf0ddc0	-0.117610455
72	0xbec8733c	-0.39150417
73	0xbe7b3ad1	-0.24534155
74	0xbe17628c	-0.14783686
75	0xbe248a72	-0.16068438
76	0x3dcdd5a8	0.10050517
77	0xbe40ca94	-0.18827277
78	0xbed11d61	-0.40842727
79	0xbea7b24b	-0.32753214
80	0xbee35445	-0.4440023
81	0xbebb503a	-0.36584646
82	0xbd69c4c6	-0.057072423
83	0xbe05198d	-0.12998028
84	0xbf1a4a2e	-0.6026944
85	0xbe6eb494	-0.23311073
86	0xbea70769	-0.3262284
87	0xbea111ad	-0.31458798
88	0xbe9fe4a8	-0.31229138
89	0xbe6e46a7	-0.23269139
90	0xbec48b85	-0.38387695
91	0x3d895d04	0.067071944
92	0xbe86a052	-0.2629419
93	0xbe6e5fb7	-0.232787
94	0xbe3e33bb	-0.18574421
95	0xbe0b4dfa	-0.13603964
96	0x3e1a6eb8	0.15081298
97	0xbe16d8fa	-0.14731207
98	0xbf155282	-0.5832902
99	0xbe8c25ba	-0.27372533
100	0xbeceb743	-0.40374193
101	0xbd09cf9c	-0.033645257
102	0xbee9db43	-0.45675096
103	0xbf1d3f70	-0.6142492
104	0xbe3bc163	-0.1833549
105	0xbe6c2119	-0.23059501
106	0xbf0a4e2f	-0.5402555
107	0xbe87422c	-0.26417673
108	0xbe10888d	-0.1411459
109	0x3bdb083e	0.006684332
110	0xbd651db5	-0.055936534
111	0xbe48adb0	-0.19597507
112	0xbdd0d250	-0.10196364
113	0xbf04386f	-0.5164861
114	0xbdd2a8ff	-0.1028614
115	0x3c00f5f2	0.007871138
116	0xbeaa0464	-0.33206475
117	0xbeae4423	-0.3403636
118	0xbe40ea09	-0.18839277
119	0xbea698ca	-0.32538444
120	0xbd9c49d6	-0.076312706
121	0xbed35e47	-0.41282865
122	0x3d06f91d	0.032952417
123	0x3d021f1c	0.03176795
124	0xbecce3d7	-0.40017578
125	0xbedb61ff	-0.42848203
126	0xbe87a09b	-0.2648972
127	0xbdf0860e	-0.11744319

std.constant19 i1 [128, 64] scale=0.010022582 zero_point=0
0	0x12	0.18040647
1	0xef	-0.17038389
2	0xf9	-0.07015807
3	0x07	0.07015807
4	0x01	0.010022582
5	0xee	-0.18040647
6	0x0d	0.13029356
7	0xfc	-0.040090326
8	0x08	0.08018065
9	0x06	0.06013549
10	0xed	-0.19042905
11	0xf6	-0.10022581
12	0x02	0.020045163
13	0x08	0.08018065
14	0x0b	0.110248394
15	0xfd	-0.030067746
16	0xf2	-0.14031614
17	0xff	-0.010022582
18	0xff	-0.010022582
19	0xfe	-0.020045163
20	0x03	0.030067746
21	0x0e	0.14031614
22	0x07	0.07015807
23	0xeb	-0.21047421
24	0xf9	-0.07015807
25	0x03	0.030067746
26	0x0e	0.14031614
27	0x08	0.08018065
28	0x0b	0.110248394
29	0x12	0.18040647
30	0x02	0.020045163
31	0xef	-0.17038389
32	0x08	0.08018065
33	0x0a	0.10022581
34	0xf9	-0.07015807
35	0x09	0.09020323
36	0x09	0.09020323
37	0x0d	0.13029356
38	0xf6	-0.10022581
39	0x07	0.07015807
40	0x0f	0.15033872
41	0xf9	-0.07015807
42	0xfc	-0.040090326
43	0xf8	-0.08018065
44	0x00	0.0
45	0xf7	-0.09020323
46	0x03	0.030067746
47	0x0c	0.12027098
48	0xe7	-0.25056455
49	0xf4	-0.12027098
50	0xf8	-0.08018065
51	0xec	-0.20045163
52	0x05	0.050112907
53	0xed	-0.19042905
54	0x06	0.06013549
55	0xf2	-0.14031614
56	0x14	0.20045163
57	0xfa	-0.06013549
58	0xf9	-0.07015807
59	0x0d	0.13029356
60	0x02	0.020045163
61	0xf7	-0.09020323
62	0xf7	-0.09020323
63	0x02	0.020045163
64	0xf6	-0.10022581
65	0x0d	0.13029356
66	0x0c	0.12027098
67	0xff	-0.010022582
68	0xf2	-0.14031614
69	0xfe	-0.020045163
70	0x04	0.040090326
71	0x08	0.08018065
72	0x14	0.20045163
73	0x01	0.010022582
74	0x03	0.030067746
75	0xf3	-0.13029356
76	0x0b	0.110248394
77	0xf9	-0.07015807
78	0xfd	-0.030067746
79	0xf7	-0.09020323
80	0xff	-0.010022582
81	0xe7	-0.25056455
82	0xf4	-0.12027098
83	0x00	0.0
84	0xee	-0.18040647
85	0x16	0.22049679
86	0x01	0.010022582
87	0x0d	0.13029356
88	0xf3	-0.13029356
89	0x0c	0.12027098
90	0x07	0.07015807
91	0xf1	-0.15033872
92	0xf2	-0.14031614
93	0xd9	-0.39088067
94	0x1b	0.2706097
95	0xf9	-0.07015807
96	0xf9	-0.07015807
97	0x0a	0.10022581
98	0xf6	-0.10022581
99	0xf1	-0.15033872
100	0x04	0.040090326
101	0xed	-0.19042905
102	0x0c	0.12027098
103	0x08	0.08018065
104	0xfb	-0.050112907
105	0x0a	0.10022581
106	0xf2	-0.14031614
107	0x1d	0.29065487
108	0xe6	-0.26058713
109	0xf0	-0.1603613
110	0x0d	0.13029356
111	0xd3	-0.45101616
112	0x0f	0.15033872
113	0xf5	-0.110248394
114	0xf3	-0.13029356
115	0x1b	0.2706097
116	0x08	0.08018065
117	0xeb	-0.21047421
118	0x0d	0.13029356
119	0xee	-0.18040647
120	0xd2	-0.46103874
121	0xfe	-0.020045163
122	0x04	0.040090326
123	0xe7	-0.25056455
124	0xfa	-0.06013549
125	0x07	0.07015807
126	0x01	0.010022582
127	0xfb	-0.050112907
128	0x18	0.24054196
129	0x23	0.35079035
130	0x13	0.19042905
131	0x02	0.020045163
132	0x04	0.040090326
133	0xef	-0.17038389
134	0xee	-0.18040647
135	0xf1	-0.15033872
136	0xf8	-0.08018065
137	0x01	0.010022582
138	0x06	0.06013549
139	0x22	0.34076777
140	0x1e	0.30067745
141	0xe9	-0.23051937
142	0xe9	-0.23051937
143	0x20	0.3207226
144	0x0e	0.14031614
145	0xe7	-0.25056455
146	0x2c	0.44099358
147	0xf8	-0.08018065
148	0x06	0.06013549
149	0x04	0.040090326
150	0xe5	-0.2706097
151	0x21	0.3307452
152	0xf5	-0.110248394
153	0x0c	0.12027098
154	0x09	0.09020323
155	0x11	0.17038389
156	0x17	0.23051937
157	0x0a	0.10022581
158	0x18	0.24054196
159	0x06	0.06013549
160	0x04	0.040090326
161	0x0d	0.13029356
162	0xf7	-0.09020323
163	0xec	-0.20045163
164	0xfc	-0.040090326
165	0xe6	-0.26058713
166	0x0a	0.10022581
167	0x0e	0.14031614
168	0xee	-0.18040647
169	0x08	0.08018065
170	0x00	0.0
171	0x2a	0.42094842
172	0x10	0.1603613
173	0xfb	-0.050112907
174	0xe3	-0.29065487
175	0x02	0.020045163
176	0x00	0.0
177	0xea	-0.22049679
178	0x37	0.551242
179	0x11	0.17038389
180	0x19	0.25056455
181	0x10	0.1603613
182	0x10	0.1603613
183	0x0b	0.110248394
184	0xe1	-0.31070003
185	0x05	0.050112907
186	0x00	0.0
187	0x32	0.5011291
188	0xfa	-0.06013549
189	0x0b	0.110248394
190	0xf0	-0.1603613
191	0x19	0.25056455
192	0x0a	0.10022581
193	0xfe	-0.020045163
194	0x09	0.09020323
195	0x1a	0.26058713
196	0xec	-0.20045163
197	0x0c	0.12027098
198	0xed	-0.19042905
199	0x02	0.020045163
200	0x10	0.1603613
201	0x02	0.020045163
202	0x02	0.020045163
203	0xfe	-0.020045163
204	0x1e	0.30067745
205	0xfc	-0.040090326
206	0xf8	-0.08018065
207	0xf7	-0.09020323
208	0x06	0.06013549
209	0x10	0.1603613
210	0xec	-0.20045163
211	0x01	0.010022582
212	0xea	-0.22049679
213	0xfe	-0.020045163
214	0x20	0.3207226
215	0xfe	-0.020045163
216	0x07	0.07015807
217	0xe9	-0.23051937
218	0xfd	-0.030067746
219	0x19	0.25056455
220	0x02	0.020045163
221	0x0a	0.10022581
222	0xf9	-0.07015807
223	0xf8	-0.08018065
224	0x00	0.0
225	0x0b	0.110248394
226	0x02	0.020045163
227	0xf7	-0.09020323
228	0x07	0.07015807
229	0xea	-0.22049679
230	0xfc	-0.040090326
231	0xf7	-0.09020323
232	0xf1	-0.15033872
233	0xfe	-0.020045163
234	0xfb	-0.050112907
235	0x0f	0.15033872
236	0x0d	0.13029356
237	0xef	-0.17038389
238	0xfc	-0.040090326
239	0xe4	-0.2806323
240	0x00	0.0
241	0xfc	-0.040090326
242	0xfa	-0.06013549
243	0x15	0.21047421
244	0xe6	-0.26058713
245	0x15	0.21047421
246	0xec	-0.20045163
247	0xf9	-0.07015807
248	0x14	0.20045163
249	0xfa	-0.06013549
250	0x01	0.010022582
251	0x1d	0.29065487
252	0xe9	-0.23051937
253	0x02	0.020045163
254	0x04	0.040090326
255	0x1a	0.26058713

std.constant20 i1 [128, 64] scale=0.009603426 zero_point=0
0	0x07	0.06722398
1	0x09	0.08643083
2	0xf6	-0.09603426
3	0x02	0.019206852
4	0x05	0.04801713
5	0x07	0.06722398
6	0x0f	0.14405139
7	0x02	0.019206852
8	0x03	0.028810278
9	0x14	0.19206852
10	0xee	-0.17286167
11	0xfc	-0.038413703
12	0x02	0.019206852
13	0xe5	-0.25929248
14	0xf9	-0.06722398
15	0x0c	0.11524111
16	0xf4	-0.11524111
17	0x11	0.16325824
18	0x0b	0.105637684
19	0x1f	0.2977062
20	0x03	0.028810278
21	0xf8	-0.07682741
22	0x01	0.009603426
23	0xe4	-0.26889592
24	0x01	0.009603426
25	0x09	0.08643083
26	0xf2	-0.13444796
27	0x04	0.038413703
28	0xed	-0.18246509
29	0xd4	-0.42255074
30	0xf5	-0.105637684
31	0x07	0.06722398
32	0xfa	-0.057620555
33	0xfe	-0.019206852
34	0x03	0.028810278
35	0x15	0.20167194
36	0xdd	-0.3361199
37	0xff	-0.009603426
38	0xf4	-0.11524111
39	0xf6	-0.09603426
40	0x05	0.04801713
41	0xf7	-0.08643083
42	0x17	0.2208788
43	0x1d	0.27849936
44	0xf8	-0.07682741
45	0x03	0.028810278
46	0xd1	-0.451361
47	0xf8	-0.07682741
48	0x11	0.16325824
49	0xdd	-0.3361199
50	0xf1	-0.14405139
51	0x15	0.20167194
52	0xfd	-0.028810278
53	0xf1	-0.14405139
54	0xe9	-0.2208788
55	0x02	0.019206852
56	0xfd	-0.028810278
57	0x0b	0.105637684
58	0x10	0.15365481
59	0xfe	-0.019206852
60	0x0c	0.11524111
61	0x00	0.0
62	0x0f	0.14405139
63	0xf6	-0.09603426
64	0x1a	0.24968907
65	0xe6	-0.24968907
66	0x07	0.06722398
67	0xff	-0.009603426
68	0x07	0.06722398
69	0x03	0.028810278
70	0xb5	-0.7202569
71	0xc6	-0.5569987
72	0x14	0.19206852
73	0x16	0.21127537
74	0xf2	-0.13444796
75	0xfb	-0.04801713
76	0xdd	-0.3361199
77	0x07	0.06722398
78	0xfa	-0.057620555
79	0x40	0.61461926
80	0x13	0.18246509
81	0x03	0.028810278
82	0x0e	0.13444796
83	0x0d	0.124844536
84	0x99	-0.98915285
85	0x12	0.17286167
86	0x01	0.009603426
87	0x10	0.15365481
88	0xf8	-0.07682741
89	0x0f	0.14405139
90	0x0a	0.09603426
91	0xff	-0.009603426
92	0xfe	-0.019206852
93	0x0e	0.13444796
94	0xe8	-0.23048222
95	0x0a	0.09603426
96	0xfd	-0.028810278
97	0x12	0.17286167
98	0x02	0.019206852
99	0xf5	-0.105637684
100	0x03	0.028810278
101	0xdd	-0.3361199
102	0xf9	-0.06722398
103	0x03	0.028810278
104	0xf2	-0.13444796
105	0xf1	-0.14405139
106	0xda	-0.36493018
107	0xfe	-0.019206852
108	0xf2	-0.13444796
109	0x05	0.04801713
110	0xd7	-0.39374048
111	0xb4	-0.72986037
112	0x18	0.23048222
113	0xf5	-0.105637684
114	0x13	0.18246509
115	0x03	0.028810278
116	0xec	-0.19206852
117	0x0a	0.09603426
118	0xe7	-0.24008565
119	0xfd	-0.028810278
120	0x00	0.0
121	0xfb	-0.04801713
122	0xfe	-0.019206852
123	0xef	-0.16325824
124	0xc6	-0.5569987
125	0xf1	-0.14405139
126	0xfc	-0.038413703
127	0xff	-0.009603426
128	0xfc	-0.038413703
129	0x0d	0.124844536
130	0x30	0.46096444
131	0x25	0.35532677
132	0x1a	0.24968907
133	0x15	0.20167194
134	0x25	0.35532677
135	0x11	0.16325824
136	0x01	0.009603426
137	0x2b	0.4129473
138	0x1c	0.26889592
139	0x29	0.39374048
140	0xf5	-0.105637684
141	0x0d	0.124844536
142	0x3e	0.5954124
143	0x0b	0.105637684
144	0xff	-0.009603426
145	0x27	0.3745336
146	0x16	0.21127537
147	0x15	0.20167194
148	0x08	0.07682741
149	0x2c	0.42255074
150	0x2d	0.43215418
151	0x17	0.2208788
152	0x13	0.18246509
153	0xf7	-0.08643083
154	0x06	0.057620555
155	0xfe	-0.019206852
156	0xfa	-0.057620555
157	0xf9	-0.06722398
158	0x0a	0.09603426
159	0xf9	-0.06722398
160	0x10	0.15365481
161	0x37	0.5281884
162	0x01	0.009603426
163	0x2f	0.451361
164	0x30	0.46096444
165	0x49	0.7010501
166	0x1f	0.2977062
167	0x16	0.21127537
168	0x04	0.038413703
169	0x12	0.17286167
170	0x2d	0.43215418
171	0xf8	-0.07682741
172	0x0f	0.14405139
173	0x21	0.31691307
174	0x0a	0.09603426
175	0x15	0.20167194
176	0x16	0.21127537
177	0x1b	0.25929248
178	0xf2	-0.13444796
179	0x08	0.07682741
180	0x18	0.23048222
181	0x14	0.19206852
182	0xf6	-0.09603426
183	0x08	0.07682741
184	0x18	0.23048222
185	0x21	0.31691307
186	0x01	0.009603426
187	0x04	0.038413703
188	0x16	0.21127537
189	0xf5	-0.105637684
190	0x0a	0.09603426
191	0x01	0.009603426
192	0x06	0.057620555
193	0xf9	-0.06722398
194	0x0b	0.105637684
195	0x22	0.32651648
196	0xdc	-0.34572333
197	0xe1	-0.2977062
198	0xfe	-0.019206852
199	0xd9	-0.3745336
200	0xea	-0.21127537
201	0x1b	0.25929248
202	0x07	0.06722398
203	0xf7	-0.08643083
204	0xfe	-0.019206852
205	0x01	0.009603426
206	0xf3	-0.124844536
207	0x00	0.0
208	0x06	0.057620555
209	0x06	0.057620555
210	0xf6	-0.09603426
211	0xf4	-0.11524111
212	0xda	-0.36493018
213	0x09	0.08643083
214	0xfa	-0.057620555
215	0xfe	-0.019206852
216	0x15	0.20167194
217	0xc9	-0.5281884
218	0xd7	-0.39374048
219	0x24	0.34572333
220	0x0d	0.124844536
221	0x0e	0.13444796
222	0x12	0.17286167
223	0x03	0.028810278
224	0xce	-0.4801713
225	0x01	0.009603426
226	0xf3	-0.124844536
227	0x0a	0.09603426
228	0xdc	-0.34572333
229	0x0c	0.11524111
230	0xf8	-0.07682741
231	0x0b	0.105637684
232	0xe9	-0.2208788
233	0x02	0.019206852
234	0x2c	0.42255074
235	0x00	0.0
236	0xf4	-0.11524111
237	0x1f	0.2977062
238	0x0c	0.11524111
239	0xf4	-0.11524111
240	0xf9	-0.06722398
241	0xee	-0.17286167
242	0x10	0.15365481
243	0x1b	0.25929248
244	0xff	-0.009603426
245	0x1b	0.25929248
246	0xdb	-0.35532677
247	0xeb	-0.20167194
248	0xb3	-0.7394638
249	0x04	0.038413703
250	0xdb	-0.35532677
251	0xff	-0.009603426
252	0xfa	-0.057620555
253	0xd8	-0.38413703
254	0xc2	-0.5954124
255	0x22	0.32651648
